best-model-multiclass.pth (torch, 599346 bytes, 15 tensors)

loss_fn.weight f4 [6]
000000 00 00 00 40 00 00 80 3f 00 00 40 40 00 00 80 40
       2.0 1.0 3.0 4.0
000010 00 00 00 41 00 00 80 40
       8.0 4.0

model.0.weight f4 [512, 23]
000000 b7 67 1e 3e 00 09 2c 3e 83 25 39 bd 25 3c 47 3e
       0.15469252 0.16800308 -0.04520179 0.19456537
000010 9c 04 33 bd 25 d3 3b 3d 10 eb d6 bd 04 92 02 3e
       -0.043705568 0.04585566 -0.10494053 0.12751013
000020 1b 8e 37 3e 6b ab 1a be ad 9d 37 3e 2b c4 d4 3c
       0.17925303 -0.15104453 0.17931242 0.025972446
000030 26 a2 25 3e 1f 4b f9 3c 5c 4e d7 3d 36 45 f4 bc
       0.16175136 0.030431328 0.10512993 -0.029818159
000040 10 1b 26 3e 7d dd 1d 3d 3d 3d bb bd 4d 85 75 3d
       0.16221261 0.038541306 -0.0914254 0.05994158
000050 ca b8 c3 bd fb c0 99 bc d8 7c 9c bd 6d 14 26 3e
       -0.0955673 -0.018768778 -0.076409996 0.1621873
000060 11 ee 0d be 06 ad ca bd 50 d1 76 bd 52 da fc bd
       -0.13860346 -0.09896283 -0.06025821 -0.12346329
000070 a1 33 82 3c 87 ac 63 be da b1 2f 3e dc 55 33 be
       0.01589376 -0.22233783 0.17157689 -0.17513222
000080 6b 1b 1d 3e 41 13 2d 3d 38 fe 8e bd 61 6d e4 3d
       0.1534249 0.04225469 -0.06982082 0.11153675
000090 97 d2 08 3d 3a 63 2e 3e 83 85 b2 3c d6 cd 4e bd
       0.03340396 0.1703004 0.021792179 -0.05048927
0000a0 ed 85 94 3d a0 3a 3c bd 21 4a df 3d 92 98 42 3e
       0.07252107 -0.045954347 0.10902811 0.19003513
0000b0 41 80 e2 3d 8f 1b a3 bd 5a 9c f0 3d 05 10 09 3d
       0.11059619 -0.07964241 0.11748572 0.033462543
0000c0 d5 1e 9f 3d d3 c9 17 be 81 89 6a be 44 7c e1 bd
       0.077695526 -0.14823084 -0.22904016 -0.1101003
0000d0 d3 72 20 be 82 30 26 3e cd 1e 61 3d d3 39 d2 3d
       -0.15668802 0.16229442 0.054961015 0.10264935
0000e0 a6 6d 4b 3d fa 0b fb 3b be c2 2a 3e ef a5 2e be
       0.049665116 0.00766134 0.16675851 -0.17055486
0000f0 36 1d ed 3b 15 5b 13 be 64 e1 32 3d 26 32 bc bd
       0.007236148 -0.14390214 0.04367198 -0.091892526
000100 6c 59 52 3d 2b e6 7c bd 2c 90 1e 3e 6c 3b 08 be
       0.05135481 -0.061742943 0.15484685 -0.13303918
000110 3b ba 0a be 6e 0e f8 bd bf 69 43 3e 59 31 85 3d
       -0.13547604 -0.12112127 0.19083308 0.06503553
000120 8f 77 49 3e 34 bb 30 be 68 44 58 be f9 9a 1c be
       0.19674514 -0.17258912 -0.21119845 -0.15293492
000130 2d 19 13 be f7 bd a4 3d bb fc a4 3d 56 61 2b 3e
       -0.14365073 0.080440454 0.08056017 0.1673635
000140 25 81 c8 bd 65 b3 1c be e4 7d dc 3d 16 a9 cc bd
       -0.09790257 -0.15302809 0.10766199 -0.09993188
000150 c7 07 06 3e b6 1e 39 bd 51 0f e9 3d 6f b4 2b be
       0.13088904 -0.045195304 0.113798745 -0.16768049
000160 dc 05 de bd 51 00 8f 3d 8e 57 5c 3d 31 c3 6c bd
       -0.10840961 0.06982482 0.053794436 -0.057803337
000170 02 a6 19 3e 9d 8a 2c 3e 56 45 29 be fc 52 03 be
       0.15004733 0.16849752 -0.16530356 -0.12824625
000180 09 94 31 3e af d6 aa bd f4 71 49 bd ab 44 33 be
       0.17341627 -0.08341729 -0.04918094 -0.17506664
000190 03 a2 04 be 1a ce 32 3d 3d 5f 9c bc 33 11 1a be
       -0.12952428 0.043653585 -0.019088382 -0.15045623
0001a0 df dc 17 3c 69 f1 17 be ff 47 1b be 3b 30 e1 bd
       0.009268968 -0.14838184 -0.15164183 -0.10995527
0001b0 af b1 41 be 9c 11 1c be 81 81 48 3e e6 12 66 3c
       -0.18915437 -0.15241092 0.19580652 0.014042592
0001c0 74 a7 76 3d 4c a9 23 be be eb 1c be bd 4d 5a bd
       0.06021829 -0.1598255 -0.15324304 -0.053296793
0001d0 6d 49 43 3d a9 5d 36 be d1 0c af bd 85 2f ef bd
       0.047677446 -0.17809166 -0.085473664 -0.116789855
0001e0 3f 2c c7 3b 98 30 a9 bd b3 39 99 bc 17 b3 1f be
       0.0060782726 -0.08261222 -0.018704271 -0.15595661
0001f0 43 63 11 be b8 79 fb bd 6d e8 69 bd cd 4d 30 be
       -0.14198022 -0.122790754 -0.057106424 -0.17217179
000200 4f 12 3b 3e 10 1d 5d bd 35 99 37 3e 76 b3 a0 3d
       0.18268703 -0.053982794 0.17929538 0.078467295
000210 16 a9 2e be ba 43 17 3e e1 1d 41 bd b8 b6 93 bd
       -0.17056689 0.1477193 -0.047147635 -0.07212585
000220 a4 d2 35 be a3 17 4d be 61 ac 88 3d 7a 9e 19 bd
       -0.17756134 -0.20028548 0.06673504 -0.03750465
000230 71 d4 a0 3d 1c 83 32 be 52 7c 15 3e 07 b9 1f be
       0.0785302 -0.17432827 0.14598206 -0.15597926
000240 3d 40 30 bd 56 8c cd 3c d7 74 f0 3d 0e 4e 3d 3e
       -0.043030012 0.025091331 0.117410354 0.18486807
000250 f0 93 31 3e 19 5a 24 be b1 ef 4f 3d 8f 79 ba bd
       0.1734159 -0.16049995 0.050765697 -0.09105217
000260 c9 7e 42 bc d8 ce 1a be 0b 3d 44 3e 52 47 1c be
       -0.011871048 -0.15117967 0.19163911 -0.15261582
000270 7c c9 e4 3d 9d 65 8d 3d fb 85 87 3d 18 cf 00 be
       0.111712426 0.06904147 0.066173516 -0.12579
000280 9f 19 40 3e 58 59 29 3d 42 99 b5 3c 5e 03 3c be
       0.18759774 0.04134497 0.022167806 -0.1836066
000290 15 0d b5 3d ab 89 01 bd f7 41 c5 bd 0d c1 37 3e
       0.08840386 -0.03162543 -0.096317224 0.17944737
0002a0 ec 2a 49 3d ee 26 c4 bd c8 1e df bd 2b 9d d6 bb
       0.0491132 -0.09577738 -0.10894543 -0.0065494976
0002b0 29 6a ea 3d 10 1f 4b bd aa bf ee bd 6e d3 84 bd
       0.1144603 -0.04959017 -0.11657651 -0.064856395
0002c0 87 7a 15 be e9 01 b2 3d db be 28 3e 0c 35 4a be
       -0.14597522 0.086917706 0.16479056 -0.19746798
0002d0 37 a5 50 3d 24 c4 f1 3d 90 dc 25 3d 4e f1 9e bd
       0.05093881 0.11804989 0.040493548 -0.07760869
0002e0 44 86 d3 3d 5f 23 dc 3d a9 f3 bf 3d 27 30 91 bc
       0.103283435 0.10748934 0.09372646 -0.017723156
0002f0 97 ca 17 bd c5 c5 21 3d 57 5d 33 bd 89 9b 4c bd
       -0.03705844 0.03949525 -0.043790188 -0.049953017
000300 4b 75 e8 3d 64 88 2c 3e 61 c3 22 bc 3a 53 82 bd
       0.11350497 0.16848904 -0.009934277 -0.063635305
000310 1c 79 29 bc bc fa e5 3b 7d 39 87 3d 71 25 2f 3d
       -0.010343816 0.0070184153 0.06602762 0.042760316
000320 47 19 51 be ac f6 85 bd b6 9b 42 3e 8d 54 b7 3d
       -0.20419799 -0.065411896 0.19004712 0.08951674
000330 f3 1f ea bc 9f 77 fc bd d5 34 eb bd a4 e1 55 be
       -0.028579688 -0.123275034 -0.11484686 -0.20886856
000340 0e aa bb bd 31 3f ae 3d 1f 3e 15 3e 1a 04 e6 3d
       -0.09163295 0.085081466 0.14574479 0.11231251
000350 4a 27 2c be 33 30 06 be 33 ef 02 bd 7e 79 45 3e
       -0.16811863 -0.13104324 -0.0319664 0.19284627
000360 bc 9f d3 3c bd 71 4b bd f3 f7 d7 3d 82 9f c2 bd
       0.025833003 -0.049669016 0.105453394 -0.0950308
000370 f5 9a f6 bd d8 fc 0b 3e 37 86 d9 bd 4e db 63 bd
       -0.120412745 0.13670671 -0.106213026 -0.055629067
000380 7d 75 47 be d5 bb 1c 3e 02 ea 2f 3e e0 c8 88 3d
       -0.19478412 0.15306027 0.1717911 0.06678939
000390 b1 92 13 be 58 05 44 be f7 ec 2d be 97 d4 1c 3e
       -0.14411427 -0.19142663 -0.16984926 0.15315472
0003a0 b5 f3 a5 3d e5 58 22 3e 73 98 c1 3d f5 f7 0e 3d
       0.08103124 0.15854223 0.094529055 0.03490444
0003b0 df 3d 9e bb c2 63 1b be fb 38 36 be 17 46 64 be
       -0.004829153 -0.15174773 -0.17795174 -0.22292362
0003c0 74 ee e7 3d a3 cf 02 be 9b 95 45 bd 4c 8b 00 be
       0.11324778 -0.1277452 -0.048238378 -0.12553138
0003d0 4a 1c f9 bc a4 31 19 be 5d e1 0c be 5c 52 95 3d
       -0.030408997 -0.14960343 -0.13757844 0.072910994
0003e0 a0 8a 6c bd 5f 3b fa 3d b8 46 94 bd 62 57 1f be
       -0.05774939 0.122183554 -0.07240051 -0.15560678
0003f0 89 6f e0 bc c5 21 cd bd 28 90 85 bd 16 86 4f be
       -0.027396934 -0.10016207 -0.06521636 -0.20265993

model.0.bias f4 [512]
000000 af 81 51 be 99 d9 87 3c 0a 89 94 bb 42 b2 03 be
       -0.20459627 0.01658325 -0.004532938 -0.12860969
000010 b3 fa 4f 3e bc 49 2b be da d4 34 be d6 65 19 be
       0.20310478 -0.16727346 -0.17659321 -0.14980254
000020 cd dc 41 be 70 cc 2b bd 9f 41 e4 bd 5e 15 2f 3e
       -0.18931885 -0.041943014 -0.11145329 0.17097995
000030 ee 4d e4 3d 69 d3 ca 3d bd 75 37 3e ed 3f 30 be
       0.111476764 0.099036045 0.17916007 -0.17211886
000040 13 38 00 be 72 0d 34 3e d6 84 1b 3e cf 52 06 3d
       -0.1252139 0.17583254 0.15187392 0.032793816
000050 d2 d5 ee 3d 3a 3c 5a 3d d2 39 83 bc 72 da 8e bd
       0.11661877 0.053280093 -0.016018782 -0.06975259
000060 cd b6 95 3d 0b 5a 2d be a5 71 52 3e 5d 09 3c be
       0.07310257 -0.1692888 0.20551164 -0.18362947
000070 a9 b8 21 be 45 95 1c 3e 64 b8 f7 bd 34 bf d0 bd
       -0.15793099 0.15291317 -0.120957166 -0.10192719
000080 d2 40 4b bd 09 76 3a be 6e 6f 26 bc 34 a3 f4 bc
       -0.049622364 -0.1820909 -0.010158403 -0.029862978
000090 b7 86 2c bd 60 18 8b ba 77 63 0f be 00 07 15 bd
       -0.04212066 -0.0010612123 -0.14002787 -0.03638363
0000a0 99 77 ca bc 7e 12 53 be 27 73 1e be 38 70 24 3e
       -0.024715232 -0.20612523 -0.15473615 0.16058433
0000b0 9b 65 4c be 6f 88 29 bd 3a 71 fb bd f0 16 54 3e
       -0.19960634 -0.04138988 -0.12277456 0.20711875
0000c0 e2 f7 1c 3e 0e 1b d2 3d dd 75 da bd a7 47 3c be
       0.15328935 0.102590665 -0.10667012 -0.18386708
0000d0 04 85 05 bd 6e 8b 02 3e 6d 75 c8 3c 68 9a e9 bd
       -0.032597557 0.127485 0.024470055 -0.11406404
0000e0 82 a3 3f be b0 59 34 3e f1 65 2b 3d bd c8 11 3e
       -0.18714717 0.17612338 0.041845266 0.14236732
0000f0 3e 59 3a be 7b 98 e2 3c e1 7c 47 3e 78 2e 4f be
       -0.18198106 0.027660599 0.19481231 -0.2023257
000100 4d c9 49 be 75 65 44 be c2 17 d2 bd 32 33 ae bc
       -0.19705696 -0.19179328 -0.10258438 -0.021264646
000110 8e 3d d1 3d a5 54 94 bd a7 ff 28 3e 51 fb 2e 3e
       0.10216819 -0.07242707 0.16503774 0.17088057
000120 2e 9a 0f 3e 5e b3 2c be 88 2b a7 3d fd 8a f2 3d
       0.14023659 -0.16865298 0.081626 0.11842916
000130 59 6f 1c 3e 9c 28 41 be cf 0c 33 bd 8d 03 d9 bd
       0.15276851 -0.18863147 -0.043713387 -0.105963804
000140 cf c9 a0 bd 8e 11 78 3d 2d d8 3c bc 41 fb b9 3d
       -0.07850992 0.060563616 -0.01152615 0.09081126
000150 13 9f 1e be ba 1e 85 bd e4 e8 b6 3d 6a bc 9d bd
       -0.1549037 -0.06500001 0.08931139 -0.07701953
000160 9e 0b d2 3c d7 74 0e be 40 4d 38 3e 0e d2 b2 b9
       0.025640305 -0.13911758 0.17998219 -0.0003410731
000170 86 cb 9c 3d 67 ef 35 3c 58 6f a8 3c 51 94 4a 3e
       0.076560065 0.011104441 0.020560905 0.1978314
000180 01 cf b3 bd e2 9f 3a 3e 2f dc b0 bd a4 59 d7 bb
       -0.08779717 0.18225053 -0.08635747 -0.0065719653
000190 f4 3e 07 be 3f d9 59 3d 79 d3 51 be 19 ef 6d 3d
       -0.13207608 0.053185698 -0.20490827 0.05808935
0001a0 c5 9e d6 bd a6 1d 3b 3e 33 31 50 3e d6 6e 07 3e
       -0.10479502 0.18273029 0.20331268 0.13225874
0001b0 4d 4a 48 be 6b 53 c0 3d 43 25 20 be 7e de 54 3c
       -0.19559593 0.09390911 -0.15639214 0.012992499
0001c0 89 9a 01 be a5 fb 06 3e 3a 55 c6 bc 19 ac 89 3d
       -0.12656607 0.13181932 -0.024210561 0.06722278
0001d0 f4 1b 87 3d 82 b1 0b 3e 78 9b 06 3e e9 a6 f0 bb
       0.065971285 0.13641933 0.13145244 -0.007344116
0001e0 a9 fc 17 be 72 d8 9c 3d a6 43 a0 bd 21 75 e8 bc
       -0.14842476 0.07658471 -0.07825403 -0.028376164
0001f0 bc 07 58 3c 7e da 3e 3e 3a ea 1f 3e 6b 95 f2 bc
       0.013185438 0.18638036 0.15616694 -0.029612264
000200 7a ea cb bd e8 57 43 3e 4c 30 e7 3d ac d1 38 be
       -0.09956832 0.19076502 0.11288509 -0.18048733
000210 54 43 d6 bb 81 b2 1d be 95 34 5a bd b6 83 37 be
       -0.006538788 -0.15400125 -0.053272802 -0.17921337
000220 ae 1d 32 be b6 80 15 be 1b b9 36 bd 07 36 98 3d
       -0.17394134 -0.1459988 -0.044610124 0.0743218
000230 85 8f 3f be aa 0e a2 bd 9a 19 29 3d 8f 25 65 3d
       -0.18707092 -0.07912953 0.04128418 0.05594402
000240 42 b3 74 bb 1f da 25 be da d1 45 bc 43 dc 89 3d
       -0.0037338291 -0.16196488 -0.012073958 0.06731465
000250 0b 04 3e be 67 12 09 be 88 31 18 3d 2b 35 0e 3a
       -0.1855623 -0.13385926 0.03715661 0.0005424793
000260 96 09 1f 3e 7f 5a 81 3d 21 ec e4 3d cd cb 21 be
       0.15531 0.06316089 0.111778505 -0.158004
000270 c8 ce 40 bd 1b aa ed bc 6e a2 4e bd 83 d7 0e bd
       -0.047072202 -0.029011777 -0.050447874 -0.034873497
000280 f2 e9 ce 3d a1 cd 01 be 7b cc 8a bd f7 50 a2 bd
       0.10103215 -0.12676097 -0.06777283 -0.07925599
000290 67 fa 00 3d 27 05 06 3d b9 46 e2 bc 75 97 dd 3d
       0.031488802 0.032719757 -0.027621614 0.10819904
0002a0 5d 22 26 be 67 6c 1a 3e 2e 40 64 3d e1 b6 15 3e
       -0.16224046 0.15080415 0.05572527 0.14620544
0002b0 58 d1 4b be 91 9e 1b 3e a0 ca ed 3d b2 c0 08 3e
       -0.19904077 0.15197207 0.11610913 0.13354757
0002c0 ea 36 e1 3d 1c 27 c8 bd 46 df 52 bd 6a 57 bd 3b
       0.10996802 -0.097730845 -0.05148246 0.005778243
0002d0 3c 65 4e 3d c8 57 4c be 27 14 26 bd 82 1c 4a be
       0.050389513 -0.19955361 -0.040546563 -0.19737437
0002e0 b9 b8 11 be b8 bf 9f bd 39 6b 84 bd 4d d4 3f 3d
       -0.14230622 -0.07800239 -0.064657636 0.046833325
0002f0 32 27 17 3e a3 99 8b bd db 86 12 bd 08 0b 94 3d
       0.14761046 -0.06816413 -0.03577314 0.072286665
000300 db 92 53 3d ca c3 51 3e 37 c2 15 3d d5 f8 a5 3c
       0.051653724 0.20484844 0.03656217 0.020260254
000310 4c 46 24 be 1b 35 99 3d fa 7f 88 3d e3 6f 95 3d
       -0.16042441 0.07480832 0.066650346 0.07296731
000320 f5 67 f4 bb 0b c7 da bc 59 fd 2a 3d 1c e7 56 bc
       -0.0074586817 -0.02670624 0.041745517 -0.013116624
000330 71 e1 29 bd d6 86 40 be 90 4f da 3d 2a e7 f1 bd
       -0.041474763 -0.18801436 0.106597066 -0.11811669
000340 d1 97 7d 3d 08 35 b2 3d a8 3b c9 3d ff 66 bb bc
       0.06191236 0.08701521 0.09825832 -0.02287626
000350 93 b8 b2 bb 06 f1 0f 3e b8 47 f3 bd 84 05 16 be
       -0.005454132 0.14056787 -0.11878914 -0.14650542
000360 b1 7e 0a 3e 6e 9f 4c 3e b0 71 21 3e bc 04 04 3e
       0.13524891 0.19982693 0.15766025 0.12892431
000370 14 1c e3 bd bf b1 00 3e 1a 66 dc bd 61 5a bf 3d
       -0.1108934 0.12567805 -0.10761662 0.0934341
000380 f8 c5 41 3e f1 42 7e bd b0 c9 1d be 5a c6 17 be
       0.18923175 -0.06207556 -0.15408969 -0.14821759
000390 39 59 8e bd e2 3f 7b 3c bd 60 43 3e 50 f0 1b 3d
       -0.069506116 0.015335055 0.19079871 0.038070977
0003a0 d4 87 da bd 24 22 aa bc d1 8e 71 bd a9 3c 53 3d
       -0.106704384 -0.020768233 -0.05897409 0.051571522
0003b0 a7 8b ac 3d e8 d2 f8 bd 4f f0 89 3d 53 f8 ce 3d
       0.08425074 -0.12149602 0.06735288 0.10105958
0003c0 c2 20 53 bc 78 6e 13 be a1 21 08 3e 17 5f 4b be
       -0.012886228 -0.14397609 0.13294078 -0.19860493
0003d0 f5 a5 d1 3d 12 87 07 3d c6 3a 6a bd 50 a4 a2 bd
       0.10236732 0.033087797 -0.057184957 -0.07941496
0003e0 e1 cf 3c 3d a7 ca f6 bd f6 ce 13 bc d8 38 1f 3e
       0.046096686 -0.120503716 -0.009021511 0.15549028
0003f0 cf 24 53 bc b9 5c 0e be 18 6b 26 3e 57 fd 04 3e
       -0.012887194 -0.13902558 0.1625179 0.12987266

model.1.weight f4 [512]
000000 1e ea 7f 3f 4e 3a 80 3f 4c 30 7b 3f 33 31 7f 3f
       0.9996661 1.0017793 0.9812057 0.9968445
000010 17 7d 81 3f a3 f4 7e 3f 99 e1 80 3f 53 3e 7f 3f
       1.0116299 0.99592036 1.0068847 0.99704474
000020 ea 8f 7d 3f 1a 9d 7d 3f 61 dc 7e 3f 8b 9d 7c 3f
       0.9904772 0.9906784 0.9955502 0.9867789
000030 e2 6b 7f 3f d0 47 81 3f 56 e7 80 3f 14 09 7e 3f
       0.9977399 1.010004 1.0070598 0.992326
000040 cf 2f 80 3f 81 4f 81 3f 6c 63 80 3f 01 c8 7e 3f
       1.001459 1.0102388 1.0030341 0.9952393
000050 cb c1 80 3f 66 b3 80 3f ff 8a 80 3f bd 0b 80 3f
       1.0059141 1.0054748 1.0042418 1.0003582
000060 c0 a9 7d 3f e3 da 7d 3f f2 45 7e 3f 7d e4 7e 3f
       0.9908714 0.9916212 0.9932548 0.99567395
000070 52 2c 82 3f 23 ad 7f 3f 3c 84 80 3f 1d 0d 7e 3f
       1.0169775 0.9987356 1.0040355 0.9923876
000080 b8 bc 7d 3f eb 6c 7e 3f 52 d8 80 3f a9 bc 7e 3f
       0.99116087 0.99384946 1.0066016 0.9950662
000090 27 e1 82 3f d9 52 81 3f d6 da 80 3f c5 8b 81 3f
       1.0224961 1.0103408 1.0066783 1.0120779
0000a0 0b 32 80 3f f8 15 80 3f b8 d2 7e 3f 74 18 81 3f
       1.0015272 1.0006704 0.9954028 1.0085588
0000b0 66 50 7f 3f f8 65 80 3f 44 85 80 3f 54 40 81 3f
       0.99732053 1.0031118 1.004067 1.0097756
0000c0 ff 61 80 3f 4c 7e 7e 3f a8 5c 80 3f 56 72 7f 3f
       1.0029906 0.99411464 1.0028276 0.9978384
0000d0 d3 d5 7e 3f cd b2 83 3f aa 6c 80 3f 73 21 7f 3f
       0.9954502 1.0288941 1.0033162 0.99660414
0000e0 85 46 80 3f f7 79 80 3f 6c 5b 7d 3f d6 2e 7e 3f
       1.0021521 1.0037221 0.98967624 0.99290216
0000f0 51 0c 80 3f 38 7b 80 3f 22 c2 7f 3f cc 86 7e 3f
       1.0003759 1.0037603 0.999056 0.99424434
000100 fe 9c 7f 3f 4e 2e 7d 3f 53 d7 79 3f 9f af 80 3f
       0.99848926 0.9889878 0.97594184 1.0053595
000110 d2 54 80 3f 4d 9f 80 3f d6 f7 80 3f 91 54 7e 3f
       1.0025885 1.0048615 1.0075634 0.9934779
000120 79 52 80 3f 56 22 7d 3f 3d f6 81 3f 43 cc 7d 3f
       1.0025169 0.9888052 1.0153271 0.99139804
000130 b5 ec 79 3f 40 1b 80 3f 7b 0e 81 3f 64 6a 7c 3f
       0.9762681 1.0008316 1.0082544 0.9859984
000140 80 13 80 3f 36 de 7e 3f f9 4b 80 3f 9d 0b 83 3f
       1.0005951 0.99557817 1.0023185 1.0237919
000150 f1 fb 7c 3f 82 95 7d 3f 69 4b 81 3f dc 4b 80 3f
       0.9882193 0.99056256 1.0101138 1.002315
000160 11 13 81 3f 10 ee 80 3f 6d 55 81 3f d5 13 83 3f
       1.0083944 1.0072651 1.0104195 1.0240427
000170 f6 d7 7c 3f 87 7e 81 3f 85 b4 7b 3f e8 0a 7e 3f
       0.9876703 1.0116738 0.98322326 0.9923539
000180 1e f8 7e 3f 04 77 80 3f 61 1d 7f 3f ab cf 80 3f
       0.99597347 1.0036321 0.99654204 1.0063375
000190 65 a7 7e 3f 08 a2 81 3f cf b1 7f 3f 47 43 7f 3f
       0.99474174 1.0127573 0.9988069 0.9971203
0001a0 f3 e0 7d 3f ca 59 80 3f 71 09 81 3f fa 6e 7d 3f
       0.9917137 1.0027401 1.0081006 0.9899746
0001b0 a3 df 7f 3f 28 ee 7b 3f d8 e8 7b 3f b7 31 7e 3f
       0.9995062 0.9841027 0.98402166 0.9929461
0001c0 7a 9b 7d 3f 26 d9 7c 3f 11 99 7f 3f d7 a2 7e 3f
       0.99065363 0.9876884 0.99842936 0.99467224
0001d0 93 eb 81 3f c7 e7 80 3f 2c 6f 80 3f f7 fe 7f 3f
       1.0150017 1.0070733 1.0033927 0.9999842
0001e0 38 cf 7d 3f ea 7a 80 3f 7b a5 80 3f 52 73 7c 3f
       0.99144316 1.003751 1.0050501 0.98613465
0001f0 5b bb 80 3f b7 5d 7e 3f 9b f8 7d 3f 35 7c 7f 3f
       1.0057176 0.9936175 0.99207467 0.997989
000200 f6 10 81 3f 5b a6 7f 3f 96 12 7f 3f 43 43 83 3f
       1.0083301 0.99863213 0.99637735 1.0254902
000210 67 2d 7c 3f e1 21 80 3f e1 6e 80 3f 9f ea 81 3f
       0.9850678 1.0010339 1.0033838 1.0149726
000220 03 2d 80 3f c6 13 81 3f 86 bd 80 3f d8 e3 7c 3f
       1.0013736 1.0084159 1.0057838 0.9878516
000230 7a d7 7e 3f 39 d7 7f 3f 5a c1 7f 3f d0 cd 7f 3f
       0.9954754 0.9993778 0.99904406 0.9992342
000240 24 2c 81 3f 11 70 7d 3f cd 44 80 3f c5 0f 7d 3f
       1.0091596 0.98999125 1.0020996 0.9885219
000250 15 17 7f 3f 79 ed 7d 3f 1f 05 7f 3f 8b e9 82 3f
       0.99644595 0.9919048 0.9961719 1.0227522
000260 ca 36 81 3f 66 9f 82 3f 58 25 7e 3f 8c de 7c 3f
       1.0094845 1.0204895 0.9927573 0.9877708
000270 c2 db 81 3f 0b ca 7f 3f e4 b1 7d 3f 9a f1 81 3f
       1.014519 0.9991767 0.99099565 1.0151856
000280 0b 34 80 3f 54 29 7e 3f 70 48 7d 3f 96 22 7e 3f
       1.0015882 0.9928181 0.98938656 0.99271524
000290 dd 1f 84 3f c0 26 7d 3f 65 e5 7d 3f 06 8b 7f 3f
       1.0322224 0.9888725 0.99178153 0.9982151
0002a0 9e 23 7c 3f df ed 7e 3f 01 25 80 3f f9 0a 80 3f
       0.9849185 0.9958171 1.0011293 1.0003349
0002b0 da df 83 3f d3 76 80 3f 0b f2 81 3f 48 1d 80 3f
       1.0302689 1.0036262 1.0151991 1.0008936
0002c0 64 09 80 3f a4 24 7a 3f e9 8f 7e 3f d1 48 80 3f
       1.0002866 0.9771216 0.9943834 1.0022222
0002d0 c4 90 80 3f 45 ab 7d 3f 58 49 7c 3f ae 1b 81 3f
       1.0044179 0.9908946 0.98549414 1.0086572
0002e0 6c b9 7d 3f c6 3e 80 3f 55 e9 81 3f 84 6b 81 3f
       0.99111056 1.0019157 1.0149332 1.0110936
0002f0 85 9b 7f 3f 16 2f 7d 3f 3e 98 7f 3f 9f 08 84 3f
       0.9984668 0.9889997 0.9984168 1.0315131
000300 c1 99 80 3f c1 b3 7d 3f 85 87 80 3f 3d b6 81 3f
       1.0046922 0.9910241 1.0041357 1.013374
000310 db f9 7f 3f aa 95 7e 3f c0 29 7e 3f f2 16 81 3f
       0.99990624 0.9944712 0.99282455 1.0085127
000320 6a b9 80 3f e2 ae 80 3f 88 44 80 3f d9 23 81 3f
       1.0056584 1.005337 1.0020914 1.0089065
000330 ea 3a 80 3f 86 fd 7a 3f 56 d8 81 3f 15 ec 7d 3f
       1.0017979 0.98043096 1.0144145 0.9918836
000340 e3 4d 83 3f 5e b0 7d 3f 35 db 7e 3f 08 bd 79 3f
       1.0258144 0.9909724 0.99553233 0.97554064
000350 b2 cd 7f 3f 8f 28 81 3f 4a 7a 7e 3f be 2d 81 3f
       0.9992324 1.0090503 0.9940535 1.0092084
000360 9e a4 7c 3f df 79 7e 3f e1 01 7f 3f 02 93 80 3f
       0.98688686 0.9940471 0.9961224 1.0044863
000370 dc a0 82 3f f5 3e 7f 3f ee e5 81 3f 62 c7 7b 3f
       1.020534 0.9970544 1.0148294 0.9835111
000380 27 b5 80 3f 16 ad 80 3f fe c9 80 3f 37 44 7c 3f
       1.0055283 1.0052822 1.0061643 0.9854159
000390 b0 d3 7e 3f d3 ea 81 3f d0 66 7e 3f 8a 97 7f 3f
       0.9954176 1.0149788 0.9937563 0.99840605
0003a0 cf fd 7c 3f 48 97 7d 3f 7a 8f 7f 3f 6b af 80 3f
       0.9882478 0.9905896 0.998283 1.0053533
0003b0 ed 10 7d 3f 16 fd 7e 3f eb ba 82 3f 20 cf 7c 3f
       0.9885395 0.9960493 1.0213293 0.9875355
0003c0 1e 11 7b 3f a5 59 7e 3f 37 5a 7f 3f 98 8d 7c 3f
       0.98072994 0.99355537 0.9974703 0.98653555
0003d0 0b 3a 80 3f f5 26 81 3f de cc 80 3f 9b 03 7f 3f
       1.0017713 1.0090014 1.006252 0.99614877
0003e0 de 4e 80 3f 77 0a 80 3f 26 73 81 3f 93 c7 7e 3f
       1.0024068 1.0003194 1.0113266 0.99523276
0003f0 80 1c 7f 3f fb a8 7f 3f a0 7f 80 3f 17 6e 80 3f
       0.9965286 0.9986722 1.0038948 1.0033597

model.1.bias f4 [512]
000000 dd 38 df 3b 13 12 ba bc 93 a1 66 bc aa 6d 43 bc
       0.0068121986 -0.022713697 -0.014076608 -0.011928001
000010 a4 72 4d 3c ae bf a3 3b ee 26 5f 3b de 47 25 bc
       0.0125395395 0.0049972152 0.0034050304 -0.010087935
000020 6f 6d 5c 3a ba 91 aa bb aa ee c1 3b 75 93 79 3a
       0.0008408641 -0.0052053602 0.0059183436 0.0009520569
000030 6b 49 e4 3b 5d 65 d2 3b 14 9a 7d 3c 8c 19 25 bc
       0.00696676 0.006420775 0.01547863 -0.010076892
000040 d0 e9 3f bb ea 83 62 3c 11 86 fd 3a e4 62 d0 bb
       -0.002928365 0.013825396 0.0019342323 -0.006359445
000050 6a 6e 80 3c 34 8d cf 3a 71 9e 11 bc f8 35 c8 3b
       0.01567765 0.0015834928 -0.008887873 0.006109949
000060 f7 cb 8d 3b a1 99 2b bc 20 49 04 bc c3 43 02 bc
       0.004327293 -0.01047364 -0.008074075 -0.007950726
000070 45 5c b5 3b 4b f2 2e ba ed 96 35 bc 53 22 01 bc
       0.005534681 -0.00066736777 -0.011083347 -0.007881719
000080 a9 2e d7 ba 5c d1 0a 3a a8 2f 6b 3c 47 e8 ba bb
       -0.0016417104 0.0005295479 0.014354624 -0.005703959
000090 5a 99 85 3c ec 4c 40 3c df 73 ba 3c b1 62 5d 3c
       0.016308475 0.01173709 0.02276033 0.013512299
0000a0 24 7f 89 3c f1 d1 9a 3b 27 d0 ae ba bf 29 a5 3c
       0.016784258 0.004724734 -0.0013337181 0.020161508
0000b0 e0 be 97 3c fb a7 db 3a 96 c1 1b 3c 4d d0 4f 3c
       0.018523633 0.0016758436 0.009506604 0.01268394
0000c0 42 16 f0 3a fd 4c 01 bc 00 50 03 3c 93 5f 28 bc
       0.001831718 -0.007891891 0.008014679 -0.010276693
0000d0 7b 33 b1 bb b9 2f e8 3a 6a ca 43 3c c2 20 ae bb
       -0.0054077483 0.0017714418 0.011950115 -0.0053139636
0000e0 64 30 13 3c 7e 0a 21 3b d0 88 21 3c 57 69 26 bc
       0.008983705 0.0024572904 0.009859279 -0.010156951
0000f0 e4 7f 98 3b 92 01 43 3b fd 3e 40 bb e8 f3 b4 bb
       0.0046539176 0.0029755575 -0.002933442 -0.00552224
000100 ff b4 7f 3b 9b 61 24 3b c5 24 0e 3c f9 de 51 3b
       0.0039017794 0.0025082591 0.008675759 0.0032023771
000110 73 25 d4 bb 58 36 ef 3c ff 86 52 3c fb d4 aa bc
       -0.006474191 0.029200718 0.012849568 -0.02085351
000120 f4 ae 08 3c d5 ba aa bb 18 97 85 3c 15 f9 9c bb
       0.008342493 -0.0052102604 0.016307399 -0.004790435
000130 cd 6f 21 3c 14 08 43 3c e0 19 0b b8 87 56 01 3c
       0.009853316 0.011903781 -3.316428e-05 0.007894165
000140 6a 2f bd ba 11 97 5d 3b b2 78 81 3c 7c a1 44 3c
       -0.0014433686 0.0033811966 0.015804622 0.0120013915
000150 fe 0a 6d bb c6 49 2f bc 94 21 0c bb b1 61 d6 3b
       -0.0036169882 -0.010698741 -0.0021382319 0.0065424074
000160 35 2b 37 3c 71 58 0f bb 6d b9 6e 3c 5b f4 8d bb
       0.011179735 -0.0021872784 0.014570576 -0.004332108
000170 a1 e8 51 bc f0 1d 1a 3c 2d 1b 3f bc 2f 77 39 3c
       -0.012811811 0.009406552 -0.011664194 0.0113199195
000180 26 ed 1c 3c 1b f5 ea 3a 15 d1 19 bc 82 65 68 3c
       0.009578025 0.001792583 -0.009388228 0.014184358
000190 b2 2d 6a bb e1 5b 65 39 91 f0 d6 3b b4 20 94 ba
       -0.0035732803 0.0002187337 0.0065594395 -0.001130125
0001a0 f8 f4 db bb 4e ee 74 3a fa 58 04 3c 59 db 8d ba
       -0.006712552 0.00093433715 0.008077854 -0.0010822817
0001b0 04 9d 78 bc 1e 2c 55 bc cf c4 21 bc 17 2e 21 3b
       -0.015174154 -0.013011007 -0.009873583 0.0024594122
0001c0 93 2b 25 bc b2 bb 81 bc 8e d4 83 b9 a2 6f cc ba
       -0.01008119 -0.01583657 -0.00025144633 -0.0015597234
0001d0 c8 13 b4 3c 5e 6a a9 3b 1a d4 fb 3a 91 24 03 bc
       0.021982089 0.0051701507 0.0019212991 -0.008004324
0001e0 1c 81 2d bc 37 8d 16 3c f9 dc ee 3b 8d 73 3d bc
       -0.010589864 0.009188942 0.0072895256 -0.011563194
0001f0 8b da 74 3c 91 c5 1a bc 66 d6 5a bb 0e e9 49 bb
       0.014944683 -0.009446518 -0.0033391952 -0.0030809077
000200 73 0a ae 3c 87 f3 a5 3a 42 eb a0 bb bd 89 c1 3c
       0.021245217 0.0012661078 -0.0049108574 0.023625249
000210 10 28 4e bc 54 15 38 3c f5 b3 86 3b 7e e1 d1 3c
       -0.012582794 0.011235554 0.004110808 0.025620218
000220 c8 a3 06 bc 6e fc a4 3b 67 50 0d 3c 83 57 7d bc
       -0.008217759 0.005034975 0.008625126 -0.015462759
000230 bc c6 2e bc fc c4 29 3c 81 3c a8 3b a2 8b 1a ba
       -0.010667499 0.010361906 0.0051341658 -0.00058954407
000240 76 c0 74 3c 3b 37 5b 3a 70 d1 13 3c c7 e2 94 bc
       0.014938464 0.0008362417 0.009022102 -0.018174542
000250 84 60 c4 bb 35 0b 1b bc 29 38 e1 ba 11 e3 96 3c
       -0.005992951 -0.009463121 -0.0017182875 0.01841882
000260 5a 98 9d 3c ac c9 e4 3b bd a9 68 bc 64 4b ce ba
       0.019237686 0.006982049 -0.014200625 -0.0015739021
000270 22 21 d2 3c 0e 0e 1e 3b cc a3 0d bc f7 bc ac 3c
       0.025650565 0.0024117264 -0.008645009 0.0210862
000280 8f 75 66 3b 3d 07 21 3c 0a 6e 5d 3c 2e 9d a3 bc
       0.0035165285 0.009828386 0.013515005 -0.01997241
000290 2e 9f 19 3c dd d2 93 bb 3e c7 90 39 fb 8d 1a 3c
       0.00937633 -0.004511221 0.00027614267 0.009433265
0002a0 56 74 05 bc 12 85 a7 3b ac 9d 12 3b a8 af 2c 3c
       -0.008145412 0.0051122988 0.0022371812 0.010539927
0002b0 6f fa 33 3c 86 38 2a 3b b6 99 30 bb aa bf 96 3c
       0.010985001 0.0025973632 -0.0026947088 0.01840194
0002c0 d1 b7 33 3c 1a ed 38 bc e8 55 b8 3a 0c e1 0e bb
       0.010969118 -0.011286998 0.0014063688 -0.002180162
0002d0 4f a9 64 3c 96 be 45 3b 84 87 b5 bb 43 97 91 3c
       0.013956382 0.0030173413 -0.0055398364 0.017772323
0002e0 6b b0 85 3b 09 02 66 3b c5 9b 7a 3c 44 d2 e7 3a
       0.0040798686 0.0035096428 0.015295927 0.0017686565
0002f0 ac 08 12 3c bc e1 87 bc e1 17 84 bb e1 f9 83 3c
       0.0089132 -0.01658713 -0.004031167 0.016110362
000300 92 d0 92 ba 49 72 92 bb 73 58 06 bc 81 14 2b 3c
       -0.0011201075 -0.0044691903 -0.008199799 0.0104419
000310 58 8d 92 ba 87 b5 16 bc f7 cb 03 bc 18 25 f9 3c
       -0.001118104 -0.009198553 -0.0080442345 0.030413195
000320 40 64 ca bb 16 79 e1 3c 64 1f a1 3c a4 2f df 3c
       -0.0061765015 0.027523559 0.019668289 0.027244397
000330 8d 82 f5 3a 6d 31 28 bc 72 35 4f 3c 2d 3d 5d bc
       0.0018730924 -0.01026569 0.01264702 -0.013503355
000340 82 7d 30 3c 40 18 45 bc 71 99 14 bb e5 42 51 b9
       0.010772111 -0.012029707 -0.0022674466 -0.00019956713
000350 12 96 e2 bb de 6b 46 3c d2 54 43 bc 15 63 38 bb
       -0.0069148624 0.0121106785 -0.011922078 -0.002813523
000360 04 8a dd bb a5 7c f0 ba b6 d3 91 bb fd cb f0 3b
       -0.0067608375 -0.0018347694 -0.0044502867 0.007348536
000370 cb cd ef 3b ac 2d 09 3b 20 02 c2 3a 82 db 12 bc
       0.0073182336 0.0020931764 0.0014801659 -0.008963468
000380 1f ab a7 3b fd c5 1d ba 9b 1f 0e 3c 2c b8 8e bc
       0.005116835 -0.0006018577 0.0086745275 -0.017421804
000390 ca 53 3b bc cc 17 03 3c b7 46 8f 3b 20 4c 68 bb
       -0.011433551 0.008001279 0.0043724435 -0.0035445765
0003a0 c5 79 a3 3b a1 87 b0 3b ce 0f ac 3a ca be db 3b
       0.0049888813 0.005387262 0.0013127269 0.0067060934
0003b0 f5 ba 83 bc d9 7e 26 bc 38 f9 be 3c c3 d7 6e bc
       -0.016080359 -0.010162079 0.023312196 -0.014577809
0003c0 ec 78 eb bb 09 0d a4 bb f2 c3 5e ba ac 0c 5e 3b
       -0.007186046 -0.0050064367 -0.0008497826 0.0033882065
0003d0 f9 9a 05 bc 1c f1 87 3b b7 92 87 3b e6 e3 31 bc
       -0.008154624 0.0041486155 0.004137363 -0.010857558
0003e0 11 48 dd 3b 7b ad b7 3b e5 83 28 3c 0a d9 83 3a
       0.0067529758 0.0056053973 0.010285352 0.001005919
0003f0 45 06 b5 3b 26 e5 ea bb 80 3c 14 bb cb 5b 3a 3c
       0.005524429 -0.00716843 -0.0022619069 0.011374424

model.1.running_mean f4 [512]
000000 64 db 4c be 12 78 f5 3c 7c 50 28 3c ff 30 07 be
       -0.20005566 0.02996448 0.010273095 -0.13202284
000010 a5 4c 57 3e 34 39 13 be 92 98 49 be 0f 6b e0 bd
       0.21025331 -0.1437729 -0.19687107 -0.1095792
000020 c8 f9 5e be 97 44 81 bd d3 6f ed bd fd b1 43 3e
       -0.21774971 -0.063119106 -0.115935944 0.19110866
000030 2c 6d f5 3d 1c 63 02 3e b8 d3 3f 3e 7d 10 06 be
       0.119837135 0.1273312 0.18733108 -0.13092227
000040 70 ee 02 be 49 d2 43 3e 90 99 44 3e ab bb 8d 3d
       -0.12786269 0.19123186 0.19199204 0.069205604
000050 60 60 fa 3d ac 7c 68 3d ae fa ec 3b b2 11 a6 bd
       0.12225413 0.05675952 0.007232032 -0.08108844
000060 80 d4 8d 3d ec c7 29 be fb c8 81 3e 98 5f 3d be
       0.06925297 -0.1658017 0.25348648 -0.18493497
000070 d8 9a 22 be 21 39 08 3e 3b da e1 bd e6 bf 00 be
       -0.1587938 0.13303043 -0.11027952 -0.12573203
000080 49 f2 e0 bc 74 0f f0 bd 00 a8 db b6 a1 78 b9 bb
       -0.02745928 -0.117216974 -6.5462664e-06 -0.005660132
000090 a2 01 d8 bc 58 01 b3 ba fa 0d 00 be d6 f0 ba bc
       -0.026367966 -0.0013657017 -0.12505332 -0.022819918
0000a0 90 15 1c bc 8d ed 35 be 3a 8b 3b be 4e 73 1e 3e
       -0.009526625 -0.177664 -0.1831483 0.15473673
0000b0 2d f4 42 be f4 27 dc bb 9c b5 06 be b9 fd 3f 3e
       -0.19038458 -0.00671863 -0.13155216 0.18749131
0000c0 e5 1b 02 3e 99 7a eb 3d 76 93 cc bd 68 a3 51 be
       0.12705953 0.11497993 -0.099890634 -0.20472491
0000d0 3d 44 cc bc bb 17 cd 3d 90 1e 25 3b 36 9f 9a bd
       -0.024934882 0.10014292 0.0025195219 -0.07549898
0000e0 d5 69 34 be d6 5d 53 3e 3c 1a e6 3c a9 a6 21 3e
       -0.17618497 0.20641264 0.028088681 0.15786232
0000f0 eb 58 29 be f3 68 13 3d 62 6b 80 3e ca eb 7d be
       -0.16537826 0.03598876 0.25081927 -0.24796978
000100 da 9d 48 be cf 52 65 be e9 c6 ed bd d4 aa 88 bc
       -0.19591466 -0.2239487 -0.11610205 -0.01668302
000110 7c e1 f8 3d 3f c5 a2 bd 1c e3 26 3e 06 04 42 3e
       0.12152383 -0.07947778 0.16297573 0.18946847
000120 64 ee 04 3e 2c 0c 3e be 14 55 8e 3d 7e 1a 17 3e
       0.12981564 -0.1855933 0.06949821 0.147562
000130 8d e0 06 3e a8 f4 58 be 1a 35 39 bd 83 d9 e8 bd
       0.13171597 -0.21187079 -0.045216657 -0.11369612
000140 60 ed 97 bd 33 f1 8a 3d 59 36 b7 bc 22 46 c3 3d
       -0.074183226 0.06784286 -0.022364782 0.09534861
000150 6d 6b fe bd 0a 8c 49 bd e2 99 b9 3d 5c e8 60 bd
       -0.124228336 -0.049205817 0.09062554 -0.054909095
000160 70 21 9c 3d 5c 0f 2e be 79 05 32 3e 00 d4 8b b7
       0.07623565 -0.16998047 0.173849 -1.6668811e-05
000170 aa 6a 8d 3d 7a 95 f8 3c a0 b1 66 3c 1a 1b 49 3e
       0.0690511 0.030344713 0.014080435 0.19639245
000180 c5 a2 d0 bd 93 1e 4a 3e 04 6a a5 bd b4 23 1c bc
       -0.10187296 0.19738226 -0.080768615 -0.009529997
000190 84 47 1e be 48 8e 8e 3d e1 d5 41 be e9 99 9a 3d
       -0.15456969 0.06960732 -0.18929245 0.07548887
0001a0 8e 90 ba bd 2b 09 2b 3e c0 5d 34 3e c7 2c 20 3e
       -0.09109603 0.16702716 0.17613888 0.15642081
0001b0 db d1 3e be 18 29 df 3d c1 13 20 be 64 7a 99 3c
       -0.18634741 0.1089651 -0.15632536 0.018735118
0001c0 ac 41 ed bd 89 84 05 3e b8 ec 07 bc a1 87 7f 3d
       -0.115847915 0.1303884 -0.008296184 0.062385205
0001d0 dd 4a 89 3d 0f d4 e8 3d 4b 50 d1 3d b7 1e a2 3c
       0.06703732 0.11368572 0.10220393 0.019790037
0001e0 b2 56 0c be ee 82 7e 3d 55 19 b8 bd d8 17 87 bc
       -0.13704947 0.062136583 -0.08989207 -0.016490862
0001f0 5c 81 fc 3c dd e6 55 3e da 95 1a 3e e3 93 ae bc
       0.030823402 0.20888849 0.15096226 -0.021310752
000200 83 0c fe bd e1 88 45 3e 2a 3b 18 3e b6 bf 45 be
       -0.1240473 0.19290496 0.1486632 -0.19311413
000210 d6 ff 05 3d 33 e2 20 be 47 80 ae bd c0 19 4a be
       0.032714687 -0.15711288 -0.08520561 -0.19736385
000220 c8 ce 38 be d7 42 e7 bd 49 59 8f bd 30 e2 3d 3d
       -0.18047631 -0.112920456 -0.06999452 0.046358287
000230 15 42 38 be a9 b6 a8 bd 50 a3 b0 3c a7 d2 60 3d
       -0.17993958 -0.08237965 0.021562248 0.054888394
000240 d8 6d bb bb 7a e4 f7 bd e3 bd b3 bc 2b 2d a4 3d
       -0.0057198815 -0.12104125 -0.021941131 0.080164276
000250 20 f3 36 be 96 d7 14 be 60 2a 36 3d 92 e2 cb 3b
       -0.17866182 -0.14535365 0.044474006 0.0062220776
000260 a3 7b 1a 3e bf fc 8b 3d 39 da 01 3e fa 7a 27 be
       0.15086226 0.06835317 0.12680902 -0.16355506
000270 65 1d 59 bd b7 b4 15 bd 6f c8 25 bd a4 97 b7 bc
       -0.05300655 -0.036549296 -0.04047435 -0.022411175
000280 87 83 0c 3e 79 19 13 be 6f 16 8d bd e3 3c 80 bd
       0.13722049 -0.14365186 -0.068890445 -0.06261613
000290 b4 6a 28 3d 85 9c df 3c b8 56 fc 3a aa cd e6 3d
       0.041117385 0.027296314 0.0019251918 0.11269696
0002a0 8c 72 2b be db c8 21 3e 09 e9 a5 3d 68 01 ea 3d
       -0.16742915 0.15799277 0.081010886 0.114260495
0002b0 11 7b 46 be bf 0c 25 3e 9b b6 de 3d e5 fc 04 3e
       -0.19382884 0.16118143 0.10874673 0.12987097
0002c0 ce 8e e0 3d 78 b5 15 be ec 09 60 bd b4 6b 53 3d
       0.10964738 -0.14620006 -0.054696962 0.051616386
0002d0 f9 13 8f 3d 07 1c 78 be 78 04 ac bc bd 85 42 be
       0.06986231 -0.24229442 -0.020998225 -0.1899633
0002e0 b4 4c 02 be 2b 32 5d bd 87 ef 91 bd 9e c1 7f 3d
       -0.12724572 -0.054002922 -0.07125764 0.062440507
0002f0 d5 e6 15 3e 60 1a 54 bd d8 7c d3 bc 14 86 b6 3d
       0.14638837 -0.051782966 -0.025816366 0.08912292
000300 6b 19 77 3d a1 a0 3c 3e 0d 7c 7c 3d f7 e8 6e 3c
       0.060326975 0.1842065 0.06164174 0.01458191
000310 93 3c 1f be 89 aa 03 3d 8d f7 b9 3d 98 5b b4 3d
       -0.15550451 0.032145057 0.0908042 0.088065326
000320 a9 3d b9 bc 3e 38 76 bd ac 22 48 3d 52 48 79 bc
       -0.02261241 -0.06011223 0.04886119 -0.015214996
000330 e7 37 dc bc fe 3e 37 be d9 30 dd 3d 0e 14 04 be
       -0.026882125 -0.17895123 0.108003326 -0.12898275
000340 43 59 72 3d 3f f6 ea 3d 39 f4 12 3e 24 2b 1b bd
       0.059167158 0.11472749 0.14350976 -0.03788294
000350 f5 32 c7 3c dd 44 1a 3e 7d 78 df bd 58 8c 32 be
       0.02431629 0.15065332 -0.10911653 -0.1743635
000360 fd 8b cf 3d dd 86 45 3e 6d ca 3c 3e 65 49 20 3e
       0.101341225 0.19289728 0.18436594 0.15652998
000370 36 82 03 be 9e 05 17 3e 42 cd d8 bd ed 23 bd 3d
       -0.1284264 0.14748237 -0.10586025 0.09235368
000380 22 0a 22 3e ef d9 75 bd fd a1 3a be 23 67 f2 bd
       0.15824178 -0.06002229 -0.18225856 -0.11836078
000390 f0 c9 91 bd 14 f3 e0 3c 94 0c 4b 3e d3 bc aa 3d
       -0.07118595 0.027459659 0.19829017 0.083367966
0003a0 9b 9e 0b be 5a e9 4c bc 71 a0 88 bd 96 4f 57 3d
       -0.13634722 -0.012506807 -0.06671227 0.052566133
0003b0 6c 54 88 3d f1 4d e2 bd 32 cc 26 3d 85 37 05 3e
       0.06656727 -0.110500224 0.04072208 0.1300946
0003c0 df f2 60 bc 55 52 31 be d1 de 0c 3e 8d bd 46 be
       -0.01372978 -0.17316563 0.13756873 -0.19408245
0003d0 2f d6 15 3e 9c fa 43 3d e4 39 3e bd 61 aa 9e bd
       0.14632486 0.04784642 -0.046441928 -0.07747341
0003e0 ef 7c 8b 3d 12 a1 07 be 25 2f 21 bc 52 20 26 3e
       0.068109386 -0.13245037 -0.0098379 0.16223267
0003f0 50 5c 5e 3b d6 69 0a be 0e 2f 3a 3e 88 cb 07 3e
       0.0033929534 -0.13516936 0.18182012 0.13261235

model.1.running_var f4 [512]
000000 78 45 92 3e b2 74 c9 3d ca 73 93 3e dc 53 02 3e
       0.28568625 0.09836711 0.28799278 0.12727302
000010 7f f3 c1 3e 3f 7b 57 3e b2 12 0b 3e 26 a8 91 3e
       0.37881085 0.21043108 0.1358135 0.284486
000020 e9 96 75 3e 6a 06 60 3e a0 70 0c 3f f4 90 9f 3e
       0.23983349 0.21877447 0.5485935 0.31165278
000030 de 7e dd 3e 31 ff bb 3e 84 3f 84 3f 13 3c 03 3f
       0.43260854 0.36718133 1.0331883 0.5126354
000040 60 df 6b 3e 92 f2 b1 3e a0 cd 75 3e 5a 0d e3 3e
       0.2303443 0.3475538 0.24004221 0.44346124
000050 54 7b f8 3e 24 bd 31 3e 39 c1 97 3e e8 3e a6 3e
       0.48531592 0.17357308 0.29639605 0.3246987
000060 72 53 08 3f b8 f1 49 3e f9 46 ab 3e 2a 4d 58 3e
       0.5325233 0.19721115 0.33452585 0.21123186
000070 99 cd 93 3e 14 d8 68 3e 66 a1 7a 3e cd 4d 26 3e
       0.28867796 0.22738677 0.24475631 0.16240616
000080 06 f3 37 3f 1f 12 02 3f 7a 4b 61 3e 70 c4 0a 3f
       0.718552 0.508089 0.22001448 0.5420599
000090 0a 24 2b 3e 8a be f3 3e bb 69 81 3e 5d 3a 07 3e
       0.16712967 0.47606307 0.25275978 0.13205858
0000a0 50 a1 67 3e f0 21 16 3f 01 da 18 3e 47 88 24 3e
       0.2262013 0.58645535 0.14926912 0.1606761
0000b0 13 12 81 3e e3 32 04 3f d8 6f ce 3e 3a 90 14 3f
       0.25209102 0.51640147 0.40319705 0.5803257
0000c0 de 52 af 3e 06 d2 b3 3e 9b d5 1f 3e 9c ba 85 3e
       0.3424291 0.35121173 0.15608828 0.26118934
0000d0 66 1d ba 3e c3 f6 81 3e 6e 5a 85 3e c2 72 9e 3e
       0.36350554 0.25383577 0.26045555 0.30946928
0000e0 fd 19 df 3e 29 2e c2 3e 49 9a 18 3e 46 26 85 3e
       0.43574515 0.37925842 0.14902605 0.26005763
0000f0 28 36 91 3e bc aa 17 3e 16 36 fa 3e 4a 0c a9 3e
       0.2836163 0.14811224 0.4886939 0.33017188
000100 b8 0a ac 3e b7 44 64 3f 64 cd 5f 3e d7 55 3c 3e
       0.33601928 0.8916735 0.21855694 0.1839212
000110 b7 f9 27 3e 1c 21 3e 3e c3 c0 ec 3e 97 b5 3f 3e
       0.16403852 0.18567318 0.46240816 0.18721615
000120 a9 54 74 3e 34 e3 fa 3e 71 92 87 3e 54 c9 bc 3e
       0.2386042 0.49001467 0.26478913 0.3687235
000130 fa 7f 1a 3f 6d 48 c3 3e ce b8 7e 3d 8d 6b c4 3e
       0.60351527 0.38141194 0.062187962 0.38363305
000140 c1 92 39 3e 82 69 97 3e 2a 9e 1d 3f cf 70 cd 3e
       0.18122388 0.29572684 0.61569464 0.4012513
000150 98 ac be 3e b2 8f b3 3e 95 4f 60 3e 4d de 5d 3e
       0.37241054 0.35070568 0.21905358 0.21666832
000160 cb bf 44 3f f8 c8 b3 3e 4f 7f 8c 3e 27 66 ad 3d
       0.7685515 0.35114264 0.2744088 0.0846675
000170 22 a2 4a 3e e9 1d cc 3d f1 6e 3a 3e 7c 59 dc 3e
       0.19788411 0.099666424 0.18206383 0.4303702
000180 3a 60 a0 3e 50 e9 5f 3e 99 23 bb 3e 90 0d a1 3e
       0.31323415 0.21866345 0.36550596 0.3145566
000190 e4 57 8f 3e 52 38 6c 3e db 51 ac 3e f1 1e 19 3f
       0.27996743 0.2306836 0.336562 0.5981284
0001a0 c7 1c 64 3e c8 5e 31 3d 14 4c 35 3e fc a9 61 3e
       0.22276603 0.04330328 0.17704803 0.220375
0001b0 b0 74 7a 3e 0c 72 f4 3e d2 58 66 3e ce fc 4a 3e
       0.24458575 0.4774326 0.2249482 0.19823
0001c0 04 02 94 3e ed 5e 32 3e 70 9f 16 3e 5f c5 38 3e
       0.28907788 0.17419024 0.14709258 0.18044041
0001d0 7b 8e 8d 3e 8a b6 53 3e fa ff 9e 3e c5 1f e6 3e
       0.27647766 0.20675102 0.3105467 0.44946113
0001e0 23 46 b2 3e 1d 41 6e 3e e9 55 cd 3e 54 9b 7a 3e
       0.34819135 0.23267026 0.40104607 0.24473315
0001f0 a3 30 ad 3e 36 f3 84 3e ca e0 85 3e 38 2f 09 3f
       0.3382617 0.25966805 0.26148063 0.53587675
000200 f2 7f 80 3e 52 cd 6b 3e a7 29 94 3e 9d 84 50 3e
       0.25097615 0.23027542 0.28938028 0.20363088
000210 ef fc 75 3e 0d 2a 90 3e 7e 0b b7 3e 48 13 1a 3e
       0.24022268 0.28157082 0.35750955 0.15046418
000220 fe 79 63 3e 00 0f e4 3e 78 4c 6f 3e ac 05 5d 3e
       0.22214505 0.44542694 0.23369014 0.21584195
000230 03 a2 96 3d 84 a2 92 3e 69 33 0b 3f 9f 3f f8 3d
       0.0735512 0.28639615 0.5437532 0.1212151
000240 4f 18 a1 3e a8 43 df 3e 89 8d ef 3e 7c 2a ed 3d
       0.31463858 0.43606305 0.4678767 0.11580369
000250 ef 3b 8a 3e f9 96 80 3e 24 4b f3 3d 68 fd 8e 3e
       0.2699885 0.25115183 0.11879566 0.2792771
000260 dd bf aa 3e d1 23 10 3e 2e b8 ba 3e 55 e5 46 3f
       0.33349505 0.14076163 0.36468643 0.7769368
000270 99 f6 7f 3e fe 7f a7 3e 36 74 27 3e ab 84 62 3e
       0.24996413 0.32714838 0.16352925 0.22120921
000280 b1 7e fc 3e 5e 68 b6 3e 42 d7 05 3e 95 13 e4 3e
       0.49315408 0.356265 0.13070396 0.4454619
000290 ba 5c 01 3e 11 be 4e 3e 1a fa 5a 3e 66 3f c1 3d
       0.12633029 0.20189692 0.21384469 0.094359204
0002a0 98 f6 80 3e ed e3 7b 3e fe 33 0c 3f d4 0b b7 3e
       0.25188136 0.24598666 0.54766834 0.35751212
0002b0 d6 b7 1b 3e e3 44 98 3e 71 8b 84 3e 8b b3 9f 3e
       0.15206847 0.29740056 0.25887635 0.31191668
0002c0 f0 fc 0a 3e 05 3e 9a 3e 81 90 b3 3e 2f 70 03 3f
       0.1357305 0.30125442 0.35071185 0.51343054
0002d0 62 12 87 3e 85 16 55 3f 80 d9 a6 3e 62 d2 4d 3f
       0.26381212 0.8323749 0.32587814 0.80399144
0002e0 ee 0b 0f 3e 99 60 b1 3e 41 6c 08 3e 2c be 6c 3e
       0.13969395 0.3464401 0.13322546 0.2311942
0002f0 75 d8 27 3e fd f4 df 3d 48 37 7f 3e b7 70 7b 3e
       0.16391166 0.109354 0.24923432 0.24554716
000300 85 76 cf 3e 61 29 26 3e 35 39 a6 3e 00 4d 89 3e
       0.4052011 0.16226722 0.3246552 0.2681656
000310 21 a2 4c 3e 01 64 c7 3e ae a3 84 3e d7 af 85 3e
       0.19983722 0.38943484 0.25906128 0.26110718
000320 2c fd 61 3e 2d dd b1 3e 82 c2 17 3e 7b 43 67 3e
       0.22069234 0.34739056 0.14820293 0.22584336
000330 14 7f 86 3e 32 46 80 3e 8f b1 79 3e f3 74 5d 3e
       0.26268828 0.25053555 0.2438414 0.21626644
000340 b0 e5 a1 3e cd 25 70 3f d5 72 1d 3f 7c 5c 68 3e
       0.3162055 0.9380768 0.61503345 0.2269153
000350 c8 08 45 3e a9 c3 74 3e 0e 5b 42 3e 61 79 61 3e
       0.19241631 0.23902763 0.18980047 0.22018959
000360 ae d2 90 3e df 67 87 3e 2f 14 13 3f f6 d7 55 3f
       0.28285736 0.26446435 0.5745267 0.83532655
000370 7d 81 13 3e 23 95 65 3e ef fb 5c 3e cd 4d 7d 3e
       0.14404865 0.22420172 0.2158048 0.2473671
000380 d7 ad 24 3f 7c db 51 3e 1c 7b c4 3e 1c fe 6d 3e
       0.6432776 0.20493883 0.38375175 0.23241466
000390 b1 34 9f 3e c8 08 9a 3e 6e fa 0a 3e 37 71 c8 3e
       0.31094888 0.30084825 0.13572094 0.39148876
0003a0 f7 ca fd 3e cd 6c 4a 3e d1 2d 80 3e 20 85 9f 3e
       0.49568912 0.19768067 0.25034955 0.31156254
0003b0 67 cc 7f 3e 30 c4 3a 3e 5b c6 65 3e ec bf 8f 3e
       0.24980317 0.18238902 0.22438948 0.28076112
0003c0 51 18 7c 3e b7 b0 34 3f 3d 1a 0a 3e fd a4 16 3f
       0.24618651 0.70582145 0.13486572 0.588455
0003d0 e4 d9 92 3e 5e e9 4b 3e 1a dd 47 3e 84 8f 75 3e
       0.28681862 0.19913241 0.19517937 0.23980528
0003e0 96 02 88 3e 0a 95 5c 3e 09 3b a7 3e 54 08 9a 3e
       0.26564473 0.21541229 0.32662228 0.3008448
0003f0 d5 9b 9e 3e 6c 0b 89 3e 40 a3 d0 3e f4 3a 4b 3f
       0.30978265 0.26766527 0.4074955 0.7938683

model.3.weight f4 [256, 512]
000000 47 9f a4 bb 40 23 fd 3b c1 6e 4b bd 85 52 4d bc
       -0.00502387 0.0077251494 -0.04966617 -0.012531881
000010 60 8b 28 bd 23 98 57 bd f3 1c 01 3d 8a 29 ac bc
       -0.041148543 -0.052635323 0.03152175 -0.021015901
000020 1f ed 53 bd 6a de bd bc 64 4f 88 bc ec 7e 5a 3c
       -0.05173981 -0.023177344 -0.016639419 0.013335925
000030 99 3f 84 bc 28 61 13 bd fe 9a e7 bc 11 47 83 bc
       -0.016143607 -0.035981327 -0.028272148 -0.016025098
000040 65 1a be 3c 42 64 95 3c 2c b7 2d bd c0 0d 24 bc
       0.023205945 0.018236283 -0.042411014 -0.010013044
000050 f9 ab f5 3c e4 af 27 bd be b3 46 bb 81 3f 41 3d
       0.02998923 -0.040939227 -0.0030319537 0.047179703
000060 b8 7b d9 bc 00 86 b6 3c 79 7c 19 bd d5 8e 1d 3d
       -0.026548252 0.022280693 -0.037472222 0.038466293
000070 4a ac 7d 3c f1 ff 8e bc b0 2d 32 bd e7 e7 8f bb
       0.015482971 -0.017456027 -0.043500602 -0.0043916586
000080 88 36 94 3c 9b 9d fb bb b7 91 c0 bc f0 0f 4e bd
       0.018092409 -0.0076787 -0.023506982 -0.050308168
000090 81 c0 3b 3d 3e 80 85 3c fa 7b de bc cf 23 df 39
       0.045837883 0.016296502 -0.027158726 0.00042560554
0000a0 a0 4f 95 bc 94 33 70 3c 52 b0 1d bd 9f 29 12 bd
       -0.018226445 0.014660735 -0.03849823 -0.035684224
0000b0 f7 cd 79 bc c5 b8 99 bc 50 27 0e 3c bb 2f 05 bd
       -0.01524686 -0.018764863 0.008676365 -0.032516222
0000c0 c2 59 d0 bc a7 3b 41 bc 5e f4 be bc 4d f5 a7 3a
       -0.025433425 -0.011794007 -0.023309883 0.0012814194
0000d0 48 3b 3b 3c 38 e7 c9 3b 93 1b 9d bc fb 3f 9b bb
       0.011427708 0.0061615966 -0.019178187 -0.0047378517
0000e0 49 6a 45 3d b9 6a 4b 39 4c 8d 1e bd 0e a3 12 3d
       0.048197065 0.00019399346 -0.03870897 0.035800032
0000f0 58 e1 40 bd 3a 04 30 3c f0 e6 cb 3c 5b 5a 5c 3c
       -0.047089905 0.010743195 0.024890393 0.013449277
000100 7e 59 5f 3c 06 da 16 3d f6 bc 0d 3c 98 24 c2 bc
       0.013632176 0.036829017 0.008651009 -0.02369909
000110 cb 48 ab 3c be 97 37 3d 27 bc 80 b7 9d 7b e1 bc
       0.020908734 0.044822447 -1.5346404e-05 -0.027524764
000120 d9 cb 10 3d 1c 5f 4d 3d 44 a1 7a 3c 4f af 7f 3c
       0.035350654 0.05013953 0.015297238 0.015605762
000130 92 ac d9 3c 81 9a 0d bd 73 98 9d bc 42 9b 3c 3a
       0.026571546 -0.034571175 -0.019237733 0.0007194766
000140 80 f3 68 3b 82 ba 08 3c 3e a6 bd 3b d3 6a 6a bd
       0.0035545528 0.008345248 0.00578764 -0.05723078
000150 3b c7 80 3c 2f ed 1b bd 09 c4 2d bd c8 0b f8 3c
       0.01572 -0.038067993 -0.04242328 0.030279055
000160 68 46 37 3c f2 b9 e5 3c b2 88 ff bc 74 55 b9 3c
       0.01118622 0.028042767 -0.031193111 0.022623755
000170 15 e6 d8 3b 34 16 a6 3c 16 9c 44 bb d9 f7 eb 3c
       0.006619225 0.02027426 -0.003000026 0.028804706
000180 73 f3 8a bb 4c 9a 27 3d 39 c6 17 3d 64 e1 a8 3b
       -0.004240447 0.040918633 0.037054274 0.005153822
000190 04 c1 0b bd 8d 82 5a 3b b5 b7 3c 3d 21 ce 1f bd
       -0.03411962 0.0033341974 0.046073634 -0.03901494
0001a0 96 66 08 bd 22 42 ad 3c bb 37 2f bb bd 2e 16 3d
       -0.03330096 0.021149699 -0.0026736099 0.036665667
0001b0 c4 23 9a ba 30 a5 68 3c 1f 80 35 3c 9b af a1 bc
       -0.0011759927 0.01419954 0.01107791 -0.019737056
0001c0 05 30 19 bd 80 65 fa bb 01 99 58 bd 51 5c 0c 3d
       -0.03739931 -0.0076414943 -0.05288029 0.034267727
0001d0 aa 29 5c 3c 72 a6 21 3c 2d a1 c8 ba 6a c7 b1 bc
       0.013437668 0.009866344 -0.0015306823 -0.021701533
0001e0 2f c4 24 bd ad 64 59 bb 14 73 aa 3c 83 28 92 bc
       -0.040226158 -0.003317158 0.020806827 -0.017841583
0001f0 89 c8 9b bc f1 d7 1b 3d 93 1d 6d bc e1 86 4c 3c
       -0.019016521 0.038047735 -0.014472383 0.0124833295
000200 4d 1c 03 3d ba c0 19 3d 77 b0 ce bc f7 92 92 bc
       0.03200941 0.037537314 -0.02523063 -0.017892344
000210 b3 63 31 bd 1b cb e8 3b 3e bc 4c 3c 37 eb 1b bb
       -0.04330797 0.00710429 0.012496052 -0.0023791322
000220 8b d6 10 3c d7 07 16 3c ec 89 06 3d 09 71 e9 3a
       0.0088402135 0.009157143 0.032846376 0.0017810176
000230 f7 e0 ac 3c f9 0e 11 3d 81 97 7f 3c fb 9c 9c bb
       0.021103365 0.03541467 0.015600086 -0.0047794557
000240 18 19 fb bc a5 6b 19 bd 79 ac 38 3d b2 e1 03 3d
       -0.030651614 -0.037456173 0.045086358 0.03219766
000250 da 2f 85 3c 97 3d 2c 3d c5 19 48 3c 1b ad 8d 3c
       0.016258169 0.042050924 0.012213175 0.017294457
000260 63 96 f5 ba b8 21 3f 3c 5f 53 48 bd 47 26 0b bd
       -0.0018736835 0.011665754 -0.048907634 -0.03397205
000270 46 68 1d 3c f9 33 a5 bc 53 7f d4 3c 6e 9f 3e bd
       0.00960738 -0.020166384 0.02593962 -0.046538763
000280 38 d6 0d bd 79 3e 19 bd 5c 36 22 3d be b7 10 bd
       -0.034628123 -0.037413094 0.039602622 -0.03533148
000290 c2 9e 39 bd 92 23 01 3c bd 4d ac bc 24 d0 23 bd
       -0.04531742 0.007882016 -0.021033162 -0.03999342
0002a0 57 5e ae 3c a8 fd f7 3c 31 4c dc 3c 0b ed 84 3c
       0.02128522 0.03027232 0.0268918 0.016226312
0002b0 e5 dc 4d bd dc 5d de bc 74 c5 db bc 58 c3 f9 bc
       -0.05025949 -0.027144365 -0.026827551 -0.030488655
0002c0 0a 18 e5 3c de 48 e5 bc 5a be c2 3c c9 c1 07 bd
       0.027965564 -0.027988847 0.023772407 -0.033143792
0002d0 46 3a 5e 3d ef b3 1a 3d 9e c9 9c 3c 9a 2a e8 3c
       0.054254793 0.037769254 0.019139107 0.028340627
0002e0 48 5a f2 3c 7f c4 1b 3c af 50 5d bb 41 e7 a8 b9
       0.029584065 0.009507298 -0.0033770015 -0.00032215755
0002f0 cf c9 ee 3c 1f 94 10 bd 5b a9 26 3d 0c f2 b0 ba
       0.029148964 -0.03529751 0.040688854 -0.001349987
000300 5f 69 56 bc d8 6b 74 bc 0b ab 83 bc b5 72 f1 ba
       -0.013086646 -0.01491829 -0.01607277 -0.0018421026
000310 cb a2 88 bc 85 a0 b0 3c d6 df c5 ba 1c 64 f7 bc
       -0.016679188 0.021560917 -0.0015096616 -0.030199103
000320 4e 42 f5 3c 86 b3 61 bc b1 45 7a bc 25 4f e6 bb
       0.029938843 -0.013775712 -0.015275405 -0.0070284777
000330 1f bd 32 3c 43 08 f8 bc 5a 86 34 bd ea 42 c4 3c
       0.010909348 -0.030277377 -0.04407344 0.023957688
000340 50 e1 d1 bc de bc 95 bc ea 17 c6 bc b7 79 ba bb
       -0.025620133 -0.018278535 -0.024181325 -0.005690779
000350 bf 44 8b 3c e4 54 e9 bc 65 e4 0b bc 37 ca 8e 3b
       0.017000554 -0.028482862 -0.00853834 0.004357602
000360 66 d0 bb bb 2c 06 c9 3c ca bf 59 3c 64 70 74 bb
       -0.00573163 0.024539076 0.013290355 -0.0037298435
000370 5e 43 d3 3b 67 00 d0 bb 96 1f 1a 3c cf 0e 1b ba
       0.00644724 -0.006347704 0.009406945 -0.00059149874
000380 44 59 ac 3c 7d db e0 3c 9d 22 1a 3d 09 c2 95 bc
       0.021038659 0.02744841 0.037630666 -0.018281
000390 38 ef 1f bd ec 13 09 bb b0 b7 ae bc 93 84 95 bc
       -0.039046496 -0.0020916415 -0.021327823 -0.018251693
0003a0 8b 08 12 3d 50 94 15 bd c8 00 13 3d 20 4c 54 bd
       0.03565268 -0.036518395 0.035889417 -0.05183041
0003b0 16 10 45 bd 15 4c b2 3c 7c a0 22 bc 8e 28 d2 bc
       -0.048111044 0.021764794 -0.009925958 -0.025654104
0003c0 34 6b b2 3c 53 65 ad bc 09 31 f9 bc 14 48 5e bd
       0.021779634 -0.02116648 -0.03041889 -0.054267958
0003d0 64 53 e2 bc 48 64 9a bc a7 f5 44 3d 61 d1 f6 bc
       -0.027627654 -0.018846646 0.048085835 -0.030129137
0003e0 fa 73 8d 3c 11 61 3d bc 11 5b 7f bc 24 44 be 3c
       0.017267216 -0.011558787 -0.015585677 0.023225851
0003f0 70 68 a0 3c 95 cd 28 3c db 42 49 3b 9d 79 de bc
       0.01958105 0.010302921 0.0030710015 -0.0271576
