best-model-by-loss.pth (torch, 607469 bytes, 15 tensors)

loss_fn.weight f4 [6]
00000000: 0000 0040 0000 803f 0000 4040 0000 8040
00000010: 0000 8040 0000 0040
2.0 1.0 3.0 4.0 4.0 2.0

model.0.weight f4 [512, 27]
00000000: 12d9 1c3e e40f 253e 159e a6bd e0e2 0f3e
00000010: f6e6 03be 2d4c 43bd b562 05be 9e80 363d
00000020: fa44 5d3e 477c f2bc 8a6a 0f3e ff0e 3dbc
00000030: c04b 423e f890 6cbd 0b70 473e 61df 83bc
00000040: 8ba1 fb3d d3bd b3bc de62 0dbe c7b1 b03d
00000050: 6a12 b2bd 102f 91bd 83e5 04be a964 ca3d
00000060: b646 12be 817c c1bd d703 eabc 6f96 8abd
00000070: 77a2 7a3d 3608 75be 9f29 ff3d b2ca 60be
00000080: 133e 733d 9ddb 483c a2dc cbbd 1362 7e3d
00000090: c0e2 443e 9433 4e3e bb61 3ebd 21a3 df3b
000000a0: 35d3 da3d ecfe 33bd 82d9 0c3e 8533 ed3d
000000b0: 5a99 263d 6acd 3abd 13be 563e 6c00 133d
000000c0: ba29 4e3c a4d0 27be e33f 87be 96bc c0bd
000000d0: b190 0dbe e545 403e da1c e2bc e65d 79bc
000000e0: 5206 12bb 8f10 88bd 6e75 183e a34d 0dbe
000000f0: 49ea 653c 97c1 0ebe fc49 9fbd 8828 e7bc
00000100: 4182 b93d 93dc 5fbd ed5a 323e fbc5 dfbc
00000110: d84c 44be dc05 42bd 7d7f 963e 0f83 633c
00000120: c5a4 673e fd25 74be f3ca c8bd 82f6 29be
00000130: c121 0cbe 3335 8a3d dec7 e13d b529 313e
00000140: 26ea 3cb9 ea91 d3bd 4540 0a3e 4083 a2bd
00000150: 9003 ec3d 4130 c6bd b356 033e fd93 20be
00000160: 95b7 10be 0fb0 c13d 917a ebbd 83b0 64be
00000170: 6123 213e 4e98 b43d 14c8 c8bd d93c 14be
00000180: 7f4e 293e 2d2a 7bbc fd77 53bd 5cf3 5ebe
00000190: a01d b4bd 195e 9d3b 5954 f8b9 a91e c8bd
000001a0: 76cf c5bb e2c8 2abe c917 87be ce6d afbd
000001b0: d53c c6bd f068 87bd 0f17 323e 7898 923c
000001c0: bbaa b03d 433a 50be a749 9abd 219e 4cbd
000001d0: caf6 b13d 473d 1abe 7460 5ebe 8a1f d7bd
000001e0: a9f0 1dbc fb56 dbbd c932 8fbd 961a 6bbe
000001f0: 5c06 b4bd e6c5 40be d359 51bd e91c 21be
00000200: e58c 473e 5e68 533b 4b45 563e b5df 963d
00000210: bd6f 29be 8aac aa3d 0900 3fbd db75 2dbd
00000220: f337 05be a4cb f4bc f5b7 5d3e 1c3a a6bd
00000230: b5e6 e93d c57f 02be 15e6 aa3d a940 09be
00000240: 4157 89bd 4fdf 8d3d 1fc6 503d aea3 503e
00000250: 0fd0 9a3e d5f3 93bd d3a2 a03d 9d03 efbd
00000260: 9d4a 21bd 3622 44be aaa6 593e 7db2 b7bd
00000270: a8fa 2e3e dde2 943d 00d0 203e 8999 58bd
00000280: 4657 013e 8ee3 363d 307b 3b3d 1ea0 18be
00000290: 8b50 783d bbe5 48bd 8d82 a6bd b524 fb3d
000002a0: 56fc 393c 27c3 d6bd 6657 87be 8f5f 4a3e
000002b0: 20ac 213d 0c91 a5bd b908 a0bd 9483 e03c
000002c0: 1d95 5fbe ef9a 0c3e af60 093e d3d1 46be
000002d0: 6c0c 183e 8621 d53d 4f3c 0d3d 908e e6bd
000002e0: 4a11 a63d cfda 963d 9735 9e3d c58f d4bb
000002f0: 2ee9 fdbc 94cd a23d 2d40 cd3c fb2d 653d
00000300: abfd 713e a91d 0d3e 07e6 fabc f0c3 81bd
00000310: e875 30bd 4356 e03c 8071 d63d cd89 8e3d
00000320: 5a28 25be 551d adbd da58 c43d d85b c23d
00000330: 99f6 e5bd aec0 22be 3b43 0dbe 9ba0 83be
00000340: 1aa3 81bd a775 533d 91a6 563e dc77 b53d
00000350: e37f 90bd 8188 c0bd d002 013c aa54 d43d
00000360: d09c 173b 43a4 8fbd dbfc 6f3d 2c32 c1bd
00000370: b3a1 a9bd 9086 483e 5912 893c 9b72 843c
00000380: 858f 4ebe 9555 873e 5db2 533e 843f 4f3c
00000390: d715 9dbd 7ec8 ddbe 0fc6 ddbd 3b91 493e
000003a0: 7a6c 9f3c 931f 653e 1bc2 853d bc6e acbd
000003b0: 98c8 01bd f544 bebd 65cd e4bd 1c7f 0abe
000003c0: 3d5e 313d 9dd5 05bd ccbf 72bb c7f9 d1bd
000003d0: 9f77 eebc c6b9 47be 00d2 3dbe 66d2 6f3d
000003e0: 6024 d8bd 19b4 893d 0857 83bd 4cfa 1dbd
000003f0: 2ff4 95be b96e f5bd 3ad5 bebd d07b 18be
0.15317181 0.16119343 -0.081356205 0.1405139 -0.12881073 -0.04768007 -0.13025935 0.044556253
0.21608344 -0.029600276 0.14005485 -0.01153922 0.18974209 -0.05775544 0.19476335 -0.016097726
0.12286671 -0.021941101 -0.13807246 0.08627658 -0.086949185 -0.070890546 -0.12978177 0.09882481
-0.14284787 -0.09447575 -0.028566284 -0.06766974 0.061190095 -0.23928913 0.124591105 -0.21952322
0.05938537 0.012259391 -0.09954192 0.06210525 0.19227123 0.20136863 -0.04647992 0.0068248664
0.10684816 -0.043944284 0.13754848 0.11582092 0.04067359 -0.045606054 0.20970945 0.035889074
0.012583191 -0.16388184 -0.2641593 -0.0941097 -0.13824727 0.18776663 -0.027601648 -0.015220141
-0.00222816 -0.06643783 0.14888546 -0.13799147 0.014032909 -0.13941036 -0.07777783 -0.028217569
0.09058047 -0.054653715 0.17417498 -0.027316084 -0.19169939 -0.04736887 0.2939414 0.013886227
0.22621448 -0.23842616 -0.098043345 -0.16597942 -0.13684751 0.06748428 0.1102445 0.17301066
-0.00018016304 -0.10330565 0.1350108 -0.0793519 0.11524117 -0.096771725 0.12826042 -0.15681453
-0.14132531 0.09457409 -0.11497987 -0.22332959 0.15736152 0.08818112 -0.09803787 -0.14476337
0.1653385 -0.01532988 -0.0516281 -0.21772522 -0.08794713 0.004802477 -0.0004736509 -0.09771473
-0.006036694 -0.16678193 -0.26385334 -0.085658655 -0.096795715 -0.06611812 0.17391609 0.017894968
0.08626314 -0.20334725 -0.07533579 -0.04995549 0.086896494 -0.15062438 -0.21716481 -0.105040625
-0.009639897 -0.107099496 -0.069921084 -0.2295936 -0.087902755 -0.18825492 -0.051111054 -0.15733685
0.19487341 0.0032258253 0.2092487 0.073668875 -0.16546531 0.083336905 -0.046630893 -0.042348724
-0.13009624 -0.02988226 0.21652205 -0.08116552 0.11420957 -0.12744053 0.08344666 -0.13403572
-0.067060955 0.06927358 0.050970193 0.20374939 0.3023686 -0.07224242 0.07843556 -0.11670611
-0.039377797 -0.19153675 0.21254984 -0.08969591 0.17087805 0.07269833 0.15704346 -0.052880798
0.12630948 0.044650607 0.045771778 -0.1490483 0.060623687 -0.049047213 -0.08130369 0.12262861
0.0113516655 -0.10486441 -0.26433867 0.19763015 0.03947079 -0.08084306 -0.07814164 0.027406491
-0.21834226 0.13730977 0.13415788 -0.19415979 0.14848489 0.10406785 0.034481343 -0.112576604
0.081087664 0.07365953 0.07725065 -0.006486865 -0.030994978 0.07949367 0.025055015 0.055952054
0.23631923 0.13780846 -0.030627264 -0.063362 -0.043081194 0.027384883 0.10470867 0.06959877
-0.16128674 -0.0845286 0.095872596 0.09490174 -0.112286754 -0.15893814 -0.13795178 -0.2570847
-0.06329937 0.051625874 0.20961978 0.08860752 -0.070556425 -0.09401036 0.007874206 0.10367711
0.002313424 -0.07013752 0.05859075 -0.09433398 -0.08282795 0.19582582 0.016732382 0.01616793
-0.20171936 0.2643248 0.20673509 0.012649421 -0.07670181 -0.43317026 -0.10828792 0.19684307
0.019460905 0.22375326 0.06531163 -0.084195584 -0.03168544 -0.09290496 -0.111719884 -0.13525051
0.043302763 -0.03267442 -0.003704059 -0.10252719 -0.029109774 -0.1950446 -0.1853714 0.05855026
-0.10553813 0.06723804 -0.06413084 -0.03856878 -0.2928786 -0.11984009 -0.093180135 -0.1489098

model.0.bias f4 [512]
00000000: 198f 74bd acb7 74bd 63cb 10be 7f47 59be
00000010: bf61 a73d 2798 fdbd 687a d0bd c2e5 a1bd
00000020: 050e 0ebe 26df 0fbe 832e 07be 153c 4a3e
00000030: 30e6 113c 3191 8fbd 4743 64bc 8c11 283e
00000040: 85fa e5bd 2b79 953d 2156 18bd 6fc5 26be
00000050: b2e7 023e 1c18 c73d f2cb 0c3e 8550 ae3d
00000060: a964 073d 178f 1b3d 902f 12be c6fb 3a3e
00000070: 4ca6 00be 9d9c 073e ec5a f8bd ea4c 0ebe
00000080: 8f38 a13d c2d4 003e 6cd7 4fbd 9b27 6c3d
00000090: d09b 2bbe dae2 a3bc 1f46 303e 4273 363e
000000a0: 7996 80bd f2bb 953d 5f7c 353e 5d6e 793d
000000b0: a685 103d 97f8 1dbe 96f6 7d3d 14d3 553d
000000c0: 1ea9 dbbd 6ebc c73d 2643 06be a7ad 453e
000000d0: 2138 323a 78eb 063e 866b 8ebd b433 c8bd
000000e0: c8b4 0f3e e5e4 ed3d 09ea 393e 25c4 6b3d
000000f0: 6406 acbd 70e5 e9bd e0de 3bbe adfc 373c
00000100: e775 293e 2aad 6cbd a4fc 0ebd ea54 103e
00000110: b497 273e c19e 593d 89bf c53c 632d 4a3e
00000120: f263 263e 57aa 02be 4cbe 0cbe 9439 28bd
00000130: 9fe6 993d ebc9 e0bd ac04 afbd a4f4 2d3b
00000140: 513d 30bd e738 013e d791 fa3d a7df 003e
00000150: 4c79 df3d f2ed e7bd 1cb4 14be 7700 05be
00000160: b011 36bc 7d0f 243e 73cc 3dbd 8f27 343e
00000170: 2dbe 0f3e 3fe9 39be ed96 983d 74a1 abbd
00000180: 5f6c 3bbe a557 903d 8497 97bd 9524 30be
00000190: 9a8d 05be fd07 0e3e 644b 53bd fa1f 1a3e
000001a0: 69a1 64bd 48a8 403e 08ad 46bd 857d 443e
000001b0: 1370 9c3d 44aa 12be eaf5 a73d 4670 9f3d
000001c0: ef39 25be 3c1e 29be fec9 5e3c 71be d23d
000001d0: 42bb 233e 4d3a 54bd 2a5e 38be 392c b73d
000001e0: bd14 653c 9bc5 183c ed0b f83d bd47 383c
000001f0: e9f9 2d3e 5c07 173e 48b6 413d d2cb 123e
00000200: e0ac 823d d650 3abe 31c2 2f3e 1993 153c
00000210: 5788 d7bc ccfc 203e 2895 273e b047 22be
00000220: 652f 973d 8655 dabd b766 41bd 42cb 413d
00000230: ed84 97bd 7e5a 8fbd df56 c33d 1a88 49bd
00000240: 270b 973d b7f6 313e b3ba 3e3d 9021 123d
00000250: f4eb 2a3e 71b3 94bd e9fe b43a be7a 31be
00000260: 5706 aebd 3334 96bc 6f74 3a3e 0fb4 d93d
00000270: 2911 10bd acd1 56bd d837 233d b4f5 a8bd
00000280: 8c77 0cbd 34d2 003d bc4b 67bd 5bd8 0c3e
00000290: 0117 9c3d 18dc 6abc cc46 09bd 3e29 703c
000002a0: 3859 c73d 5b6e 643d 4bc5 4bbd 4e62 893d
000002b0: 4352 e5bb 318b 0dbe 4c0f 1bbe f9cd f43a
000002c0: 62e7 293e e8a7 96bd a901 fb3d 83df 85bd
000002d0: e3c6 fc3d b6c0 70bd ff7c acbd f940 733d
000002e0: 7d3f c43d d1d6 18be a7b7 2dbc 9b05 263d
000002f0: e415 043d 81dc 3e3e 4f7f 2bbe 5556 293e
00000300: 2426 c23d 685a 31be eeac 96bd c07d 9b3d
00000310: 08cc 1dbe 0e27 3a3e 3e24 95bd 8098 913d
00000320: fa64 163d 3cfb 99bd 6b61 31be 0cb9 253c
00000330: 2eef 1cbe b5c7 11bd e43a 4d3d 5118 82bd
00000340: e480 df3d 5c1d 3cbe 712a 0dbe b018 b63d
00000350: 7a61 c8bd f930 203e 29f7 3abd 0522 05bd
00000360: 8e48 3b3e 40a3 21bd 4ed2 20be ce7e a1bd
00000370: c408 6f3d 98ca 073e 0265 253e e2d9 7dbd
00000380: 9715 e13c 81be 0b3e 6843 9fbd 0ef1 793c
00000390: 53cb c1bd 644e d83c e66b 343e a300 293e
000003a0: 1693 01be 9b80 c63d 001c 353e 68c2 20bd
000003b0: 0c46 8b3d c205 31be e252 c93d d99d 1abd
000003c0: b045 383e 2d4b 063e bf24 d7bd b6d6 b5bd
000003d0: e3c6 1bbe 002c 38be 9b72 37be 27f7 b83d
000003e0: 1546 003e f2eb f3bd 1a57 0a3e 2b62 84bd
000003f0: 7003 7a3d 8efc 253e 325f 1f3e f769 1cbe
-0.05970678 -0.059745476 -0.14140086 -0.2121868 0.081729405 -0.123825364 -0.10179597 -0.07905151
-0.13872536 -0.14049968 -0.13201337 0.19749482 0.008904979 -0.07010115 -0.013932056 0.16412944
-0.112294234 0.072985016 -0.037191514 -0.16286252 0.12783697 0.097213954 0.13749674 0.08511452
0.03305498 0.037978258 -0.14275956 0.18260106 -0.12563437 0.13243337 -0.12126717 -0.13896528
0.07872116 0.1258116 -0.05074255 0.05765496 -0.16758657 -0.020005632 0.17214249 0.17817405
-0.062787004 0.07311238 0.17723225 0.060896266 0.035283707 -0.15426861 0.06200274 0.052203253
-0.10725616 0.09752737 -0.13111553 0.19304524 0.0006798525 0.13175762 -0.06954102 -0.097754866
0.14033806 0.11615924 0.18155684 0.057560105 -0.083996564 -0.11420715 -0.18346739 0.011229676
0.16548882 -0.05778233 -0.034908906 0.14094892 0.16366464 0.053129915 0.024139183 0.19743876
0.16249064 -0.12760292 -0.13744467 -0.041070536 0.075146906 -0.10976013 -0.08545813 0.0026543522
-0.043027226 0.12619363 0.12234848 0.12585317 0.109118074 -0.11324681 -0.14521831 -0.12988459
-0.0111126155 0.16021533 -0.046337556 0.17593215 0.1403739 -0.18155383 0.07450662 -0.08380404
-0.18303059 0.07047967 -0.07401946 -0.17201455 -0.13042298 0.13870235 -0.05158557 0.1505126
-0.055817995 0.18814194 -0.04850486 0.19188507 0.07638564 -0.14322764 0.08201201 0.07785086
-0.16135381 -0.1651544 0.013597963 0.1029023 0.15989402 -0.051813412 -0.1800467 0.08943982
0.013981995 0.009324457 0.1211165 0.0112475725 0.16989864 0.14748901 0.047292978 0.14335564
0.063806295 -0.18194899 0.17163922 0.009129309 -0.02631013 0.15721434 0.16365492 -0.15847659
0.07382087 -0.106608436 -0.047217097 0.047312982 -0.073984005 -0.06999682 0.09538054 -0.049202062
0.07375174 0.1737927 0.04656477 0.03567654 0.16691571 -0.07260788 0.0013808879 -0.17331979
-0.08497303 -0.018335437 0.18208478 0.106300466 -0.035172615 -0.052446052 0.03984818 -0.08249989
-0.034293696 0.031450465 -0.05646871 0.13754408 0.07621575 -0.014334701 -0.033514783 0.01465827
0.09733814 0.055769306 -0.0497487 0.06708203 -0.0069983318 -0.13822629 -0.15142554 0.0018677107
0.16592172 -0.07356244 0.12256176 -0.06536772 0.12342622 -0.058777533 -0.084222786 0.059388135
0.09582422 -0.14925696 -0.010602868 0.04053269 0.03224744 0.18638803 -0.16747783 0.1653684
0.09479931 -0.17319643 -0.073572025 0.07592344 -0.15409863 0.1817896 -0.07282303 0.07109165
0.036717393 -0.07518622 -0.17322318 0.010114919 -0.15325615 -0.035590846 0.05010499 -0.06352294
0.10913256 -0.18370575 -0.13785721 0.088914275 -0.09784217 0.15643682 -0.045645867 -0.032503147
0.18289396 -0.039462328 -0.15705225 -0.07885514 0.05835797 0.13260877 0.16151813 -0.061975367
0.027476115 0.1364689 -0.077765286 0.015255226 -0.09462609 0.026404567 0.17619285 0.16504149
-0.12653765 0.09692498 0.17686462 -0.0392479 0.0680047 -0.17287353 0.09830262 -0.03774819
0.17995334 0.13114615 -0.10505056 -0.088788435 -0.15212588 -0.17985535 -0.17914812 0.090315156
0.12526734 -0.11910237 0.13509789 -0.064640366 0.061038435 0.16209623 0.15563658 -0.15274797

model.1.weight f4 [512]
00000000: 0a4c 7a3f 8af3 753f 9868 7c3f 693d 893f
00000010: 17f7 7c3f a388 6a3f 6730 773f 4520 743f
00000020: d03c 7c3f cb69 843f 95e6 813f 6dd6 8a3f
00000030: 9a96 5c3f 1c7a 6c3f 964f 753f ba4b 7d3f
00000040: 0768 663f 4009 8a3f 6df0 4c3f 17f6 6c3f
00000050: 653a 6f3f 3b33 893f 7a1d 763f 3d4a 6b3f
00000060: 7c8f 533f c8d6 8f3f ea43 683f 981f 783f
00000070: 8209 803f 42f3 853f e63a 663f 559a 853f
00000080: 9794 703f 0b79 813f b626 743f 8c6e 873f
00000090: 8e4c 653f 57d7 853f a99b 8a3f 9452 803f
000000a0: f15a 693f a40c 583f be8e 4f3f 30da 883f
000000b0: fd0c 4c3f 4e28 8a3f fec2 7b3f bc3f 753f
000000c0: 8531 623f ea6e 6d3f 5932 863f cb6f 783f
000000d0: 63c4 8b3f ea11 6e3f 60be 883f 1c82 553f
000000e0: 7f84 533f 4a7e 663f 392b 823f cdbd 5f3f
000000f0: 6d30 813f f9de 753f 15ef 753f 0e2c 823f
00000100: 8eba 923f f473 863f c405 843f 5f5a 7f3f
00000110: a984 8c3f 824f 4b3f f83b 873f e4fd 843f
00000120: 5078 7f3f 80ef 873f 9fd1 873f 66d1 7c3f
00000130: 1e4b 6c3f 0778 563f e010 683f 7ac0 8e3f
00000140: 8a92 793f d16b 583f 187c 833f ce26 953f
00000150: 08d6 783f 94a6 653f 001b 713f 4619 873f
00000160: 6e87 8c3f 7c3b 843f f17b 8a3f c21f 803f
00000170: d579 6a3f 4658 6b3f 3994 803f 60ee 733f
00000180: 0716 6b3f faca 843f dcbe 6a3f 9f2c 723f
00000190: 8163 853f 65fa 7c3f 8331 703f 455c 5b3f
000001a0: b7fa 8b3f 5fb9 7d3f 7a90 743f 3d04 833f
000001b0: 7dea 853f 44f9 513f 2544 733f 918e 7a3f
000001c0: 2be7 653f f6c7 783f acdd 673f b7a6 493f
000001d0: 2cc2 7c3f 4f8b 803f e597 583f fde8 813f
000001e0: 5c5e 813f 072c 753f 9e18 423f de4c 883f
000001f0: ac6d 803f ca0b 863f 6a5e 8c3f 8161 7f3f
00000200: f317 883f 6b2d 653f 095f 693f d006 5e3f
00000210: 0c71 863f 81bd 633f 4ee8 853f d27d 763f
00000220: 1072 5b3f 3091 753f 33e1 6b3f aa92 7c3f
00000230: 8a0c 813f 6790 883f 0f49 603f ef29 693f
00000240: e258 773f feb1 883f 3fa7 4a3f 2c24 7d3f
00000250: 4a72 9b3f 0bfc 523f 6a71 4f3f 8338 743f
00000260: 8842 913f 0403 823f 1d49 753f f26b 633f
00000270: 63cc 743f c5f1 6b3f 8a93 843f a692 5f3f
00000280: b328 853f f186 853f eb77 7e3f d4e5 743f
00000290: 1243 553f 2ead 893f bb3c 503f 1d8f 7d3f
000002a0: 2ccd 803f 9998 503f 60f0 743f c31e 4c3f
000002b0: 6720 7b3f f607 6a3f 4e6f 693f 7df9 863f
000002c0: 7dfc 4a3f 3ca9 853f 791b 7e3f 22cd 873f
000002d0: cbf3 863f 3e2d 873f 6837 783f 6e39 563f
000002e0: 30f4 713f 62c0 7b3f 6c29 773f e73f 713f
000002f0: 493f 7a3f f776 833f ca52 783f 55f8 6f3f
00000300: 6283 883f b5a7 743f 9ac2 753f 436a 873f
00000310: ae59 813f c166 683f 4499 683f e92c 703f
00000320: 6967 413f 28e8 543f ba99 873f bdf8 6d3f
00000330: 29df 793f ca85 743f f8c9 793f e620 743f
00000340: 4413 773f 2e5e 803f d4cd 803f 2b34 833f
00000350: bbb9 793f 6623 8a3f e2a0 843f c06e 6e3f
00000360: 026f 543f 964e 8f3f ebea 913f ae00 6e3f
00000370: 2fce 5a3f 10e6 4c3f d9c4 643f e7be 873f
00000380: 081c 863f a56e 793f 1d88 823f 80f2 833f
00000390: 5e05 603f 2e7f 893f 68ab 7b3f 373e 693f
000003a0: b1d9 733f 20be 803f 65ec 503f 8b3e 783f
000003b0: 0b33 563f 73f9 6f3f 22e4 8b3f bc49 823f
000003c0: 1602 7d3f 3936 793f c011 7c3f ba07 7b3f
000003d0: 38e0 473f 3052 783f 182d 873f a5bb 803f
000003e0: 9a74 553f 1cfb 5f3f b60e 6e3f b991 813f
000003f0: 0b30 6b3f b3f8 7e3f e6b5 8c3f 2587 3d3f
0.97772276 0.96074736 0.985971 1.0721866 0.9881453 0.9161474 0.9655823 0.9536174
0.9853029 1.0344785 1.0148493 1.0846688 0.861673 0.92373824 0.95824564 0.98943675
0.90002483 1.0784073 0.8005436 0.92563003 0.9344848 1.0718759 0.9613873 0.91910154
0.82640815 1.1237421 0.9072863 0.9692321 1.0002902 1.0464861 0.8993362 1.0437723
0.9397673 1.0115064 0.9537157 1.0580611 0.8956994 1.0456342 1.0828754 1.0025201
0.9115439 0.8439429 0.8107718 1.0691586 0.7970732 1.079355 0.9834441 0.95800376
0.8835681 0.92747366 1.0484115 0.9704558 1.0919307 0.92996085 1.0683098 0.83401656
0.8262405 0.9003645 1.016944 0.8739899 1.0092903 0.96043354 0.96067935 1.0169694
1.1463182 1.0504136 1.031426 0.9974727 1.0977985 0.79418194 1.0565176 1.0389981
0.9979296 1.0619965 1.0610846 0.98757017 0.9230212 0.837769 0.9065075 1.1152489
0.97489226 0.84539515 1.0272245 1.1652467 0.97201586 0.89707303 0.94181824 1.0554588
1.097883 1.0330653 1.0819074 1.0009692 0.9159215 0.9193157 1.0045234 0.95285606
0.91830486 1.0374444 0.9169748 0.94599336 1.0420991 0.9881957 0.9382555 0.8568767
1.0935887 0.9911098 0.95532954 1.0235668 1.0462185 0.82020974 0.95025855 0.9787379
0.8980586 0.97180116 0.9057262 0.7877001 0.9873378 1.0042514 0.8460677 1.0149227
1.0106921 0.95770305 0.7581881 1.0648458 1.0033469 1.0472348 1.0966313 0.99758154
1.0632309 0.8952243 0.9116064 0.86729145 1.0503249 0.88961035 1.0461519 0.96285737
0.8572092 0.95924664 0.921405 0.9866129 1.0081952 1.0669068 0.8761148 0.9107961
0.9662 1.0679319 0.7916145 0.9888332 1.2144253 0.8241584 0.8103243 0.9539873
1.1348429 1.015717 0.95814687 0.88836586 0.9562437 0.92165786 1.0357525 0.8733314
1.0403045 1.0431806 0.9940173 0.9566319 0.83305466 1.0755975 0.8134267 0.990465
1.0062613 0.81482846 0.95679283 0.7973444 0.9809632 0.914184 0.9118546 1.0544888
0.79291517 1.0442271 0.9926067 1.0609477 1.054315 1.0560682 0.96959543 0.8368138
0.94513226 0.9834043 0.9654758 0.9423813 0.97752815 1.027068 0.97001326 0.937383
1.0665095 0.955684 0.96000063 1.0579304 1.0105493 0.9078179 0.90858865 0.9381853
0.75548416 0.8316674 1.0593789 0.9295767 0.9760614 0.95516646 0.97573805 0.953627
0.9651377 1.0028741 1.0062814 1.0250295 0.9754903 1.0792053 1.0361598 0.9313774
0.82981884 1.1195858 1.1399816 0.9296979 0.8547086 0.8003855 0.89362866 1.0605134
1.0477304 0.97434455 1.0197788 1.030838 0.8750819 1.0741937 0.9830842 0.9111056
0.95254046 1.0058022 0.8161071 0.96970433 0.83671635 0.93740004 1.0928996 1.0178752
0.9883131 0.9734836 0.98464584 0.98058665 0.78076506 0.9700041 1.0560637 1.0057265
0.83381045 0.8749254 0.929912 1.0122596 0.9187018 0.99598235 1.0993011 0.7403434

model.1.bias f4 [512]
00000000: 8ee5 d4bd 0d07 3cbd 177c b7bd 24e3 28bd
00000010: 9609 08be 5a69 e2bd 7f49 44be e835 57bc
00000020: ae77 80be 168a 83bd ce15 19be 3638 47bd
00000030: 92ad 3fbe 55b5 85bd b6ec 53be a940 e9bc
00000040: f63a eebd 6800 c8bc 1a48 84be 032e 80bc
00000050: 39df 0abe 8ab9 ffbd 77f3 70be 5de5 e5bd
00000060: e60b 1ebe 5354 bb3c c70d 44be bbde a9bd
00000070: f8ba 1bbe 1ac4 c23d 2911 44be 3759 2c3c
00000080: 5577 17be c6aa 1fbd e906 afbd 22fc dbbd
00000090: c31f 51be c647 7fbd 578b a4bd a4da 2fbe
000000a0: b5d4 05be 4fde 52be 2880 1abe b3a7 9dbd
000000b0: 586f 69be 6ca7 0b3b 4eb1 f1bd 5fca 1fbe
000000c0: c49e 44be c3eb 0bbe 7f99 90bd fbc7 d7bd
000000d0: e644 d0bd fefd d9bc d461 36be c6ef 80be
000000e0: e4fe 74be 7c53 96bd a066 09be 3b99 02be
000000f0: 3057 1bbd eefa f9bd 0fff 30bd b1ad 03be
00000100: ce76 60be ec4b 94bd b074 16be ac8e dabd
00000110: 7416 7cbd 022f 84be 5d88 c6bc 657d ae3b
00000120: 5e49 353c c563 f3bd a969 24be 85ba d3bd
00000130: 83d9 2ebe 5384 24be 9cd1 8ebe baee 8fbd
00000140: 7b03 c1bd 5602 e1bd 7222 bfbb b573 5b3d
00000150: 9a2f 68bc 895d 9fbe 0a90 80be 109c 47be
00000160: 661d 03be 8dae 4cbd be43 0abe 386a 66bd
00000170: 9d42 10be 288c c9bd ead7 96bd f7fa 3cbe
00000180: 1a54 bcbd 4ccb aabd 6bc5 3bbe b92c a2bd
00000190: c356 cdbd 2f99 d6bd cfa5 febd 9c77 39be
000001a0: 868a c1bd b3af e53c 6c31 06be fb4a 37be
000001b0: 1c4d 06be 93d9 53be 49ac 1fbe 08f6 95bd
000001c0: b66b c6bd 7bb3 1cbe 21d8 e3bd b039 62be
000001d0: 2ad3 22be fba5 05be 06a8 ffbd 25f6 4dbd
000001e0: 4826 21be 47e1 93bd a372 56be b0bb 11be
000001f0: 29cd babd 2269 7c3d 1d80 e8bc 46e1 2fbe
00000200: 4be3 0fbe cc38 90bd 3514 5dbe 2228 51be
00000210: 1897 2abe 9d7e 18be 3892 3ebe 3135 82bd
00000220: 7ea9 40be 6fd4 01bd 4d67 5fbe bd78 5b3d
00000230: 1831 d1bd b727 dabd 70b5 37be 3a11 4bbe
00000240: 4e16 e1bd f5af 2abe 1f17 5cbe 214a 67bd
00000250: 53f3 87bd aeb4 56be f843 25be bebd 31be
00000260: 0ea4 57bc af22 38bd 3b41 03be 27b5 0abe
00000270: 2e47 c23c cb96 34be d087 1a3d 5828 d8bd
00000280: f3e2 02bd c7d4 b6bd 7e82 3ebe 1e7b 77bd
00000290: 7436 69be d0e5 5f3d 5161 81be 9e3c afbd
000002a0: 59f3 e9bd 3246 7fbe 67ce 00be 3464 0fbe
000002b0: c600 fcbc ab75 91bd a510 1dbd 59a0 00bb
000002c0: 7a59 2dbe 7f13 1abe c9fa f5bd 55c6 3c3c
000002d0: 56b8 83bc 7824 5dbb dc0e a0bd 42d6 87be
000002e0: 36d7 89bd 4664 3bbe 0f1d e8bd 7239 87be
000002f0: 79a4 27be 94e6 07be c7b6 42be 5851 02be
00000300: 5981 523c b3ee 2fbe bc0f 17be c2c3 e8bc
00000310: 7bf4 f6bd 3d88 ebbd d21d 29be bdd0 4dbe
00000320: 4e0d 5abe 3631 27be d807 ca3c deb7 9b3c
00000330: e452 8cbd 9adb 36bd b6a8 7bbd cce3 1bbe
00000340: 59d7 8fbd 2322 60be dd68 0cbd fc57 d3bd
00000350: f0a2 aa3b 7d9b 6f3c 9dbe 21bd fe91 09be
00000360: 6ccc a0be e254 953c 6b46 4c3d 82f5 b9bd
00000370: 3747 54be c641 6abe c790 f6bd 0f43 5abd
00000380: 6991 18be 647c 79bd 8022 bcbc 479c 733c
00000390: eab6 18be 961e 6bbd b7b9 41bd 165c ac3b
000003a0: 34c1 eebd 317c 86bd 0cf1 04be 631e 48bd
000003b0: 3677 53be f304 d3bd 2167 e8bd 4e3a 15bd
000003c0: b72a cabd 2f41 45be e219 dabd 043e 133d
000003d0: 4ccc 76be 76e8 cfbd 7fb2 babd 88f8 8abd
000003e0: 1374 6abe 86fd 2bbe 21e9 4fbe 739f 10be
000003f0: d9e4 e5bd 61d7 1bbe deb2 f5bd e635 7abe
-0.103953466 -0.04590516 -0.08959215 -0.041232243 -0.13284907 -0.110552505 -0.19168662 -0.013135411
-0.25091308 -0.06422822 -0.14949724 -0.04863759 -0.18718556 -0.06528727 -0.20695767 -0.028473215
-0.1163234 -0.024414256 -0.2583626 -0.01564694 -0.13561715 -0.12486561 -0.23530374 -0.11225388
-0.15434226 0.022867357 -0.1914588 -0.082944356 -0.15208042 0.0951006 -0.19147171 0.010519317
-0.14791615 -0.03898122 -0.0854624 -0.1074145 -0.20422272 -0.062324308 -0.080343895 -0.17173249
-0.13069423 -0.20592616 -0.1508795 -0.07698002 -0.2279638 0.0021309508 -0.11801396 -0.15604542
-0.1920119 -0.13664155 -0.07060527 -0.1053619 -0.10169391 -0.02661037 -0.17810756 -0.25182933
-0.23925358 -0.07340142 -0.13418055 -0.12753765 -0.037924945 -0.12206064 -0.043211993 -0.12859227
-0.2192032 -0.072410434 -0.1469295 -0.10671744 -0.06154485 -0.25817114 -0.024234945 0.005325007
0.011064855 -0.11884264 -0.16055931 -0.1033831 -0.17075162 -0.16066103 -0.27894294 -0.07027955
-0.09424492 -0.10986774 -0.0058329636 0.053577144 -0.014171505 -0.3112605 -0.25109893 -0.19493127
-0.12804183 -0.049971152 -0.13502404 -0.05625364 -0.14087911 -0.09841186 -0.07365401 -0.1845511
-0.091957286 -0.08339557 -0.18337028 -0.079186864 -0.10026314 -0.10478436 -0.12433969 -0.18112034
-0.094502494 0.028037881 -0.1310479 -0.17899697 -0.13115352 -0.20688467 -0.15593065 -0.07322317
-0.09688513 -0.15302841 -0.11125208 -0.22092319 -0.15900865 -0.13051598 -0.1248322 -0.05028357
-0.1573726 -0.072207026 -0.20942168 -0.14231753 -0.091211624 0.0616237 -0.028381402 -0.17175779
-0.14051549 -0.07042083 -0.2158974 -0.20425466 -0.166592 -0.14892049 -0.18610466 -0.06357802
-0.18814656 -0.031696733 -0.2181675 0.053581942 -0.10214442 -0.10652106 -0.17940307 -0.1983079
-0.109905824 -0.16668685 -0.21493195 -0.05646718 -0.06638207 -0.20967361 -0.1613921 -0.17357537
-0.013161672 -0.04495495 -0.12817852 -0.13545667 0.023715582 -0.17635648 0.037727177 -0.1055457
-0.031954717 -0.08927303 -0.18604466 -0.060420148 -0.22774678 0.054662526 -0.2526956 -0.08556484
-0.11423368 -0.24929121 -0.12578736 -0.14003068 -0.030762088 -0.071025215 -0.03834595 -0.0019626825
-0.16928664 -0.150465 -0.12010724 0.011521895 -0.01607911 -0.003374366 -0.07815334 -0.26530653
-0.06730501 -0.1829997 -0.113336675 -0.26411015 -0.16371335 -0.13271552 -0.19015037 -0.12726343
0.012848222 -0.171809 -0.14752096 -0.028413657 -0.1205835 -0.11500595 -0.16515282 -0.20099159
-0.21294138 -0.16327366 0.024661943 0.019008573 -0.06851748 -0.044643022 -0.061440192 -0.15223616
-0.07023496 -0.21888022 -0.034279693 -0.10319516 0.005207412 0.014624474 -0.039488424 -0.13434598
-0.31405962 0.018228952 0.049871843 -0.0908003 -0.20730291 -0.22876653 -0.12039333 -0.05328661
-0.1489922 -0.060909644 -0.02296567 0.014868802 -0.14913526 -0.057402216 -0.047296252 0.005260001
-0.11657944 -0.065666564 -0.12982577 -0.048857104 -0.20650944 -0.10303678 -0.11347795 -0.036432557
-0.098714285 -0.19263147 -0.10649468 0.035947815 -0.2410137 -0.1015176 -0.09116077 -0.06785685
-0.22895841 -0.1679593 -0.20303775 -0.14123325 -0.1122529 -0.1521888 -0.11997007 -0.24434623

model.1.running_mean f4 [512]
00000000: 28f4 273e 8539 5d3e febe 92bd 75f0 30bf
00000010: dc85 a4be 2556 063e 1bd3 5d3d 09a4 4ebe
00000020: dbf1 81be 0ea8 d1be d8e9 36bf 1ef3 f03e
00000030: 277c 2bbf dbb8 143d 851c 71be 9ed5 403e
00000040: 6ebe 233e 8c2a 923e b82c d13d cdbf 9ebe
00000050: 76b5 a13e ed30 afbd 759d 723d 337e 80be
00000060: 56ae f73c 2925 ff3e 1903 33be 5016 473e
00000070: 0e03 9ebe 9b7e 26be 9822 7ebe 75a8 a93e
00000080: a0b6 173f ee00 9b3e cd86 e5be e024 bdbc
00000090: 0c06 05be 1350 d8be c1dd 3b3e b137 193f
000000a0: 03d7 463d f5d5 8a3d 7a5b 9d3e 0d15 df3d
000000b0: 5a28 b33e 9286 463e 4b1f 913e 2bd8 8e3e
000000c0: 5f6e f83c 148d b5bd 807a 263e 2648 81be
000000d0: 0e4d f7be 8029 5b3e f752 a13e 4f3c 0bbe
000000e0: 1aea cb3e 0617 02be b7f7 6b3e 217a 653e
000000f0: c511 a7bd 4fc1 bbbe 2303 93bd 6aab 943a
00000100: dbd5 393f 91c9 28bd e4af f6be 3469 663d
00000110: 87fb 243e 827d c03e d619 a6be 41e6 fd3e
00000120: 34b8 b4bd 88f9 a4bc 10c7 9dbe bdf0 6dbe
00000130: 2249 cd3e acfd b8be 5c13 f03e bd67 6f3e
00000140: e0ce 19bd 6b13 ca3d 3dd5 00be 82bd ecbe
00000150: 9203 9dbe 422c 19bf 4c4e 04be 26d6 503e
00000160: 45d7 06bf 1b7a 6e3e 6022 3c3e 2963 95bc
00000170: ee48 92be fd01 053e 0bae 2ebe 5464 87be
00000180: 3687 1a3e 5e6f 80bd 89d8 21bf 9562 83be
00000190: 932e d43d 6275 0c3f b52e 3dbf 2d94 5ebc
000001a0: aebe 94bd 59c2 283e 76f5 1ebe 4e97 0a3e
000001b0: f245 fbbd fdb6 b1be da66 393d d037 5d3c
000001c0: d888 c4be 414e 00bd 9f55 5d3d 009b 023e
000001d0: cef9 663c 7406 0ebe 0bb5 9b3e bdc9 873d
000001e0: 70ec 21be d0d8 d73e 10c7 d9bc 5fe9 30be
000001f0: 1da9 1b3d b4e1 d8bd d801 15bc a65a 78be
00000200: cf0c 2e3d 61e3 e7be 1223 0d3c dfff b0be
00000210: 3ceb fa3d 3105 153d 1ee2 a53e e2f6 94be
00000220: d7ec 743e 7ec2 2ebc ce99 a1bd ebe8 a13e
00000230: 6185 31be 6467 a03e 7d56 373e 58d7 ed3c
00000240: eff3 06be 7045 b93e b725 ba3d c465 5a3e
00000250: 7985 d13e 745c b73e 9022 133f b1dd c2be
00000260: bc4f a4be 17ff 6fbe 4125 473c 774f 7abd
00000270: bea3 33bd 195c 32bd dfb9 e83e 659b 97be
00000280: be89 0abe 7e51 49be 359b 8e3d 1c5f 9fbe
00000290: eed2 9bbe 2a45 0bbf 032f f2be 70e1 57ba
000002a0: 5262 023e ead7 0cbd a1cd cabe 09e1 8d3e
000002b0: 2d9b 21bd 5e98 313e 63ae 8b3e b54d 97be
000002c0: 9fb5 ddbd 1e20 a9be 8077 bb3e afb6 763d
000002d0: 5406 20be 5d37 923e e78e d0be 5568 0c3f
000002e0: e037 d8bd 9975 e03e 6b25 af3e 66ca 90bc
000002f0: f02a 993c 3dbf 28bb 8be5 a23e f44f f53e
00000300: 5a87 e33d e364 01bf 22ba 943d 721d 193e
00000310: 7aca b5be e14a 9cbd f673 963e d60b a93e
00000320: babf d6ba 6ed6 91be dc67 cfbe 92bd d0bd
00000330: 0122 d73d c5a1 793e 19ee 1d3f 713f 343e
00000340: 4546 983d 5410 62bd a6cd 62be b983 3fbe
00000350: cc2b 4bbd 76c9 da3e 5dd5 efbe 7ce8 d93e
00000360: c990 a33e 496f 523f 8720 4ebe 8e27 87bc
00000370: 9c15 3dbe 0be6 943e c074 883e d8da 21bf
00000380: e29b c23e a45b 8bbe 6555 0bbc 9706 bf3c
00000390: 14fa 6f3e d545 0abe 0c55 ddbe 1e17 9dbd
000003a0: de7c 143c e8c4 67bd c47d 393f ba43 f3be
000003b0: a34f 8a3e 30a4 94be f7dc 013d 03c0 173e
000003c0: 7d7a 163f b9f4 0c3f d2ae 35bf 46fe 803e
000003d0: e143 ffbd e406 4fbd eb21 ef3e cb87 d0bd
000003e0: c4c2 193f 8aef 653d 63be 51be ebac 9bbc
000003f0: 438d 373d bcb4 d13e b646 c0be 127a ebbd
0.16401732 0.21603973 -0.07165335 -0.6911691 -0.32133377 0.13118799 0.054156404 -0.20179762
-0.25379834 -0.40948528 -0.7145057 0.47060484 -0.66986316 0.036309104 -0.23546036 0.18831488
0.15990612 0.28548086 0.102136075 -0.31005707 0.31583756 -0.08554254 0.059232194 -0.25096282
0.030234497 0.49833038 -0.1748165 0.19442105 -0.30861706 -0.16259234 -0.24817884 0.33136335
0.5926304 0.30274147 -0.44829407 -0.023088872 -0.12990588 -0.42248592 0.18346311 0.59850603
0.048544895 0.0677909 0.30733854 0.10892687 0.34991723 0.19387272 0.28344187 0.27899298
0.030326067 -0.08864799 0.16257668 -0.25250357 -0.48300976 0.2140255 0.3150861 -0.13597225
0.39827043 -0.12704095 0.23043714 0.2240987 -0.08157686 -0.3667092 -0.07178333 0.0011342589
0.7259194 -0.041207854 -0.4818107 0.056252673 0.16111575 0.37595755 -0.32441586 0.49589732
-0.088241965 -0.020138517 -0.30815935 -0.23236366 0.40094858 -0.36131036 0.4688977 0.23379417
-0.037550807 0.09866985 -0.12581344 -0.46238333 -0.30666786 -0.5983316 -0.12920493 0.20394191
-0.52672225 0.23288767 0.18372488 -0.01823576 -0.28571266 0.1298904 -0.1705858 -0.26443732
0.15090641 -0.062712416 -0.6322103 -0.2566115 0.10360446 0.5486661 -0.73899394 -0.013585133
-0.07262932 0.16480388 -0.15523323 0.1353428 -0.122692004 -0.3470992 0.045264103 0.013502076
-0.38385653 -0.03132463 0.054036733 0.1275444 0.014097644 -0.13869649 0.30411562 0.066302754
-0.1581285 0.42157602 -0.026584178 -0.17276524 0.038003076 -0.105899245 -0.009094678 -0.2425333
0.042492684 -0.45290664 0.008614318 -0.34570214 0.12251899 0.036381904 0.32399076 -0.29094607
0.23918472 -0.010666488 -0.07890664 0.31623015 -0.17336036 0.3132888 0.17904086 0.029033348
-0.13178991 0.3618579 0.09089225 0.21327883 0.40922144 0.35812724 0.57474613 -0.38059762
-0.32092083 -0.23437153 0.012154878 -0.06111094 -0.04385733 -0.043544862 0.45454308 -0.29610744
-0.13529107 -0.19659993 0.06963197 -0.3112725 -0.30434364 -0.5440241 -0.47301492 -0.0008235192
0.12732819 -0.0343856 -0.39610007 0.2771075 -0.039454628 0.1734328 0.27281484 -0.29551473
-0.10825657 -0.33032316 0.3661461 0.060232814 -0.15627414 0.28557864 -0.40734026 0.548467
-0.10557532 0.4383972 0.34208235 -0.017674636 0.018697232 -0.0025748753 0.31815752 0.47912562
0.11109801 -0.50544566 0.072620645 0.14952639 -0.3550604 -0.076314695 0.29385346 0.33016843
-0.0016384043 -0.2848391 -0.40508926 -0.10192408 0.105045326 0.24378116 0.61691433 0.17602326
0.07435278 -0.055191353 -0.22148761 -0.18702592 -0.049602315 0.42731827 -0.4684247 0.42560184
0.319464 0.8220106 -0.20129596 -0.016498353 -0.18465275 0.2908176 0.26651573 -0.63224554
0.38009554 -0.27218354 -0.008504246 0.023318572 0.23435241 -0.13503201 -0.43228948 -0.07670425
0.009062974 -0.05658427 0.7245753 -0.4751261 0.27013883 -0.29031515 0.03170487 0.1481934
0.5878065 0.5506092 -0.7096988 0.25193995 -0.12464119 -0.05054368 0.46705565 -0.101821505
0.60062814 0.056136645 -0.20482783 -0.019003352 0.044812452 0.40958202 -0.37553948 -0.114978924

model.1.running_var f4 [512]
00000000: 8285 fb3c 4259 df3b 479e d43c 0835 253c
00000010: ad13 c03c 0ddf e23c 37b0 033c a78f a23c
00000020: ed56 5f3c 89c7 563c c17f b53c 428c 2a3c
00000030: e936 243d b96c a93c bdc2 0d3c a61a ef3c
00000040: 9631 a63c a91d 383c e4c5 d33c 3869 4f3d
00000050: 1661 ce3c 8bba b63c 0b67 8c3c 45ce a63c
00000060: d659 303d 1bdc 333c 938c 183d fde2 c13c
00000070: 9fa8 6c3c 748a b53c 84d9 c23c c028 fd3b
00000080: 36a5 8d3c 2fac 823c 812e 6a3c 668c 5a3c
00000090: da86 ad3c 03dc 4f3c afe6 293c ad12 5b3c
000000a0: d63c d93c 2e6e 4b3d 660a a73c 5e47 ef3b
000000b0: b482 a13c 9018 533c 67bb d13b 41da ea3c
000000c0: 229f 003d 8b92 7b3c 364b 2f3c f9da 333c
000000d0: 22f6 863c e363 a03c 9183 313c fc3f 163d
000000e0: d6d8 4c3d 2c9e a83c a628 033c c670 8d3c
000000f0: f649 4e3c 2063 a13c 6bba 253d d6f2 fd3c
00000100: b448 113c 2b31 403c f278 b33c 2cc4 a33c
00000110: 440d 203c b7e0 a33c 6d94 a73c b2aa 503c
00000120: b9f1 8a3c d54a 183c 2813 ff3b f70a 783c
00000130: 2c07 543c 0ca4 7d3c adc8 653c b761 4b3c
00000140: f32e 863c ba80 b83c 02d3 043c aa2f e93b
00000150: 0602 163d 6787 b43c 799d c83c fe3a 663c
00000160: 62d2 993c b3f9 203c 11ce 363c 1b13 d83c
00000170: 5959 9a3c 9238 133d 98fb 633c c02d 343c
00000180: d649 073d 5da6 953c 52fb e83c e600 f03c
00000190: 5d8b 763c 57c4 a03c 33ef 9d3c 87f5 983c
000001a0: 9022 463c 3dee 673d 590e 3a3c 4499 e13b
000001b0: 6c60 3e3c cb3c f23c deed 283c 2b6d 6a3c
000001c0: 9ccd 8f3c 8c2c 043d cf05 e83c 82e7 713d
000001d0: fbec 883c 54d0 483c 92fa 173d d364 863c
000001e0: 316c 133c 2565 a23c da2e 343c b1c3 f03b
000001f0: b4b2 d63c fbfc 3d3c 27ed 3e3c 294a 243d
00000200: bc2f 363c ba06 8c3c fd29 123d ad44 813c
00000210: 50b3 973c b58a c83c 86f2 593c f5df 4b3c
00000220: 774a df3c acc5 0a3d 7902 493c 7867 b33c
00000230: 1ca0 b63c a5e6 fb3b 5a03 533c d1aa 463d
00000240: 955c 273d dfc8 683c 6ab0 b43c f2c6 dd3b
00000250: 9703 123c 4af7 753c ba56 e03c 359b c63c
00000260: 7425 573c f7f3 c73c 8fcf c03c 1233 a33c
00000270: 5a43 d73c 43fc 463c 52d4 b83c 3973 1f3d
00000280: 2fb2 403c 4936 ba3b bc24 8e3c 015f a33c
00000290: 8aea 643d 4c8d aa3c 8f76 233d e036 9d3c
000002a0: 48c1 f23b 748c 353c 8f05 cc3c ea11 a63d
000002b0: 531d 143c 4142 7c3c 6210 9d3c 3d34 b93c
000002c0: e854 a83c 34d4 8e3c c7c7 703c bf92 2c3c
000002d0: a8a6 3f3c 26ca 1f3c 2f0a 8d3c 69fd 133d
000002e0: a0b8 a63c cc2d 9d3c 5cef d43c 1d55 803c
000002f0: 3e46 ac3c db88 3f3c bed7 a93c ff6b 8e3d
00000300: 6669 ec3b aead 9f3c 68d2 a23c 4521 013c
00000310: 2a22 f83b fab6 c33c 6a80 813c 328a df3c
00000320: cea5 c33c c24c 573d ded5 2f3c f9cb b73c
00000330: 61a1 443c e5b6 743c f460 713c e9e6 ab3c
00000340: b30a 213c 12f4 9a3c 4872 933b ed5d 733c
00000350: 3d88 a93c e9c0 873c 0e2e 4c3c 0692 a43c
00000360: b3fb db3c 1414 2e3c 6a41 1d3c d84d 9a3c
00000370: 1873 873c a311 f13c f405 a63d c792 c53c
00000380: 2fbe 663c d56f 543c 4d1b 563c 12e3 df3c
00000390: 82bd b43c c5ff 923c 07dc 933c 8c1d 843c
000003a0: 3bfd 913c 7c4f 3c3c ff40 c63c 358f a23c
000003b0: 0afa 143d e16b 873c 647e 723c 586b 5c3c
000003c0: 6276 113d e220 4e3c 73ab b33c babb a43c
000003d0: 3c8a 313d 3a9d 4a3c 53b0 673c d731 3e3c
000003e0: 25b3 953c 32c7 f23c 34a9 1f3d f033 263c
000003f0: 4f0e 9a3c aff0 993c 347b 493c 9a0d 593d
0.03070331 0.0068160603 0.025954379 0.010083444 0.023446882 0.02769425 0.008037618 0.01984389
0.013631565 0.013109096 0.022155644 0.010409417 0.04009143 0.020681726 0.008652386 0.029187512
0.020287316 0.01123754 0.025851198 0.050637454 0.025192779 0.022305747 0.017138978 0.020362029
0.043054424 0.01097777 0.037243437 0.023667807 0.014444499 0.022160746 0.02378536 0.007725805
0.017290693 0.015951244 0.014293314 0.013339138 0.021182466 0.012686732 0.010369941 0.013371152
0.026518267 0.049665622 0.0203907 0.007302209 0.019715644 0.012884274 0.006400514 0.028668525
0.03140176 0.015354763 0.010699084 0.0109775 0.016474787 0.01957888 0.0108345905 0.036682114
0.05001148 0.020583235 0.008005297 0.017265689 0.012590876 0.019700587 0.040460985 0.030999582
0.008867431 0.011730473 0.021908257 0.019991003 0.009768788 0.020004613 0.020456517 0.012736009
0.016960965 0.009295185 0.007784266 0.015139333 0.012941163 0.015481006 0.014024896 0.012413434
0.016379809 0.02252232 0.008106949 0.0071162777 0.036623023 0.022037221 0.024489151 0.014052151
0.018777076 0.009825158 0.0111575285 0.026376298 0.018841432 0.03594262 0.013914965 0.010997236
0.0330294 0.018267805 0.028440151 0.029297303 0.015047875 0.019624872 0.019279098 0.018671764
0.012093201 0.056623686 0.01135596 0.0068847258 0.011619668 0.029570004 0.010310618 0.014308254
0.017554097 0.032269046 0.028323082 0.059058674 0.016714564 0.012256701 0.037104197 0.016405499
0.008997963 0.01982362 0.010997498 0.007347547 0.02620826 0.01159596 0.011653221 0.040109787
0.011119779 0.017093051 0.035684574 0.015779817 0.01851812 0.024480203 0.013302451 0.012443532
0.027257187 0.03387992 0.012268656 0.021899924 0.022293143 0.007687407 0.012879217 0.048502747
0.040859777 0.014208048 0.022056777 0.006768101 0.008911989 0.015012572 0.027385104 0.02424393
0.013131488 0.024408324 0.023536472 0.019921813 0.026277233 0.012145105 0.02256218 0.038928244
0.011761232 0.005682741 0.0173515 0.019942762 0.055887736 0.020819329 0.03990799 0.019191206
0.007408295 0.01108085 0.024904994 0.081088856 0.009040195 0.015396656 0.019172851 0.022607917
0.020548299 0.01743517 0.014696068 0.010533034 0.011697449 0.009752786 0.01721677 0.036130343
0.020351708 0.019186877 0.025993042 0.015665585 0.021029588 0.011690344 0.020732757 0.06954192
0.007214713 0.019491997 0.01987572 0.007881467 0.007572432 0.023890961 0.015808303 0.027287576
0.023882773 0.052563436 0.010732142 0.022436129 0.012001366 0.014936184 0.014732588 0.02098413
0.009829211 0.01891521 0.0044997074 0.014853937 0.020694846 0.016571479 0.012462152 0.02008916
0.026853418 0.010624904 0.009598115 0.018835947 0.016534373 0.029427355 0.08106604 0.02411784
0.014083429 0.012966116 0.013068032 0.027329955 0.02206302 0.017944226 0.018049253 0.01612737
0.017820945 0.01149356 0.024200914 0.019843677 0.03637127 0.016530933 0.014800642 0.013453327
0.03551329 0.012581082 0.02193234 0.020109046 0.04334472 0.012366587 0.01414116 0.011608562
0.0182739 0.029636 0.038979724 0.010144219 0.018805651 0.018791525 0.01229744 0.052991487

model.3.weight f4 [256, 512]
00000000: ee4e 14bd 2f79 8bbc 4b87 8e3d f02d 59bd
00000010: d1c0 193d b990 023a 8083 49bd 9327 a23c
00000020: 63c6 6c3d 8f01 f03c 9543 7cbd 381c 5a3d
00000030: 341d c63c 2aa3 023d 62d4 973d 3dad a8bd
00000040: 5ce0 c13d 6e3d f03c d4ef 70bd 326a 783d
00000050: 8e54 223d 2fc3 623d 3488 9abd 50ce d53b
00000060: 03db 503d 4989 04bb c37f 323d 2ddb b23d
00000070: ddb3 99bc 9aa2 b43c f239 cf3c eb58 0f3d
00000080: e0dd 01bd 32b4 223d b0e7 34ba 50a5 873d
00000090: 3ae1 57bc 71c2 64bd 7a6f 16bd 97b7 81bd
000000a0: e5d6 6b3d 971c 743c cfba 16bd 7aeb ecbc
000000b0: a795 f9bc 4723 d43d b2e3 b13b 021d a53c
000000c0: ea79 2fbd 6a28 093d c78f a2b8 60d6 1fbc
000000d0: 8026 91bd 2ab0 a43c 4965 9b3d 5066 223c
000000e0: b914 153c 036f 08bb 2fa2 6ebd 65ea dbbb
000000f0: a16b 0cbc 0b56 e23c b249 df3c 403e be3d
00000100: ccdd d23b 2f5e 933c 1c57 0dbd 7463 133d
00000110: 0a07 8e3d b6f0 6fbd 7d89 fb3c 877a 8abd
00000120: 502d 89bd ee8d a63c f343 6c3d ab69 dc3b
00000130: 6346 0d3d f0a9 753c ceb1 4c3c 6c29 f9bc
00000140: 839a 22b9 892f 8e3d 42f2 7ebb 1b2e c0bd
00000150: 29e2 b5bd 09ea b1bd 7b0c 18bd 0de8 453d
00000160: d279 e33c 770c d6bc 779b b6bd 0529 8f3c
00000170: 1397 043d 68f9 d5bd 81c3 fbbc 9d3b 203c
00000180: 531b 4d3d e040 6f3d a081 253d 7860 243c
00000190: c7ab 8cbd 7615 953d ae5e 35bc 0a19 11bd
000001a0: bc67 bbbd cea0 1f3d da2f 3e3d 55dd 1dbe
000001b0: d226 b0ba 9dbc 8b3d b716 76bc d9b4 5a3d
000001c0: 50b3 6cbd 620c 2bbd cd05 8f3d 6a70 343d
000001d0: f5d5 ed3d c4b2 a93d 2071 2dbd eefb eabc
000001e0: 37de d03c a207 5a3d f50f a5bc a0b8 bfbb
000001f0: d306 d83b 2345 84bd 00fa e73d 7c0b 283d
00000200: 5db6 d53b 9a00 cc3d e364 8abc d9c4 49bc
00000210: cdf7 853c 7818 3c3d e0cd 2dbd 4741 5f3d
00000220: f774 2b3d e518 6abd d923 20bd 25fd 8abc
00000230: 27be fcbc 11be ab3b a8bf 48bd 5da6 713d
00000240: ee76 163d a78f 9abc e47d 9a3c fc5b 413d
00000250: 4dd7 693c d685 61bd 74ae 9a3c 5a43 73bd
00000260: 13d5 ad3b 4ce6 283d ad2c 25bd 124d 29bb
00000270: 479c 8fbd 278c fa3d 8852 453d b763 94bd
00000280: f7b6 723d 19d0 20bd f4e8 f53b 1b94 28bd
00000290: 93e1 c63c f5e4 1a3c fe5d c83d 2465 d2bc
000002a0: 36f5 993d 5f31 c93d 68b6 c53c da1e ac3d
000002b0: da59 f4bd 13fe 95bd 0c39 c0bc 1ffe 00be
000002c0: c8c6 973d 7048 7abc ee73 f0bc ddf7 913d
000002d0: 88ca 15bd 8276 103d bce1 793d 5a0c c73b
000002e0: 00fd b63c 5055 89bd 847e e03c 8d27 94bd
000002f0: c350 0cbd 12c2 243d ae37 ddbd e8d7 3b3d
00000300: 5444 873c b036 1d3c 530c a33c 6623 a83d
00000310: ac0c a8bd 310c 4eb9 cf58 1f3d b767 103d
00000320: bd28 273c abba 1cbc f2e4 c5bc 3177 babb
00000330: abc8 adbd 7735 043d e3be 283d 2fc8 0c3d
00000340: a657 4dbd 66f0 83bd 5151 8e3d 4a1a 98bc
00000350: c963 0ebd c76e 05bb a79a 39bd a213 b03d
00000360: 306f 09bd 5619 e43b 6a37 29bc aa87 e2bc
00000370: 8605 73bd b3b0 80bd 0fe2 b0bc bdab 1f3c
00000380: 8ccb 27bd 8739 91bd 9f2d cd3d 4892 4bbb
00000390: 5780 343d 89c3 02bd 6701 4ebc 3572 20bd
000003a0: 8a16 0f3c 9fec 71bd 1c27 35bd a583 343d
000003b0: e1a5 0fbd 4eff 4f3a 1080 a0bc 1cc6 adbc
000003c0: 7386 483d 9f6e abbd 61bb 37bd bf1b b43c
000003d0: 00ac 293d 3edd 85bd d38d 6ebc 345f bcbd
000003e0: 0888 b7bc 088f eb3c 2f4d 95bc 5ec0 51bd
000003f0: d423 81bd aba1 343d cd3d 36bd e851 7f3c
-0.036208086 -0.017025558 0.06959399 -0.053022325 0.0375374 0.0004980672 -0.049197674 0.019794261
0.057806384 0.029297618 -0.06158789 0.053249568 0.024183847 0.031893887 0.07413556 -0.082361676
0.09466621 0.029326167 -0.058822468 0.06064815 0.03963142 0.055361923 -0.0754551 0.0065248385
0.050990116 -0.002022343 0.043578874 0.08733211 -0.018762523 0.02205019 0.025296185 0.03499691
-0.031705737 0.03972263 -0.0006900979 0.06623328 -0.013176257 -0.055849496 -0.036727406 -0.06333845
0.057577986 0.0148993945 -0.03679925 -0.028920878 -0.030466868 0.10358291 0.0054287547 0.020155434
-0.042840876 0.033485807 -7.7515426e-05 -0.009755701 -0.070874214 0.020103533 0.07587678 0.0099120885
0.009099179 -0.0020818121 -0.05826014 -0.0067112916 -0.008570583 0.02762892 0.02725682 0.09289217
0.0064351317 0.017989246 -0.034506902 0.035983518 0.06934936 -0.05857917 0.030705208 -0.067616515
-0.06698096 0.02033135 0.05768199 0.006726464 0.034490954 0.01499413 0.012493564 -0.03041526
-0.00015507084 0.0694266 -0.003890172 -0.09383794 -0.08881027 -0.08687217 -0.037121277 0.048317004
0.02776805 -0.02612899 -0.08916371 0.017475614 0.032370638 -0.10447961 -0.030732872 0.009779838
0.050074887 0.05841148 0.040406823 0.010032766 -0.068687014 0.07279484 -0.011069937 -0.03542427
-0.09150645 0.038971715 0.046432354 -0.15416463 -0.0013439304 0.068230845 -0.015020064 0.053395126
-0.057788193 -0.041759856 0.06983528 0.04405252 0.11613075 0.0828605 -0.042344213 -0.028684583
0.025496585 0.053229935 -0.02014921 -0.0058508664 0.0065926104 -0.06458499 0.113269806 0.041026577
0.0065219835 0.09961052 -0.01689381 -0.012314999 0.016353512 0.045921773 -0.042432666 0.054505613
0.041859593 -0.057152648 -0.039096687 -0.016966412 -0.03085239 0.0052411635 -0.049010903 0.058996547
0.036734514 -0.018867327 0.018858857 0.047206864 0.014272523 -0.055059277 0.018882014 -0.059390403
0.0053049414 0.041235253 -0.04032581 -0.002583329 -0.070122294 0.12233763 0.04817441 -0.072455816
0.05925652 -0.039260957 0.007504577 -0.04115687 0.024277484 0.009454002 0.097835526 -0.025682993
0.075174734 0.0982387 0.02413483 0.08404322 -0.119312 -0.073238514 -0.023464702 -0.1259694
0.074109614 -0.0152760595 -0.029352155 0.07127354 -0.036570102 0.035269268 0.061006293 0.0060744705
0.022337437 -0.06705725 0.027404077 -0.07234106 -0.034256708 0.040224142 -0.10801636 0.0458602
0.016512074 0.009595558 0.019903338 0.08209877 -0.08205542 -0.00019650233 0.038903054 0.03525516
0.010202584 -0.0095659895 -0.024157021 -0.0056904783 -0.0848554 0.03227755 0.04119767 0.034370597
-0.050132416 -0.06442337 0.069491036 -0.018567223 -0.03476313 -0.0020360218 -0.045313504 0.08597495
-0.033553302 0.006961028 -0.010328153 -0.02765258 -0.05933144 -0.06283703 -0.021592168 0.009745535
-0.0409656 -0.070910506 0.10018467 -0.0031062532 0.044067707 -0.031924758 -0.0125735765 -0.039171416
0.008733401 -0.05906355 -0.04422675 0.04407086 -0.035070304 0.00079344667 -0.019592315 -0.02121263
0.048956346 -0.08370709 -0.044856433 0.021985887 0.041423798 -0.06536339 -0.014560181 -0.09197846
-0.022403732 0.028754726 -0.01822528 -0.051208846 -0.06305662 0.04409949 -0.04449253 0.015583493

model.3.bias f4 [256]
00000000: 5437 433c 1f21 94bc 71ed 2c3b 12c7 513c
00000010: 1ae4 2d3d 5796 4eba 5f48 bc3c b011 0f3c
00000020: 0ed6 6a3c cace 403c 366e 183c cced 8a3c
00000030: c4cf 06bd 987c 5d3c d7fd 903c 36f0 c03c
00000040: 545f 0dbd e108 133d 94a6 bfbc afe1 08bc
00000050: 791c ee3a 2fb0 713b 3e23 ca3c 8a48 e93c
00000060: c3f9 353d dcd5 293c 9751 423b be77 813a
00000070: 62fa 053c 7527 89bc 669b 6cbc eb79 2a3d
00000080: 1d81 133d aac7 b13a ced2 cabc e6a9 abbc
00000090: 1e82 e7bc d965 89bc cb69 a4bc 572a 203d
000000a0: e9c9 c9bc e656 d53c 3a51 05bd 666b 05bc
000000b0: 896a 54bc e974 cebc 2880 f23a de11 f53c
000000c0: bcbe f43c a6be f63c 51cd ac3b 013d 2fbd
000000d0: 9744 a2bc e7c0 0b3d e182 b6bc 955a ad3c
000000e0: f12d 40bc 9220 c1bc 4024 753b e2b1 e9bc
000000f0: 92cb 1d3d 9010 f1bc f102 96bc 1918 8f3c
00000100: 59c1 b7bc befe 28bd 643c a0bc 1693 e8b8
00000110: 519c 143d e378 3bbc 05a8 c9bc 2167 2abd
00000120: fedc d9bc 2c11 06bd 8c95 cdbc dec2 f1bb
00000130: 1b99 ec3c 5744 7c3b cac0 d63c 91fc 283d
00000140: 7c8e 46bc 5430 1b3d d731 b6bc 8a74 51bc
00000150: 42ec 1d3d a5e4 06bd f34b a9bc 82f4 113d
00000160: 5e14 0b3d ef8f 0c3b 3a86 00bd 60bd fc3c
00000170: 553d 763b 9d5a b7bc d868 59bc 060b c5bb
00000180: 562e 9e3c 7179 67bb d24b 0a3d fa50 0cbd
00000190: 7833 fbbc 0bac cabc 534e 0ebd d67b a63b
000001a0: ebcb b9bc 60c6 89bc 9ee9 133c db7e 3bbc
000001b0: aa0b ddbb e39c 05bd ef54 df3c 342e ad3c
000001c0: 20ad ddbc 716d d8bc 6c16 e4bc e11d 99bc
000001d0: 769c 0fbd a1d5 173d 6de4 94bb 968b 2dbd
000001e0: b993 193d d86a 6ebc d15d f3bc 9044 c13b
000001f0: d985 b03c 8619 5ebc abdb a03c 6711 323d
00000200: f96a 063c f350 073d a697 0e3d c1a9 2a3d
00000210: 085c 9f3c 2ccc f2bc d3c8 083d f08e 57bc
00000220: 8507 c63c 545c 233d dceb 043d b81a 1abc
00000230: 8d16 fabc 5e56 b7bc 0e57 0b3c dd76 f63c
00000240: 7dbc 23bd 20f5 223a 820b 57bc c793 0cbc
00000250: 9a1a febc 3154 89bc 0e9d ad3c 882d c83c
00000260: 4059 eebc f1c6 9a3c 4eaa 683c cd11 efbc
00000270: b656 9b3c c318 163c 13b1 f2bc e63e 283d
00000280: 6c29 ac3b 9cac 9a3c cf5b 27bd 487a 6b3b
00000290: 8243 203d 72f1 f4bc 0e3e 263b a1ad 15bc
000002a0: c4ec 253d 93a7 b2bc a857 22bd af13 8fbc
000002b0: 1d04 4ebc fbb0 a2bc 378d 703c 71b6 133d
000002c0: ceff 333d 2f82 9fbc d236 263d 8350 7b3c
000002d0: dcb0 80b9 d55d 2b3d ab27 c23c 0a08 1b3d
000002e0: a691 633c 1c1f e53b b31e 8d3c daf0 04bc
000002f0: 240a 40bc f6d1 c8bc 008c 0a3d 255a 7f3c
00000300: bb72 c83c 828e 9b38 82ba 2a3d b3b5 1d3d
00000310: 5fc3 f13c 043d 3cbc a905 203d f87e 2fbc
00000320: 1132 a7bc 69ee 8e3c a1b2 c63c c55e 25bd
00000330: 476a 7a3c 9e26 2f3d 5f62 debc 55b0 bb3c
00000340: c53d 9e3c 1fec 1cbd 0e13 003c 8f51 27bd
00000350: 5f6f 2a3d 7335 603b 7663 c9bc e6c1 92bc
00000360: 3485 f13c a5f1 f53c c7e1 de3c 1fa3 7e3c
00000370: 0b73 75bc 1a7f 043c 5df0 ffbc 7b45 e1bb
00000380: 4e42 303c 02e6 14bd 6f30 12bc 6ce1 a33c
00000390: e7fc 613c b878 c33c 0877 25bd 2712 073d
000003a0: ca91 20ba d5f7 8b3c 515c c6bc 66b6 c43c
000003b0: 55f9 943a 0c2d 873c 6d6d 833c c2b9 e3bc
000003c0: 7bfe 223d 1986 1d3d 851e f13c 7f4e 7cbc
000003d0: 0525 d4bc 23e5 003d 3d3e f1bc 34e5 cb3c
000003e0: fa00 2dbd aeb2 613c fbab 1b3b 93a2 20bd
000003f0: 3f78 253d 7cfd d3bb 8fe3 09bd 0b4e 1ebd
0.011915047 -0.0180822 0.0026386643 0.01280381 0.042453863 -0.0007880679 0.022983728 0.008732244
0.014333261 0.011768052 0.00930362 0.016959094 -0.032912984 0.013518475 0.017699165 0.023552042
-0.03451474 0.03589714 -0.02339486 -0.008354588 0.0018166444 0.0036878695 0.024675008 0.028476972
0.044427644 0.010365929 0.0029650682 0.0009877605 0.008177372 -0.016742447 -0.014441347 0.041620176
0.036011804 0.0013563533 -0.024758723 -0.020955037 -0.028260287 -0.016772198 -0.020069977 0.03910288
-0.024632411 0.026042413 -0.032548167 -0.008143282 -0.012964853 -0.025202231 0.0018501328 0.029915746
0.029876105 0.030120205 0.005273499 -0.042782787 -0.019808097 0.034119513 -0.022279205 0.021161357
-0.011729703 -0.023575101 0.003740564 -0.028527204 0.038524218 -0.029426843 -0.01831195 0.017467545
-0.022431063 -0.041258566 -0.019560046 -0.00011090019 0.036281887 -0.011442396 -0.02461625 -0.041602258
-0.026594635 -0.03273122 -0.025095724 -0.0073779663 0.0288816 0.0038492882 0.026214976 0.04125649
-0.012118932 0.037887886 -0.022240562 -0.012784133 0.03855539 -0.032932896 -0.020666098 0.03563357
0.03395497 0.0021448096 -0.03137801 0.03085202 0.0037573178 -0.022382075 -0.013269626 -0.006013277
0.019309204 -0.0035320187 0.033763714 -0.034256913 -0.03066419 -0.02474024 -0.034742665 0.0050806804
-0.022680243 -0.016818225 0.009027867 -0.011443819 -0.006745775 -0.032620322 0.02726218 0.021140195
-0.027060091 -0.026419373 -0.027842723 -0.018691005 -0.035061322 0.037068967 -0.004543832 -0.042369448
0.037494395 -0.014551841 -0.029707821 0.005898066 0.021548199 -0.01355589 0.019635996 0.043473627
0.008204215 0.033036184 0.034812592 0.041665796 0.019453064 -0.029638372 0.033394646 -0.013156638
0.024173507 0.039882973 0.032451496 -0.009405784 -0.030528331 -0.02238005 0.008504642 0.030085975
-0.03997468 0.0006216336 -0.013125302 -0.008580155 -0.031018544 -0.016763778 0.021193054 0.024435773
-0.029095292 0.01889369 0.01420076 -0.029183293 0.018962245 0.009161177 -0.029625451 0.04107561
0.0052539613 0.018881135 -0.04085904 0.003593104 0.03912688 -0.029900286 0.0025366577 -0.009135635
0.040509 -0.021808421 -0.039634377 -0.01746544 -0.012574223 -0.019859781 0.014682106 0.03606266
0.043945126 -0.019471256 0.040579624 0.01533902 -0.00024545833 0.041837532 0.023700556 0.037849464
0.013889706 0.006992234 0.017226553 -0.008114064 -0.011721168 -0.02451418 0.03382492 0.015585457
0.02446877 7.41752e-05 0.041681774 0.03850336 0.029512106 -0.011489157 0.039067898 -0.010711424
-0.020409616 0.017447667 0.024255099 -0.040373582 0.015284128 0.042761438 -0.027146516 0.02291123
0.019316563 -0.03831112 0.007817043 -0.040849265 0.041610118 0.0034211546 -0.02458356 -0.017914724
0.029482462 0.030022452 0.027207268 0.015541821 -0.014981042 0.008086944 -0.031242544 -0.006874738
0.010757996 -0.036352165 -0.00892268 0.02000495 0.013793207 0.023861274 -0.04039672 0.032976296
-0.000612524 0.017085949 -0.024213942 0.024012756 0.0011365811 0.016500972 0.01604339 -0.027798537
0.039793473 0.038457964 0.029433498 -0.015399574 -0.025896559 0.03146852 -0.029448623 0.024889566
-0.04223726 0.013775511 0.0023753631 -0.039217543 0.04039788 -0.0064694267 -0.033664282 -0.038648646
