best-model-by-loss.pth (torch, 587296 bytes, 5 tensors)

model.0.weight f4 [512, 27]
0.022333147 -0.17595787 0.09739553 0.09494222 -0.11910608 0.13556466 0.031939823 0.14206958
0.03901322 0.023917697 -0.12773682 -0.12779798 0.0030426423 0.19222175 -0.045536768 -0.053672884
0.01871748 -0.14992154 0.045571536 0.018929785 -0.0094124945 0.10270921 -0.06424399 -0.12928297
-0.214852 0.021826867 0.14560059 -0.118516766 -0.10853017 0.036287613 -0.089762494 -0.12032786
-0.027531032 -0.051947553 0.08755866 -0.08755539 0.17561501 0.07975369 0.15531066 -0.17816739
0.24976344 0.028112 0.1411277 -0.081122465 -0.16794509 0.078863494 -0.044716153 -0.07262328
0.046751257 -0.21706648 0.078446105 0.24323262 -0.08093042 -0.026936373 -0.090404175 -0.23837608
-0.010377992 -0.15824266 -0.033114865 -0.35063514 0.09471206 -0.051379785 0.15294561 0.15493007
-0.13766833 -0.04630527 0.10175021 0.013397845 -0.11869309 0.11308682 -0.07926832 -0.1520749
0.038079567 0.14650601 0.10782574 -0.087099575 -0.09061747 -0.0061469274 -0.05818229 -0.16868718
-0.058241554 0.17220564 0.12109469 -0.012340804 -0.06554369 -0.33423668 -0.037972745 -0.084458254
-0.16938175 0.22920376 0.2086903 0.036992203 0.06106093 -0.05187514 0.21997564 0.42739958
-0.041116733 0.006794124 -0.029975636 0.1212584 0.0026072336 -0.12042718 0.06912601 -0.033778023
-0.051445115 -0.17923714 0.019712828 -0.12069267 0.11103618 -0.06642797 -0.09346702 -0.18909545
-0.12524033 -0.1580947 0.026130391 0.13605496 -0.18273684 0.009894881 0.17608878 -0.16507924
-0.12899692 -0.08434846 0.15141743 -0.0987902 0.048475765 -0.0018494257 0.14886917 -0.051679585
-0.04520923 -0.073675334 0.16184993 0.028876282 0.16171645 0.12933709 -0.11575201 0.15490256
0.03814511 0.11037397 -0.10975511 -0.16356133 0.003082598 -0.18381034 -0.19667149 0.11885631
0.13791773 0.13459677 -0.024049545 0.080214545 0.23553605 0.22592439 0.22090466 -0.1606355
-0.12090107 -0.03309018 0.0049907905 0.08949911 0.07720567 -0.17553754 -0.15199962 -0.0058297617
0.010238124 -0.18050694 0.057236604 -0.029695155 -0.06974024 0.11116811 -0.31265184 -0.1697921
-0.2815054 -0.28336164 0.08600799 -0.056340277 0.11459155 -0.035363466 0.107986525 0.27903935
0.18674307 -0.03915646 0.19780135 -0.16560924 0.14281264 -0.055811502 -0.17048301 -0.22474192
0.0686375 -0.07384525 0.09163333 -0.15480368 0.09321591 0.027797408 -0.22713086 -0.2751669
0.06516277 -0.45502028 -0.34386623 -0.03552194 -0.25793147 -0.11054625 -0.07765022 0.0989607
0.07077644 0.0034587162 0.22169235 0.15583193 0.09117914 0.06465286 -0.27758944 0.14160188
0.2309831 -0.11054819 -0.14027573 -0.21447885 -0.045223285 0.196657 -0.11299288 0.05107025
0.12121334 -0.17196842 0.13467607 -0.016233874 -0.012646918 0.16937423 -0.091720894 -0.14152446
0.059672296 -0.17786524 0.1677133 -0.19014889 -0.14231192 -0.063713595 0.055651348 0.09567648
-0.11080626 -0.038176022 -0.055867393 0.13024059 -0.12066492 0.14633732 -0.16604175 -0.13376969
-0.1833266 -0.12636407 -0.025324646 0.10201075 -0.088501476 0.20743285 0.11532288 -0.17094861
-0.015933214 0.03623121 -0.07289576 -0.18420601 -0.050229732 -0.0443662 0.0807732 -0.25679666
00000000: 01f4 b63c 4d2e 34be 4f77 c73d 1171 c23d
00000010: e3ed f3bd 76d1 0a3e 55d3 023d b07a 113e
00000020: 54cc 1f3d 0cef c33c 71cd 02be 79dd 02be
00000030: 1167 473b c7d5 443e c384 3abd 19d8 5bbd
00000040: 6755 993c 0885 19be 38a9 3a3d a312 9b3c
00000050: dd36 1abc 3559 d23d 5a92 83bd c162 04be
00000060: 2a02 5cbe 42ce b23c 5218 153e ebb8 f2bd
00000070: 1145 debd 52a2 143d 66d5 b7bd 746e f6bd
00000080: c288 e1bc f5c6 54bd f451 b33d 3e50 b3bd
00000090: 6cd4 333e e755 a33d c209 1f3e 8371 36be
000000a0: fdc1 7f3e 234b e63c c883 103e 8923 a6bd
000000b0: ccf9 2bbe 2f83 a13d 4928 37bd 84bb 94bd
000000c0: 3f7e 3f3d ad46 5ebe 5aa8 a03d f911 793e
000000d0: d9be a5bd aba9 dcbc d325 b9bd dc18 74be
000000e0: 7408 2abc 5d0a 22be 74a3 07bd 7386 b3be
000000f0: 66f8 c13d 9c73 52bd c69d 1c3e fda5 1e3e
00000100: edf8 0cbe 98aa 3dbd 6a62 d03d a382 5b3c
00000110: 5d15 f3bd 109a e73d 6e57 a2bd 86b9 1bbe
00000120: 52f9 1b3d ac05 163e bed3 dc3d 4361 b2bd
00000130: a795 b9bd 2a6c c9bb 8e50 6ebd 55bc 2cbe
00000140: b28e 6ebd ad56 303e 7e00 f83d 1531 4abc
00000150: c53b 86bd 1221 abbe 4f89 1bbd 73f8 acbd
00000160: 6972 2dbe 64b4 6a3e e9b2 553e 2385 173d
00000170: 071b 7a3d 077b 54bd 4b41 613e 1ed4 da3e
00000180: 056a 28bd 3ea1 de3b 778f f5bc 5356 f83d
00000190: 1fde 2a3b 86a2 f6bd f091 8d3d d35a 0abd
000001a0: 1db8 52bd f189 37be cc7c a13c b82d f7bd
000001b0: f066 e33d 630b 88bd a36b bfbd 3da2 41be
000001c0: 003f 00be 94e3 21be 670f d63c fe51 0b3e
000001d0: 5e1f 3bbe 241e 223c 9e50 343e 880a 29be
000001e0: c517 04be e3be acbd 2c0d 1b3e 8452 cabd
000001f0: 868e 463d 6e68 f2ba 2971 183e f9ad 53bd
00000200: 502d 39bd 18e3 96bd fdbb 253e f48d ec3c
00000210: ff98 253e f170 043e 640f edbd c79e 1e3e
00000220: 0c3e 1c3d bf0b e23d 4ac7 e0bd 9f7c 27be
00000230: 6a05 4a3b c738 3cbe 4064 49be f06a f33d
00000240: 4e3a 0d3e bcd3 093e 8d03 c5bc 8647 a43d
00000250: 5d30 713e b958 673e d534 623e a27d 24be
00000260: fb9a f7bd 9289 07bd c989 a33b 4f4b b73d
00000270: 021e 9e3d 1dc0 33be caa5 1bbe 9607 bfbb
00000280: cebd 273c d0d6 38be ee70 6a3d 4143 f3bc
00000290: f9d3 8ebd 1bac e33d e713 a0be fbdd 2dbe
000002a0: 7a21 90be c714 91be f524 b03d 10c5 66bd
000002b0: f9ae ea3d 48d9 10bd 0a28 dd3d 3fde 8e3e
000002c0: 9339 3f3e 8662 20bd 708c 4a3e 7895 29be
000002d0: 7a3d 123e 9a9a 64bd 1993 2ebe bf22 66be
000002e0: d191 8c3d 2e3c 97bd 41aa bb3d db84 1ebe
000002f0: fce7 be3d 64b7 e33c fe94 68be ade2 8cbe
00000300: 0f74 853d 6bf8 e8be 3c0f b0be 747f 11bd
00000310: 980f 84be 1366 e2bd 1407 9fbd e8ab ca3d
00000320: 3df3 903d a1ab 623b 5203 633e 6892 1f3e
00000330: 21bc ba3d b868 843d 3420 8ebe 1500 113e
00000340: d586 6c3e 1767 e2bd 71a4 0fbe 58a0 5bbe
00000350: 0d3c 39bd 7460 493e d068 e7bd 0a2f 513d
00000360: b33e f83d 7d18 30be 86e8 093e e7fc 84bc
00000370: 0535 4fbc 7070 2d3e 2ad8 bbbd caeb 10be
00000380: f06a 743d 4e22 36be 09bd 2b3e 64b6 42be
00000390: 37ba 11be 467c 82bd abf2 633d 08f2 c33d
000003a0: 64ee e2bd 765e 1cbd 35d5 64bd ca5d 053e
000003b0: 2b1f f7bd 73d9 153e d906 2abe ecfa 08be
000003c0: f8b9 3bbe 9565 01be a275 cfbc 03eb d03d
000003d0: 4340 b5bd 4769 543e 672e ec3d 270d 2fbe
000003e0: 5f86 82bc 2d67 143d 5f4a 95bd 80a0 3cbe
000003f0: b1bd 4dbd 55b9 35bd 6b6c a53d da7a 83be

model.0.bias f4 [512]
0.10883662 0.06566792 -0.0894129 -0.017682977 -0.17694193 0.056340504 -0.060847756 0.046412162
-0.18694958 -0.053958293 0.15594563 0.054414447 0.06836824 0.16620171 -0.16771656 0.070705794
-0.12267067 -0.089459784 -0.19766013 -0.022135774 0.11831634 -0.04322523 0.014716402 0.116921864
-0.13574994 0.16140248 -0.050857484 -0.048330456 0.08495225 0.06498233 0.07180223 -0.14055945
0.15999551 0.005048101 -0.09442826 -0.07986729 0.11146132 0.11476772 -0.07198787 0.091912895
-0.021069812 0.11118994 0.093224935 0.027114958 0.0049141305 0.024431603 0.09985461 0.040860683
0.10029456 -0.09227131 -0.18767652 -0.17417659 0.08631815 -0.16361125 0.106852375 0.062800445
0.0017533187 -0.015323068 -0.18698275 0.04719461 -0.09412808 0.084211476 -0.14443745 0.078865595
0.0072297533 0.038648855 -0.057252053 -0.08801919 0.036773954 0.20082642 -0.032807413 0.09507249
0.14428815 -0.0837432 -0.074187934 0.1307857 -0.15396073 -0.16003206 0.023763832 -0.14870514
0.06925977 0.12203888 -0.16209722 0.13459943 0.0024674113 0.096282005 0.02799938 0.10024304
0.06963719 -0.18548733 0.1182185 0.030733801 0.15130524 0.10168243 0.20370463 0.15744784
-0.14114705 0.08091433 0.09277724 0.022584913 0.14158516 -0.04193572 -0.16363373 0.047924258
-0.038404077 0.013864732 0.056327637 -0.08062366 0.043852247 0.06333613 -0.18217272 0.12126479
0.0054964675 -0.10821822 -0.051928356 -0.15307757 0.099470645 0.08298805 -0.11067352 -0.068751805
0.17047784 0.043480765 0.13409558 -0.15690511 0.07295693 0.06660156 0.16115795 -0.08781201
-0.024665482 -0.094864964 -0.07049776 -0.106091805 -0.030304663 0.01630993 0.15726048 -0.15134232
0.087122895 -0.1851413 -0.069786295 0.061127096 0.108863525 -0.089749366 -0.18379489 -0.008929122
-0.21567862 0.095740624 0.050589595 -0.053775094 0.09913709 0.12292333 0.08559816 -0.11071142
-0.15669505 -0.048914377 -0.008986355 -0.1373984 -0.16842291 0.02500343 -0.1126562 -0.17908083
0.14838818 -0.11213045 0.0038457375 -0.15787962 0.082255945 -0.010631726 0.10542168 -0.07832827
0.14376602 0.20836781 0.07458128 0.20581545 -0.00850679 0.119905 0.08949557 0.13397157
-0.14856283 -0.074250795 -0.12194425 0.09748651 -0.11579786 0.1549188 0.14862882 -0.09900614
-0.008768909 -0.1577708 -0.14193909 0.149575 -0.0069477297 0.072108515 -0.0022801843 0.19682531
0.15149993 -0.12060678 0.02066233 0.16814506 0.1715722 0.015842121 -0.071410544 -0.11346065
-0.12822638 0.11836273 0.24056622 -0.025400309 0.017569458 -0.16694936 -0.09546615 0.14357772
-0.059120968 0.06006063 -0.034127444 -0.16111493 -0.11941309 0.1142079 0.02407388 -0.094057634
-0.139905 0.20963919 -0.044781554 0.06577372 -0.017198663 0.044336125 0.19232678 0.15854688
-0.14221233 0.21234784 0.16502209 -0.19502042 -0.11223414 0.016730312 0.052412644 0.15596294
-0.03138791 -0.1424181 0.16904894 0.03005557 0.08011426 -0.06758794 0.10808546 0.16799557
-0.006864236 -0.1674453 -0.07440211 0.13699716 -0.11629028 0.11673572 0.10963778 0.1495024
-0.1873066 0.0036079432 -0.087246545 -0.1560452 0.15061446 0.029505514 0.025841178 -0.1806144
00000000: bce5 de3d e77c 863d 1c1e b7bd e4db 90bc
00000010: 4430 35be 4dc5 663d 7f3b 79bd ae1a 3e3d
00000020: b66f 3fbe 5f03 5dbd 36b0 1f3e afe1 5e3d
00000030: a604 8c3d c830 2a3e e4bd 2bbe 33ce 903d
00000040: c33a fbbd b136 b7bd 6b67 4abe 1556 b5bc
00000050: d64f f23d f00c 31bd 101d 713c bb74 ef3d
00000060: 0802 0bbe b146 253e f04f 50bd 28f6 45bd
00000070: 72fb ad3d 7515 853d 0c0d 933d d1ee 0fbe
00000080: ddd5 233e 8a6a a53b 9b63 c1bd 7691 a3bd
00000090: d545 e43d 570b eb3d 606e 93bd d43c bc3d
000000a0: 999a acbc 8db7 e33d b7ec be3d 3020 de3c
000000b0: b706 a13b c924 c83c 9380 cc3d 885d 273d
000000c0: 3c67 cd3d bef8 bcbd 462e 40be 595b 32be
000000d0: 92c7 b03d b589 27be 6bd5 da3d 859d 803d
000000e0: 9dcf e53a 9b0d 7bbc 6878 3fbe 234f 413d
000000f0: 39c6 c0bd 1177 ac3d 69e7 13be 4984 a13d
00000100: 91e7 ec3b 434e 1e3d 2181 6abd 6843 b4bd
00000110: 49a0 163d 71a5 4d3e 1161 06bd 5eb5 c23d
00000120: 46c0 133e 8e81 abbd d8ef 97bd b0ec 053e
00000130: e2a7 1dbe 72df 23be 5eac c23c 2946 18be
00000140: 11d8 8d3d 85ef f93d d0fc 25be 6fd4 093e
00000150: 4bb4 213b 802f c53d f55e e53c 394c cd3d
00000160: f19d 8e3d 64f0 3dbe 8a1c f23d 74c5 fb3c
00000170: c3ef 1a3e e13e d03d f297 503e 023a 213e
00000180: da88 10be 6ab6 a53d fe01 be3d ff03 b93c
00000190: b3fb 103e cac4 2bbd 9a8f 27be 3a4c 443d
000001a0: 984d 1dbd e728 633c cfb7 663d 041e a5bd
000001b0: 6a9e 333d 5fb6 813d 7c8b 3abe ad59 f83d
000001c0: b61b b43b 84a1 ddbd d4b2 54bd 5ec0 1cbe
000001d0: 44b7 cb3d a4f5 a93d cca8 e2bd bfcd 8cbd
000001e0: be91 2e3e e318 323d 5a50 093e bcab 20be
000001f0: 716a 953d 6666 883d 9706 253e c8d6 b3bd
00000200: 440f cabc 9048 c2bd 2161 90bd a946 d9bd
00000210: 7c41 f8bc 679c 853c e408 213e 7bf9 1abe
00000220: 7d6d b23d ae95 3dbe 1eec 8ebd 6860 7a3d
00000230: d7f3 de3d 84ce b7bd ba34 3cbe 744b 12bc
00000240: dbda 5cbe a913 c43d 0937 4f3d 4643 5cbd
00000250: 6308 cb3d 3abf fb3d 174e af3d abbc e2bd
00000260: ab74 20be 715a 48bd 813b 13bc 2bb2 0cbe
00000270: 0e77 2cbe fed3 cc3c 4bb8 e6bd f760 37be
00000280: 12f3 173e a6a4 e5bd c508 7c3b 32ab 21be
00000290: ce75 a83d b130 2ebc 52e7 d73d 926a a0bd
000002a0: 6637 133e 5f5e 553e 12be 983d 49c1 523e
000002b0: 1060 0bbc c190 f53d 7449 b73d d82f 093e
000002c0: db20 18be cd10 98bd e8bd f9bd 02a7 c73d
000002d0: 6e27 edbd 09a3 1e3e 2732 183e bbc3 cabd
000002e0: 78ab 0fbc ab8e 21be 7b58 11be 302a 193e
000002f0: c8a9 e3bb a1ad 933d 256f 15bb 938c 493e
00000300: cc22 1b3e b000 f7bd 0c44 a93c 382e 2c3e
00000310: 9fb0 2f3e 56c7 813c b13f 92bd 0f5e e8bd
00000320: c74d 03be 2968 f23d fe56 763e 4f14 d0bc
00000330: d3ed 8f3c c6f4 2abe c283 c3bd 0a06 133e
00000340: d428 72bd 2302 763d 38c9 0bbd 50fb 24be
00000350: da8e f4bd d5e5 e93d 9636 c53c 4aa1 c0bd
00000360: 4243 0fbe a8ab 563e dd6c 37bd 5fb4 863d
00000370: 36e4 8cbc cc99 353d 50f1 443e 1d5a 223e
00000380: 1ca0 11be b671 593e 8dfb 283e 6fb3 47be
00000390: 03db e5bd 020e 893c a4ae 563d c0b4 1f3e
000003a0: 9c90 00bd 0dd6 11be 2a1b 2d3e 1937 f63c
000003b0: f212 a43d 8c6b 8abd e95b dd3d 0807 2c3e
000003c0: 63ed e0bb c876 2bbe 2260 98bd fc48 0c3e
000003d0: 9929 eebd 2313 ef3d c689 e03d 2817 193e
000003e0: 4dcd 3fbe 3e73 6c3b 51ae b2bd 50ca 1fbe
000003f0: ad3a 1a3e 8cb5 f13c e1b0 d33c fbf2 38be

model.2.weight f4 [256, 512]
0.01823648 0.020024791 0.022646476 0.04261982 -0.010636081 -0.017710045 0.0049400926 -0.023962999
0.020157915 -0.017955143 0.0005729126 0.02948322 0.028594475 -0.04363506 -0.043675855 0.016504426
-0.030233022 -0.0012020498 -0.00020554858 0.028221902 0.011957 -0.039049365 -0.023677444 0.03433937
0.017272385 0.031829108 0.019714728 -0.039027404 -0.033176634 -0.042790543 -0.0068491204 -0.026887812
-0.021831423 0.034988906 -0.010935068 -0.03508732 -0.009712542 0.031040477 0.021673054 -0.01646892
0.009860078 -0.009978614 -0.022668494 -0.02116881 0.0064421 -0.033131145 -0.033003706 -0.0068580224
-0.015839603 0.03238803 0.031011071 0.015375836 0.02751722 0.023785925 -0.025712654 0.027668571
0.015572771 0.021951951 -0.037429456 0.0005580223 0.013179888 0.035440817 -0.008667673 0.014281257
0.026785113 -0.029122993 -0.049007773 -0.037813425 -0.050110687 -0.010407956 0.029169759 0.009837405
-0.040276945 0.021282064 -0.04039599 0.036340155 -0.008522403 0.023333935 0.018334692 -0.008586418
-0.0053775017 0.006772198 0.0001908463 -0.025118524 -0.03780234 -0.030328656 0.020021897 -0.03033708
-0.04060458 -0.034171596 -0.013752172 -0.01262765 -0.019308623 0.018985499 0.02270772 0.030848881
0.010033362 -0.034655254 0.004015611 -0.036103383 0.0345638 -0.043945972 -0.038945798 -0.033122465
0.0057101287 -0.031760383 0.02979275 -0.02293561 -0.04255322 -0.0067923516 -0.04925582 -0.00040827098
-0.04433181 -0.017017374 0.016248966 -0.01251555 -0.018052327 0.013047537 0.0010317878 0.029364202
-0.023523418 -0.04573514 0.013595077 -0.019042704 -0.026468046 0.022358209 -0.05057203 0.034734003
0.00020570894 -0.001315361 -0.013489315 -0.021962974 0.022581227 -0.01796472 -0.032359608 -0.023083398
-0.043455355 -0.014558737 -0.009802524 -0.007205752 -0.033371244 0.04044519 -0.016043345 -0.008459612
0.000930024 -0.017173521 -0.0047810576 0.0077989264 0.007928781 0.040473845 0.027384711 0.021149276
-0.018652152 0.0030345256 -0.007173655 -0.0361332 0.0019713873 0.010735789 0.012240593 -0.009709967
-0.01019106 0.018953986 -0.044261444 -0.023346635 0.025095815 -0.03801644 -0.049729813 0.036101487
-0.023177763 -0.018308863 0.022830758 -0.04108591 -0.04932605 -0.034491338 -0.042863894 -0.0300957
0.016982047 -0.04029606 -0.014885865 -0.042719025 0.034139454 0.035499766 -0.007989302 -0.04820791
-0.014282406 0.034165446 -0.009605522 -0.036799792 -0.03876506 0.00086913595 0.012870714 0.031945217
0.031525187 0.03650601 0.037760023 -0.03838952 0.0030718658 0.0058460734 -0.050239075 0.040467102
0.0075426144 0.0095040845 0.018907063 -0.023521902 -0.0020094905 -0.040214762 -0.015748562 0.01665549
0.019497527 0.04885813 0.018136535 0.0023015 0.042348124 0.027844867 -0.009293562 -0.03522174
-0.009495142 0.025968272 -0.024089424 -0.0164934 -0.022915045 -0.004061906 -0.039563175 -0.028977491
-0.020376705 -0.026099645 0.016090285 -0.009168236 -0.0460055 0.015944969 0.025813036 0.017414967
0.035576355 -0.01825455 0.045839436 -0.036821213 0.020907704 -0.029211957 -0.038939547 0.027628254
0.014559609 0.012570972 -0.013304585 -0.028193247 0.035373338 -0.017076237 0.01708804 -0.03233582
0.023777565 0.03651562 -0.041154392 0.037818834 0.03407382 0.006634042 -0.043792836 -0.04147962
00000000: ac64 953c 080b a43c 1a85 b93c 1f92 2e3d
00000010: f542 2ebc a814 91bc 80e0 a13b 0d4e c4bc
00000020: 3622 a53c aa16 93bc 842f 163a cb86 f13c
00000030: f63e ea3c adba 32bd 74e5 32bd 4a34 873c
00000040: 3eab f7bc 198e 9dba 8788 57b9 9e31 e73c
00000050: 4be7 433c 3af2 1fbd 33f7 c1bc 70a7 0c3d
00000060: d17e 8d3c 3d5f 023d c880 a13c 33db 1fbd
00000070: 39e4 07bd 2345 2fbd 966e e0bb d443 dcbc
00000080: d0d7 b2bc 8750 0f3d 0029 33bc b9b7 0fbd
00000090: 5b21 1fbc 9948 fe3c b08b b13c d4e9 86bc
000000a0: 2a8c 213c 577d 23bc 47b3 b9bc 366a adbc
000000b0: 4018 d33b 86b4 07bd e52e 07bd 43b9 e0bb
000000c0: 0ec2 81bc 50a9 043d ee0a fe3c eeea 7b3c
000000d0: cb6b e13c b3da c23c 58a3 d2bc 33a9 e23c
000000e0: f024 7f3c 94d4 b33c a14f 19bd 3e48 123a
000000f0: 75f0 573c 642a 113d db02 0ebc effb 693c
00000100: 746c db3c 5893 eebc 60bc 48bd 40e2 1abd
00000110: dd40 4dbd 2286 2abc 6bf5 ee3c 112d 213c
00000120: 70f9 24bd b957 ae3c 4476 25bd 6ad9 143d
00000130: 8da1 0bbc cf26 bf3c a332 963c 0cae 0cbc
00000140: c135 b0bb 50e9 dd3b ea1d 4839 5dc5 cdbc
00000150: a0d6 1abd cd73 f8bc f604 a43c 7885 f8bc
00000160: fd50 26bd 84f7 0bbd ca50 61bc 34e4 4ebc
00000170: 1e2d 9ebc 7a87 9b3c 8a05 ba3c cbb6 fc3c
00000180: f862 243c abf2 0dbd 6395 833b 24e1 13bd
00000190: c592 0d3d b100 34bd a185 1fbd 6cab 07bd
000001a0: 081c bb3b 2d17 02bd ed0f f43c 76e3 bbbc
000001b0: 494c 2ebd 6092 debb 79c0 49bd 340d d6b9
000001c0: 4695 35bd 0568 8bbc 8d1c 853c 050e 4dbc
000001d0: 79e2 93bc 56c5 553c 0e3d 873a 328d f03c
000001e0: 2fb4 c0bc c554 3bbd e3bd 5e3c 72ff 9bbc
000001f0: 84d3 d8bc 9028 b73c 9e24 4fbd 3e45 0e3d
00000200: 93b3 5739 3168 acba 4a02 5dbc b2eb b3bc
00000210: 44fc b83c c02a 93bc 828b 04bd 6519 bdbc
00000220: 3efe 31bd c587 6ebc c49a 20bc 3b1e ecbb
00000230: 49b0 08bd dba9 253d 556d 83bc 2f9a 0abc
00000240: dbcc 733a 7caf 8cbc 6baa 9cbb 238e ff3b
00000250: b8e7 013c e7c7 253d e755 e03c 3f41 ad3c
00000260: 66cc 98bc e4de 463b fb10 ebbb 6800 14bd
00000270: 6432 013b 2ae5 2f3c c58c 483c 8e16 1fbc
00000280: 67f8 26bc 6445 9b3c 7d4b 35bd 7141 bfbc
00000290: bd95 cd3c 20b7 1bbd 7db1 4bbd 27df 133d
000002a0: 4bdf bdbc 78fc 95bc 9207 bb3c b349 28bd
000002b0: 1d0a 4abd ca46 0dbd 0d92 2fbd 428b f6bc
000002c0: ef1d 8b3c 7b0d 25bd d8e3 73bc 25fa 2ebd
000002d0: d0d5 0b3d 3468 113d 90e5 02bc a875 45bd
000002e0: c100 6abc 11f1 0b3d 7b60 1dbc 61bb 16bd
000002f0: 1dc8 1ebd bad6 633a b0df 523c fdd8 023d
00000300: 8e20 013d 5387 153d 41aa 1a3d 543e 1dbd
00000310: 5b51 493b 6b90 bf3b 7dc7 4dbd d5c0 253d
00000320: 0928 f73b 05b7 1b3c fce2 9a3c 01b1 c0bc
00000330: a8b1 03bb 3cb8 24bd 2103 81bc 1871 883c
00000340: 47b9 9f3c 761f 483d 1293 943c c3d4 163b
00000350: 3a75 2d3d eb1a e43c 0644 18bc ac44 10bd
00000360: 8391 1bbc 6abb d43c 2f57 c5bc 2b1d 87bc
00000370: 55b8 bbbc bd19 85bb ff0c 22bd 3462 edbc
00000380: 0ced a6bc ecce d5bc c6cf 833c 5e36 16bc
00000390: 4370 3cbd 069f 823c dc75 d33c d5a9 8e3c
000003a0: 83b8 113d 918a 95bc 22c2 3b3d d7d1 16bd
000003b0: a246 ab3c ea4d efbc 137f 1fbd a654 e23c
000003c0: 6d8b 6e3c 7af6 4d3c 79fb 59bc 86f5 e6bc
000003d0: a2e3 103d 77e3 8bbc 38fc 8b3c 9172 04bd
000003e0: 2bc9 c23c 6791 153d 8291 28bd ece7 1a3d
000003f0: fd90 0b3d 6162 d93b 1e60 33bd 89e6 29bd

model.2.bias f4 [256]
-0.016107246 -0.008477591 0.05413435 0.022941707 -0.017621536 0.034380246 -0.0008276694 0.05121237
0.05290992 -0.03154373 -0.010007053 0.027705869 -0.052637327 0.046977755 0.0047741416 0.045433782
0.037557583 0.058852233 -0.048607897 0.06241465 -0.03067331 -0.047667302 0.035197478 -0.013517139
0.03343005 0.010486 0.0050591743 -0.0042755213 -0.050328568 0.051463194 -0.00638672 0.044128634
0.05970394 0.03801128 0.016956614 0.0043933173 -0.008599458 0.02204342 0.058777723 -0.005553335
0.04668982 0.020074291 0.010454641 -0.019323843 -0.024941744 0.068211004 0.017994383 0.0176926
0.017790616 0.0237635 0.002458489 0.013982033 -0.005849213 0.020908479 -0.04336904 0.03720886
0.03234621 0.030448979 -0.0088522425 -0.029368414 -0.036628578 0.02640023 -0.0116881775 -0.02804474
-0.0011051614 0.04510214 -0.046826784 -0.029813314 -0.0075734304 0.025302883 0.0008143345 0.013758665
0.030843182 -0.013929543 -0.033923686 0.023648242 -0.013590265 0.037708938 0.00566546 0.0040262584
0.005158433 0.016525086 0.052742798 0.015207937 -0.013783023 -0.05450063 -0.0025937888 0.014368147
-0.054852616 -0.03266455 -0.011669834 0.05811798 0.052274205 0.004714866 -0.011522617 0.01753356
0.036634736 0.013760902 0.037138227 0.004962199 0.06593947 -0.018263046 -0.012456469 -0.0531977
-0.02212092 -0.045978207 -0.024199385 0.044654988 -0.020731738 -0.004874877 0.04053458 0.019150663
-0.027469723 0.03047165 -0.007898987 -0.04084906 0.031580497 -0.026523814 -0.039225724 0.0076329755
-0.0038528468 -0.03124545 0.034076527 0.006970862 -0.00675119 -0.022469323 -0.020197691 0.012114699
0.065179475 0.016016869 0.032317493 0.019385988 -0.025165627 0.037551053 0.027098363 0.03971294
0.027173875 -0.017109197 0.05488346 -0.02019736 0.025771582 0.037541535 0.0011018234 0.020899322
0.057435486 -0.007648851 -0.039857656 0.04337972 -0.007009208 0.0007113157 0.019889118 0.040897734
0.012540478 0.0067312624 0.022112213 0.028289324 -0.02276722 0.020364016 -0.0025870295 0.016565492
-0.020334398 -0.008904313 0.024677554 -0.037119575 0.07036673 0.021354888 -0.0056801965 -0.02397728
0.03228241 0.050239503 0.0020837504 0.012143757 0.005855435 0.0033855198 0.04544911 -0.0062786043
0.04974132 -0.034150142 0.047339886 0.0395392 -0.018302487 0.06554149 0.044826515 0.03003653
0.059335478 -0.016778508 0.0046007987 0.0047441428 -0.0020552876 -0.016666908 0.06907517 -0.0524258
0.009601014 -0.015923161 0.06406392 -0.04249651 0.04269854 0.025751283 0.026308723 0.019633435
0.004400125 0.024218833 -0.0068623545 0.002463794 -0.025486147 0.012643405 -0.01544502 0.04997452
-0.022177475 -0.013168418 0.050053492 -0.017457351 -0.010824283 0.011713643 -0.011320458 0.023291128
0.021107245 -0.022484368 0.0038169448 -0.025474312 0.035170916 -0.015227816 -0.043470055 -0.008974939
-0.04323072 0.07946184 0.04535293 -0.045954056 -0.008388396 0.023578325 0.038070753 0.010375299
0.0076526194 -0.009049504 0.05326758 0.03432017 0.056632783 0.006727197 -0.035052173 -0.03761082
0.0006207225 -0.035784367 0.04119672 -0.028775008 -0.052459437 0.015844136 0.041433223 0.0055016233
0.026944261 0.0048568686 0.032937277 0.016951775 0.06459996 -0.017700387 0.025432982 -0.04302978
00000000: 58f3 83bc 98e5 0abc fbbb 5d3d 3ff0 bb3c
00000010: 0a5b 90bc 4dd2 0c3d f4f7 58ba 10c4 513d
00000020: 13b8 583d 0034 01bd 9ff4 23bc 6bf7 e23c
00000030: 3d9a 57bd bf6b 403d 6770 9c3b c618 3a3d
00000040: fbd5 193d 0a0f 713d 1319 47bd 81a6 7f3d
00000050: 9846 fbbc ca3e 43bd 3b2b 103d fd76 5dbc
00000060: f3ed 083d 79cd 2b3c 6ec7 a53b ac19 8cbb
00000070: 5425 4ebd 12cb 523d b147 d1bb 3ac0 343d
00000080: 1e8c 743d b7b1 1b3d 99e8 8a3c d1f5 8f3b
00000090: bee4 0cbc 6794 b43c e9c0 703d c0f8 b5bb
000000a0: d33d 3f3d d772 a43c f149 2b3c 094d 9ebc
000000b0: a152 ccbc 36b2 8b3d f568 933c 12f0 903c
000000c0: a0bd 913c acab c23c 9a1e 213b e614 653c
000000d0: c1aa bfbb 4248 ab3c bca3 31bd 5168 183d
000000e0: 767d 043d 2370 f93c ff08 11bc 0796 f0bc
000000f0: d907 16bd 4c45 d83c c57f 3fbc 15be e5bc
00000100: 10db 90ba 06bd 383d 71cd 3fbd 0d3b f4bc
00000110: 8a2a f8bb fe47 cf3c 1079 553a 066c 613c
00000120: d7aa fc3c bd38 64bc 90f3 0abd f5b9 c13c
00000130: b4a9 5ebc b074 1a3d 53a5 b93b b4ee 833b
00000140: 1308 a93b 9e5f 873c d508 583d b62a 793c
00000150: 30d2 61bc 0d3c 5fbd 8efc 29bb 6068 6b3c
00000160: 23ad 60bd 43cb 05bd d532 3fbc 1e0d 6e3d
00000170: 7a1d 563d 2a7f 9a3b 5cc9 3cbc 8aa2 8f3c
00000180: 4e0e 163d 6875 613c 411e 183d f199 a23b
00000190: 460b 873d 629c 95bc 3816 4cbc d5e5 59bd
000001a0: ee36 b5bc a553 3cbd ca3d c6bc 26e8 363d
000001b0: 9bd5 a9bc 6fbd 9fbb 9607 263d dae1 9c3c
000001c0: 2f08 e1bc af9f f93c c16a 01bc 5851 27bd
000001d0: 8d5a 013d 7848 d9bc 27ab 20bd 0a1e fa3b
000001e0: 0b80 7cbb 75f6 ffbc d493 0b3d d46b e43b
000001f0: 1639 ddbb 9611 b8bc a175 a5bc bb7c 463c
00000200: d17c 853d cf35 833c 595f 043d 5dcf 9e3c
00000210: 2528 cebc 22cf 193d 63fd dd3c 09aa 223d
00000220: bf9b de3c 9628 8cbc 7bcd 603d ef74 a5bc
00000230: ed1e d33c 27c5 193d 0f6b 903a 0e35 ab3c
00000240: 7941 6b3d 36a3 fabb c841 23bd efae 313d
00000250: 80ad e5bb 9777 3a3a 81ee a23c 6284 273d
00000260: 9476 4d3c ec91 dc3b ac24 b53c 03bf e73c
00000270: 5282 babc 70d2 a63c 278b 29bb 5bb4 873c
00000280: 5394 a6bc 65e3 11bc 9528 ca3c b20a 18bd
00000290: 6f1c 903d 72f0 ae3c f120 babb 006c c4bc
000002a0: 8f3a 043d f0c7 4d3d 888f 083b 9cf6 463c
000002b0: f3de bf3b 99df 5d3b d928 3a3d c0bc cdbb
000002c0: 8ebd 4b3d 05e1 0bbd 78e7 413d dbf3 213d
000002d0: 19ef 95bc 9e3a 863d 029c 373d 2b0f f63c
000002e0: c209 733d 1573 89bc 4cc2 963b c174 9b3b
000002f0: 01b2 06bb 0a89 88bc 4877 8d3d 70bc 56bd
00000300: 924d 1d3c 4a71 82bc f233 833d d210 2ebd
00000310: aae4 2e3d 5bf4 d23c 6485 d73c 4cd6 a03c
00000320: ec2e 903b 9366 c63c 9add e0bb 9b77 213b
00000330: 53c8 d0bc 4926 4f3c 1c0d 7dbc 15b2 4c3d
00000340: 89ad b5bc 59c0 57bc e404 4d3d b802 8fbc
00000350: 5558 31bc 94ea 3f3c 7179 39bc 09cd be3c
00000360: 1ae9 ac3c 2331 b8bc b525 7a3b 81af d0bc
00000370: 610f 103d 177e 79bc a80d 32bd 9f0b 13bc
00000380: b212 31bd e4bc a23d fec3 393d 523a 3cbd
00000390: 7c6f 09bc 5527 c13c 14f0 1b3d 28fd 293c
000003a0: d3c2 fa3b 5f44 14bc 1b2f 5a3d 4e93 0c3d
000003b0: c7f7 673d d26f dc3b de92 0fbd ce0d 1abd
000003c0: fbb7 223a a192 12bd e4bd 283d 91b9 ebbc
000003d0: b5df 56bd 90cb 813c e2b5 293d f646 b43b
000003e0: 36ba dc3c 5e26 9f3b 3de9 063d 73de 8a3c
000003f0: fc4c 843d 6700 91bc d458 d03c ff3f 30bd

model.4.weight f4 [1, 256]
0.005017827 0.09887566 -0.18442273 0.138268 -0.027313558 0.07540588 -0.0018778016 -0.07031071
0.107196815 0.011852528 -0.0028172731 -0.010827987 -0.0026915332 0.097681776 0.04203071 0.103662044
0.095524035 0.07721567 -0.015501862 0.08047337 -0.010478721 0.002676913 0.09619574 0.11730701
-0.026798582 -0.038579237 -0.011788878 4.3499225e-05 -0.013410569 0.09861104 0.11244077 0.06684768
0.080973275 -0.1031386 0.10439085 -0.008467382 0.0018731188 0.015676986 0.07545684 -0.10921961
-0.15059854 0.11516054 -0.032958064 0.0027574936 -0.024152346 0.08221864 -0.051512953 -0.085841976
0.02292768 0.05988243 0.09902133 0.027299047 -0.021021035 -0.027483396 -0.030623406 0.068778455
-0.016564934 0.071095295 -0.0036813885 -0.0028166312 -0.006141765 0.040150266 0.076462515 -0.008778196
0.071002014 0.08778333 -0.005106384 0.050104484 -0.015430607 0.106533654 -0.008525255 0.12311605
-0.0399657 0.0091149965 -0.03069937 0.114467 0.10992591 0.027366892 -0.03126516 -0.0072511947
0.00040791335 -0.004493423 0.14037047 -0.008390455 -0.054429337 -0.0018800143 0.100653686 -0.013407836
0.02435212 0.0024888495 0.0023766253 0.09605706 -0.1476994 0.07368487 -0.019467544 0.01445094
-0.1574211 -0.10605884 0.10440699 0.10644002 0.08211086 0.0016487802 0.12032951 0.025688453
0.0073780874 0.0014863001 -0.04555232 0.078845486 0.0072310637 -0.008934497 0.11971725 0.002899125
-0.019765014 -0.009251892 -0.0372452 -0.048628654 -0.04761732 -0.017027933 -0.040861756 -0.049295485
0.006681184 0.0019700218 -0.21162185 0.032407247 0.084355265 -0.01940269 -0.0146746095 -0.03826761
-0.097489275 0.08271966 -0.0045171836 -0.032650318 -0.009553631 0.07095509 0.10971883 0.093083136
-0.043911763 0.089915045 -0.09361485 -0.032045726 -0.018381895 0.09959663 0.11364405 0.1181437
0.07806381 0.04569563 -0.052942663 0.0822901 0.12725775 0.055519886 -0.058154017 -0.085074835
0.023813954 0.05835604 0.0038574822 0.0062807635 -0.06744908 0.111243516 -0.020874731 -0.003303188
0.033332292 0.12680013 0.11015578 0.012206372 -0.17972378 0.06964704 0.12683955 -0.0005857077
0.1175468 0.12672135 -0.11451599 0.0072240373 -0.0068844114 0.018244939 0.073806055 0.09347717
0.3928017 -0.017521992 0.102444954 0.08922401 0.1209013 0.07546029 0.07180784 -0.00031370623
0.102324456 -0.008405687 0.14199184 -0.018849337 -0.07389334 -0.024160186 0.07483593 3.7357677e-05
-0.024051268 -0.010277422 0.0949971 -0.021771217 0.10136377 -0.039880183 -0.05562104 -0.000869429
-0.031544797 0.09968063 -0.04618527 0.09150879 0.013119556 -0.0033340557 0.099024855 0.08610392
0.08184718 0.111434765 0.07222876 0.12679686 -0.08986447 0.095836334 0.11929304 0.09256493
0.077853695 -0.041811697 0.099773355 -0.02087616 0.0772082 -0.09021785 -0.0051141037 0.06268767
-0.00417259 -0.14901216 0.096746325 -0.007811744 0.1438661 0.124054715 0.088816084 -0.05158504
-0.0024878955 0.06980458 0.09151973 -0.015781095 0.106535934 0.04696177 -0.0119333565 -0.011194975
-0.02649014 -0.030599456 0.11203057 -0.0044785463 -0.01633259 0.12715897 -0.08741558 -0.025746647
0.10956601 0.10338304 -0.08057634 0.12093421 0.07265057 0.10733607 -0.015941545 0.038469397
00000000: 956c a43b 527f ca3d 50d9 3cbe 2096 0d3e
00000010: afc0 dfbc 666e 9a3d 9120 f6ba 10ff 8fbd
00000020: 018a db3d 1b31 423c 00a2 38bb df67 31bc
00000030: 6f64 30bb 620d c83d 6528 2c3d c44c d43d
00000040: 1ba2 c33d 4023 9e3d 86fb 7dbc 39cf a43d
00000050: f1ae 2bbc 266f 2f3b 4602 c53d a83e f03d
00000060: b388 dbbc 4305 1ebd 2326 41bc f072 3638
00000070: 01b8 5bbc 96f4 c93d 5947 e63d 70e7 883d
00000080: 51d5 a53d 553a d3bd dfca d53d c6ba 0abc
00000090: 7083 f53a 066d 803c 1e89 9a3d 88ae dfbd
000000a0: 8136 1abe 4ad9 eb3d 09ff 06bd 11b7 343b
000000b0: 24db c5bc 3f62 a83d 3fff 52bd ebcd afbd
000000c0: d4d2 bb3c 4747 753d b2cb ca3d 40a2 df3c
000000d0: 4e34 acbc dc24 e1bc f0dd fabc b8db 8c3d
000000e0: 2fb3 87bc 699a 913d 7343 71bb 3b97 38bb
000000f0: dc40 c9bb 9b74 243d 6198 9c3d 6cd2 0fbc
00000100: 8169 913d bfc7 b33d 7453 a7bb 5c3a 4d3d
00000110: a8d0 7cbc 512e da3d 83ad 0bbc 4524 fc3d
00000120: 13b3 23bd 1157 153c 3f7d fbbc ad6d ea3d
00000130: d620 e13d 8830 e03c e50f 00bd 6e9b edbb
00000140: 34dd d539 903d 93bb 47bd 0f3e 1e78 09bc
00000150: 4cf1 5ebd d06a f6ba 8523 ce3d 8aac 5bbc
00000160: 197e c73c f71b 233b 28c1 1b3b 90b9 c43d
00000170: 833e 17be 18e8 963d 667a 9fbc a3c3 6c3c
00000180: ff32 21be 6135 d9bd 55d3 d53d 3afd d93d
00000190: bd29 a83d e21b d83a 516f f63d 9770 d23c
000001a0: e2c3 f13b f5cf c23a 1295 3abd be79 a13d
000001b0: 8ff2 ec3b ff61 12bc 512e f53d 3fff 3d3b
000001c0: 3dea a1bc 3f95 17bc 6c8e 18bd d72e 47bd
000001d0: 610a 43bd 2a7e 8bbc a85e 27bd 10ea 49bd
000001e0: d5ed da3b 7b1b 013b 66b3 58be 76bd 043d
000001f0: 74c2 ac3d 64f2 9ebc c66d 70bc 7fbe 1cbd
00000200: 75a8 c7bd ed68 a93d e204 94bb 57bc 05bd
00000210: d586 1cbc e750 913d 44b4 e03d 5fa2 be3d
00000220: d2dc 33bd 6125 b83d 24b9 bfbd 6142 03bd
00000230: a195 96bc 51f9 cb3d 36be e83d 53f5 f13d
00000240: ebdf 9f3d 572b 3b3d 68da 58bd b687 a83d
00000250: db4f 023e d268 633d e832 6ebd b73b aebd
00000260: 7b15 c33c be06 6f3d d0cd 7c3b ddce cd3b
00000270: be22 8abd a4d3 e33d 7c01 abbc 4c7a 58bb
00000280: 7187 083d e5d7 013e 5b99 e13d 3cfd 473c
00000290: 8309 38be 1ba3 8e3d 3ae2 013e 2e8a 19ba
000002a0: 60bc f03d 3ec3 013e 5c87 eabd 9eb7 ec3b
000002b0: a196 e1bb 6976 953c a127 973d f570 bf3d
000002c0: 4e1d c93e 488a 8fbc a9ce d13d 14bb b63d
000002d0: 1a9b f73d ed8a 9a3d fd0f 933d f078 a4b9
000002e0: 7c8f d13d 02b8 09bc 4f66 113e ed69 9abc
000002f0: 6455 97bd 95eb c5bc 9443 993d 80b0 1c38
00000300: 2a07 c5bc a262 28bc d78d c23d 8d59 b2bc
00000310: cf97 cf3d 6759 23bd e3d2 63bd 64ea 63ba
00000320: 1e35 01bd 5c25 cc3d c42c 3dbd f668 bb3d
00000330: 68f3 563c 2c80 5abb 8bcd ca3d 4157 b03d
00000340: 7f9f a73d e937 e43d acec 933d 09d7 013e
00000350: dd0a b8bd d745 c43d e94f f43d af92 bd3d
00000360: c271 9f3d be42 2bbd f955 cc3d 7b04 abbc
00000370: 551f 9e3d 23c4 b8bd 3694 a7bb 6562 803d
00000380: 39ba 88bb a596 18be f022 c63d a9f9 ffbb
00000390: a351 133e 6610 fe3d 35e5 b53d d64a 53bd
000003a0: f60b 23bb b4f5 8e3d b26e bb3d 5b47 81bc
000003b0: 832f da3d fc5a 403d 2084 43bc 216b 37bc
000003c0: da01 d9bc b6ab fabc 4970 e53d c5c0 92bb
000003d0: eccb 85bc f635 023e f106 b3bd a2ea d2bc
000003e0: 2564 e03d 7dba d33d 3505 a5bd 5bac f73d
000003f0: d2c9 943d 03d3 db3d d897 82bc 1692 1d3d
