best-model-by-loss.pth (torch, 587033 bytes, 5 tensors)

model.0.weight f4 [512, 27]
000000 37 d6 13 3e db 0f dc bd b6 51 d6 3d 79 7f bf 3a
       0.14437185 -0.10745212 0.10464804 0.0014610133
000010 55 13 a9 3b 50 48 f9 3d be d6 45 be f4 a1 29 be
       0.0051597753 0.12171996 -0.19320199 -0.16565686
000020 f1 cb 2c 3e d4 ab 02 be 86 a3 1f be a9 e2 b5 bc
       0.16874672 -0.1276086 -0.15589723 -0.022202807
000030 a4 a0 87 bd 44 98 08 bd 94 b9 11 be ae 09 4c 3d
       -0.06622437 -0.033348337 -0.14230949 0.04981392
000040 0c e3 41 be 3e 84 5e 3b 4f 7a c1 3d d7 11 cf 3c
       -0.18934268 0.0033953334 0.09447157 0.025277061
000050 d7 9f a6 3c 52 62 17 3c a8 9f 95 bd 47 51 72 bd
       0.02033989 0.00923975 -0.07305843 -0.059159543
000060 30 cd c6 bd c0 ca 14 be 6b 03 fd bd 51 f6 53 3e
       -0.09707105 -0.14530468 -0.123541676 0.20699431
000070 25 75 89 bc 61 b7 16 3e e9 f7 59 3e f3 41 9b 3d
       -0.016779492 0.14718391 0.21285976 0.07580938
000080 b3 46 90 bd ee 0a 73 bd 4a 36 a5 3c e8 70 25 3d
       -0.07044735 -0.059336595 0.020167489 0.04039088
000090 b6 f3 30 be c1 3e c7 bd 62 15 0c 3d 11 a2 27 3e
       -0.17280468 -0.09728766 0.03420008 0.16370417
0000a0 42 cd e1 bd 70 ca c7 bb a3 55 e4 3d 67 d4 03 3e
       -0.11025478 -0.0060971305 0.111491464 0.12873994
0000b0 e2 0e 7a 3d ec cb ba bd fb e7 d5 bd e8 8b 99 bd
       0.06104935 -0.09120926 -0.104446374 -0.07497388
0000c0 4d f9 32 bd 5e 36 c3 bc 74 a3 9e bb ef f1 d8 3d
       -0.043694783 -0.023829635 -0.0048412625 0.1059302
0000d0 d1 2b f0 3d 48 c5 ed bd ad fd 3a be 58 37 ca bd
       0.11727107 -0.11609894 -0.18260832 -0.09873837
0000e0 ec 95 bc bd c2 69 df 3d 6f 3c fe bd 28 49 94 bc
       -0.09208283 0.109088436 -0.124138705 -0.01810129
0000f0 00 11 27 bd 07 37 ef bd 1e a8 b2 3d 26 2e a4 bd
       -0.040787697 -0.116804175 0.08723472 -0.080166146
000100 f0 1d 23 bc 5e 8e 0a be b8 02 9f bc 68 01 e0 3c
       -0.009955868 -0.13530871 -0.019410476 0.02734442
000110 00 4f 00 bc c8 44 93 bd 0c 2f 6a 3d 84 3d 4c bd
       -0.007831335 -0.07190853 0.057173774 -0.049863353
000120 72 82 da bd 35 53 11 be e4 fa 26 bd af 2a 3a be
       -0.10669412 -0.14191897 -0.04076661 -0.18180345
000130 35 92 23 3e 63 4a bc bd 7f 56 a3 bd 20 bc 91 3c
       0.15973742 -0.09193876 -0.07975482 0.0177899
000140 e4 58 4c 3d bc 70 4a bd 89 24 c3 3d e5 b8 01 be
       0.04988946 -0.049423918 0.09528453 -0.12668188
000150 6f 23 5f 3d fe a1 36 bd 59 5c 4d be 6b b9 90 bd
       0.05447715 -0.04458808 -0.20054759 -0.07066616
000160 83 36 60 3c b2 19 cf 3c 9f a6 f9 3d 0b 95 18 3e
       0.013684872 0.025280807 0.121899836 0.14900605
000170 63 7f 40 be e2 72 73 bd b0 ff c1 bb 50 7f 33 be
       -0.18798594 -0.059435733 -0.005920373 -0.17529035
000180 b6 44 8f bd ef e5 39 be 67 73 04 3d 0f 49 dc 3d
       -0.069955274 -0.18154119 0.03233662 0.10756122
000190 3f 10 21 39 74 41 81 bd ea d8 29 be 65 8a e9 bd
       0.00015360209 -0.06311312 -0.16586652 -0.1140335
0001a0 b4 67 5c 3d 2a 7f 20 3d 40 25 9e 3c ac 02 44 3e
       0.053809837 0.039183773 0.019304872 0.19141644
0001b0 9d f8 e5 3d bf c5 71 3d c0 c6 0b 3d 69 0a 28 3e
       0.1122906 0.059026476 0.03412509 0.16410221
0001c0 ac ee 20 3e 55 fe 3c be 78 b8 36 bd 1a 2d c8 3d
       0.15716046 -0.18456395 -0.044609517 0.097742274
0001d0 ca 69 f4 bb 03 1d 32 3d 04 21 0e be 40 fa 5a be
       -0.0074589 0.0434847 -0.13879782 -0.21384525
0001e0 11 9f 31 bd 8a d3 2d be f2 8d 13 bc 2f 57 ba bd
       -0.04336459 -0.16975227 -0.00900601 -0.0909866
0001f0 a6 f6 56 3e 1b a9 04 bd 87 e3 da 3d 97 9b c9 bd
       0.20992526 -0.032387834 0.10687929 -0.098441295
000200 21 e5 02 3d 76 fc 5f bb 4c 13 25 be 61 dc d7 3d
       0.031956796 -0.0034177578 -0.16120642 0.10540081
000210 d6 0b 2c be 45 48 e0 3d b2 9a 07 bd f6 ec f4 3b
       -0.1680139 0.10951284 -0.033106513 0.007474537
000220 c7 20 a8 3d d5 c7 59 bd ed aa 5a 3c e4 48 49 bc
       0.08209377 -0.05316909 0.013346416 -0.012285445
000230 34 c1 34 be ee 1f 01 3c 6c c0 2f be 93 b4 50 bc
       -0.17651826 0.007881148 -0.17163247 -0.012738365
000240 cd 51 02 3d ee 62 28 3e 10 da 03 be 66 08 ba bd
       0.031816293 0.16443989 -0.12876153 -0.09083633
000250 2e 1f 9a 3e ae 6e 5f bd af f2 85 3d 45 68 85 bd
       0.30101913 -0.05454891 0.06540429 -0.065140285
000260 cf 7b 62 3d b6 0d 1d 3e 3a a3 07 be 2d 88 8c bd
       0.055293854 0.15337262 -0.1324586 -0.06861911
000270 7b 0c 8c 3d b8 d0 f0 3c 93 d8 a8 bd d1 21 58 be
       0.06838318 0.0293964 -0.08244433 -0.2110665
000280 f3 21 1e 3e 72 b4 cb bc 16 ab c3 bc 33 1b 98 bd
       0.15442638 -0.024866316 -0.023885291 -0.07427063
000290 2f 2f 12 3d 6f 37 2b 3e fb 4b 5f 3d 4c 67 17 3e
       0.03568953 0.16720365 0.05451582 0.14785498
0002a0 95 4f 5f 3c 81 19 3b 3d 05 1a 27 3d 5e b9 2c bd
       0.013629814 0.04567862 0.0407963 -0.042168967
0002b0 6d 35 31 bd 5c 04 94 3d e7 68 d6 3d 34 91 2e be
       -0.04326384 0.07227394 0.10469227 -0.17047578
0002c0 22 58 dc 3d d4 5a ab 3d 80 94 c4 3d af 57 e1 3c
       0.107589975 0.083669335 0.095986366 0.027507631
0002d0 e7 22 23 3d 12 6e 01 3d 4c 2d e9 3d 2d a0 1d 3e
       0.039828207 0.03159911 0.11385593 0.15393133
0002e0 8e c5 8d 3c df eb 36 bc 19 57 2f 3e f7 a9 39 be
       0.017306115 -0.0111646345 0.17123069 -0.18131243
0002f0 34 1c d7 3d 48 88 12 3e cc e1 1e 3e 7c 2f 0b 3e
       0.10503426 0.143098 0.15515822 0.13592333
000300 26 7b e9 3b b6 c1 04 3e 13 af 11 be d6 3e 81 3d
       0.007125276 0.1296452 -0.14226942 0.06310813
000310 70 d1 f5 3d a2 c3 58 be c6 39 12 3c 2c 43 8b bd
       0.12002838 -0.21168378 0.008924907 -0.067999214
000320 88 19 0d 3e ed 22 04 be 7e aa ce bd cf bb 06 3e
       0.1377927 -0.12903948 -0.100911126 0.13157581
000330 77 dd a7 3d 1d 2a 5e 3e de 9f d3 bd 11 6d 32 be
       0.08196538 0.21695752 -0.103332266 -0.17424418
000340 dc d6 3d 3e ca aa cf bb 6c d1 5e bc 7a 28 6c be
       0.18538994 -0.0063374983 -0.013599735 -0.23062316
000350 56 e4 1c bd 19 1e 86 bd ee 9e 45 3e 79 b3 a1 3d
       -0.038303696 -0.065487094 0.19298908 0.0789556
000360 85 47 ae 3d 67 ec 87 3d 3c 27 38 be c0 a1 12 be
       0.08509735 0.06636887 -0.17983717 -0.14319515
000370 65 39 62 be 7b b5 00 be d4 22 a6 3d 9e 8a c7 bd
       -0.22092207 -0.1256923 0.08112112 -0.09743236
000380 3c 9b 59 3e 92 f2 a9 bc 3b 11 8a be 12 bb a0 bd
       0.21250623 -0.02074555 -0.2696627 -0.07848181
000390 65 69 28 3e 03 d9 78 3e 3d 0b 81 3d 4a 5a f3 bc
       0.16446455 0.24301533 0.06300972 -0.02970614
0003a0 59 da 60 be 05 d6 32 be 50 53 8c 3d 14 bb eb bd
       -0.21958293 -0.17464454 0.06851828 -0.11510292
0003b0 2e 30 33 3e 44 a8 23 3d 51 c8 78 bd c8 4b c3 3d
       0.17498848 0.039955392 -0.06073791 0.095359385
0003c0 e7 eb 46 bd c7 f8 8e bb 32 5c 8d bd dd f7 40 be
       -0.048564818 -0.0043631527 -0.069023505 -0.18844552
0003d0 c0 fd ce 3c 4b 25 4d 3d 1a c3 d1 bd b1 0f f0 3d
       0.025267482 0.050084393 -0.10242291 0.11721743
0003e0 11 23 32 be f1 77 40 be 9e ec f3 bd 1f 98 93 bd
       -0.1739619 -0.18795754 -0.119103655 -0.07206749
0003f0 24 3f dc bc 5f 80 2f bd 84 6e a8 3d e1 f3 2c be
       -0.026885577 -0.042847034 0.08224204 -0.16889907

model.0.bias f4 [512]
000000 0f 8d 77 3d 38 bf f2 bd 05 62 ac bd 53 23 5b bd
       0.06043726 -0.11852878 -0.08417133 -0.053500485
000010 3f 30 a8 3d 95 de 71 ba bb f1 33 3c 3b dc 50 bd
       0.08212327 -0.0009226588 0.010982926 -0.05099128
000020 41 36 cd 3d 0d 13 d0 bd 89 82 08 3e 9f 86 37 3e
       0.10020114 -0.10159884 0.13331045 0.17922448
000030 b6 1f 3c be 30 99 79 bd 13 37 a3 3c 94 88 e9 bd
       -0.18371472 -0.060937107 0.019923722 -0.11403003
000040 30 4d 29 3c 87 96 59 bd c3 1c 0b 3e 36 9b 36 bd
       0.010333344 -0.05312207 0.1358519 -0.044581614
000050 b7 1a e0 bd 0a 33 d2 bd 83 e5 1f be dc d0 0b be
       -0.109425955 -0.10263641 -0.15614896 -0.13653892
000060 21 89 d6 3c e8 31 a9 3c 3d df a9 bd 66 e5 f1 3b
       0.026188435 0.02065368 -0.082945324 0.0073820828
000070 cc 3e 9a 3d 31 96 b8 3c 25 0b 8f bc 82 3f 15 be
       0.07531509 0.022532554 -0.017461369 -0.14575008
000080 b4 61 2c 3e 74 f8 ba bd 29 ae 19 3d 90 dc 07 bd
       0.16834146 -0.0912942 0.037519608 -0.03316933
000090 ba d3 a3 3d 18 cb 0e be be c1 c4 3c 7b 44 1a be
       0.07999368 -0.13944662 0.024018165 -0.15065186
0000a0 04 17 0e 3e 11 7e eb bd ff 63 07 3d b7 bd 81 3d
       0.13875967 -0.11498655 0.033054348 0.06335013
0000b0 79 56 e9 bd 3c ea ef bc 8b 18 2b 3e b0 72 0b be
       -0.113934465 -0.029286496 0.16708581 -0.13617969
0000c0 1c a2 9b bd e5 d6 10 3e 80 b6 bc 3d b1 5c 82 3a
       -0.07599279 0.14144476 0.092144966 0.0009945837
0000d0 82 55 2c be 44 ce 1d 3b 00 ff 09 be 19 75 f0 bd
       -0.16829494 0.0024079243 -0.13476181 -0.117410846
0000e0 fc 34 84 bc ca f8 94 bd 8d 20 93 3d 4a ae d1 3c
       -0.016138546 -0.07274015 0.07183943 0.025595803
0000f0 23 09 04 3c a4 18 7c 3d d1 af 81 3c 1d 37 80 3c
       0.008058819 0.061546937 0.015830906 0.01565128
000100 74 04 66 3b 5f f6 29 3e df 50 15 3d b0 61 12 3e
       0.003509787 0.1659789 0.036454078 0.14295077
000110 b8 5b a2 bd 9f d3 f6 bc 67 ae 48 be 2b 21 39 be
       -0.0792765 -0.030130206 -0.19597779 -0.18079059
000120 75 11 15 be 3c ea 9d 3d 87 7c e8 bd be 10 1c 3d
       -0.1455744 0.07710692 -0.11351877 0.038101904
000130 65 11 f8 3d d3 27 00 3d ac bf a4 bd 81 96 d8 3d
       0.12112693 0.03128798 -0.08044371 0.10575581
000140 f1 44 86 3d 94 e8 01 3d 51 32 27 bd 97 2b 07 3e
       0.06556118 0.031715944 -0.04081947 0.13200222
000150 9b c1 53 3d 07 3f 4c bd d5 10 43 3d 0d 70 ae bd
       0.05169831 -0.049864795 0.047623474 -0.08517466
000160 82 99 7f 3b d9 fc 1b be 14 dc 2f be a3 22 17 3e
       0.003900141 -0.15233172 -0.17173797 0.14759307
000170 d9 29 ac 3d 62 c5 42 3d 72 9c db bd 6c 3e 97 bd
       0.08406419 0.04755152 -0.10723199 -0.07384953
000180 83 fc 92 bd 35 d1 5d bd 1e fe 2a 3e d1 a8 1a 3e
       -0.07177069 -0.054154593 0.166985 0.15103461
000190 7d fb cb 3d 97 44 1e be a4 df b4 bd 61 4b a9 3c
       0.09960077 -0.15455852 -0.088317186 0.020665826
0001a0 df ab 07 be 23 5b 36 3e 1a b2 0f be 2c 68 1e 3e
       -0.13249157 0.17808203 -0.14032784 0.15469426
0001b0 91 56 a7 bc d0 24 21 3e 74 b5 fe 3d f2 45 61 3a
       -0.02042702 0.15736699 0.12436953 0.00085934915
0001c0 d2 d5 60 3e e0 ec ef 3b ef 0b 56 3d b1 4f 36 bd
       0.21956566 0.007321939 0.052257475 -0.044509593
0001d0 56 b9 21 be f9 0f be bd 1f e8 4c be f2 ef 03 3e
       -0.15793356 -0.0928039 -0.20010422 0.128845
0001e0 d2 bb 9c 3d 1f 97 4b 3d 9f 80 1e 3e 01 af fd bd
       0.076530114 0.049704667 0.15478753 -0.12386895
0001f0 80 25 0e 3d e0 08 08 3c 9e b2 31 be 42 a9 4d be
       0.03470373 0.008302897 -0.17353293 -0.20084098
000200 ab 58 49 3e 5b 7a 53 3e 9e 83 3a 3d ba d5 f2 bd
       0.1966273 0.20652144 0.045535676 -0.11857171
000210 e4 23 de 3c 7b 00 0c 3e e1 b5 9e bd 44 f5 a9 bc
       0.027116723 0.13672058 -0.077495344 -0.020746835
000220 a7 c4 be bd e4 85 dc 3d 32 16 ff bd 2a d2 2a be
       -0.09314852 0.10767725 -0.12455405 -0.16681734
000230 75 3e 9a bd ed 66 d9 bc bc 90 14 3d 69 38 04 3e
       -0.07531444 -0.026538337 0.036270842 0.12912144
000240 ca 27 e5 3d 01 01 26 3c cd 8a 57 3d 63 36 14 3e
       0.1118923 0.010132075 0.052622605 0.14473872
000250 ac 79 67 bd 01 29 64 bd d6 e2 3f 3e a7 f6 2a 3e
       -0.05651252 -0.055703167 0.18738875 0.16695653
000260 6c 32 52 bd 26 3c 80 3c 8c f7 0f 3e 9c 03 13 bd
       -0.051317617 0.015653681 0.14059275 -0.035892114
000270 c7 c9 37 3e 5f 98 fd bd 36 32 b2 3d 98 cf 05 3e
       0.17948066 -0.12382578 0.08700983 0.13067472
000280 f7 7a 55 be 27 65 a6 bd ba 09 1d 3e 59 86 0d 3e
       -0.20847689 -0.08124762 0.15335742 0.13820781
000290 b2 78 0a be 65 0a 0d 3e 37 cf 0b 3e 95 70 90 3d
       -0.13522604 0.13773496 0.13653265 0.07052723
0002a0 ee a6 97 bd 46 a2 fc bd cb de d1 bb 5a 08 2b 3d
       -0.07404886 -0.12335639 -0.006404733 0.04175601
0002b0 23 de 57 3d 30 de a3 3c d4 2e 28 be e0 a7 21 3e
       0.05270208 0.020003408 -0.16424114 0.15786695
0002c0 e1 20 94 3c 9e 33 15 3d 05 9a 20 be 09 de 46 bd
       0.018082084 0.03642618 -0.15683754 -0.048551593
0002d0 71 d2 13 bc 9f 4d d8 3d d3 9b 12 3e 11 77 9f bd
       -0.009022341 0.1056168 0.14317255 -0.07786382
0002e0 cb c4 ef bd 6b a5 e9 bd 96 f2 8f bc e1 56 1f be
       -0.11707457 -0.11408504 -0.017571729 -0.15560485
0002f0 88 66 32 3e 09 35 03 be 5c ef 03 3e 82 4f ba 3d
       0.17421925 -0.128132 0.12884277 0.09097196
000300 7e fb 9a bd 75 90 f5 bd 8e 9f 5a 3d 66 ba 40 be
       -0.075674996 -0.119904436 0.05337482 -0.18821105
000310 0e bc b2 bd 51 b3 69 3d 99 95 4d be 45 b8 1b 3e
       -0.08727275 0.057055775 -0.20076598 0.15207012
000320 7f 1c ea bd d3 06 1c 3d f0 34 94 bd 1e cd e9 bd
       -0.114312164 0.038092446 -0.072366595 -0.11416076
000330 9d 2a d7 bd 46 4b 8f 3b ea a8 f7 bd ea 0b 90 3d
       -0.10506175 0.004372987 -0.12092765 0.070335224
000340 f4 4d 56 3d ca 09 da 3d 1e c5 14 be e8 56 03 be
       0.052320436 0.10646398 -0.14528319 -0.12826121
000350 ad 1a e7 3d 89 8d db 3d a2 41 22 3d a2 ef 49 be
       0.11284385 0.10720355 0.039613374 -0.19720319
000360 6b 56 2c 3d e0 b2 de 3d 19 f2 3a 3c 6c a4 ef 3d
       0.042074602 0.108739614 0.01141026 0.11701283
000370 ea 1d ed bd 30 ba e0 3d 63 78 77 3d 96 39 40 bd
       -0.11577971 0.109730124 0.060417544 -0.04692992
000380 4e ae 45 3e 85 3a 2d be 07 f7 27 3e 55 05 1b 3d
       0.19304773 -0.16916855 0.16402827 0.037846882
000390 80 1e 38 3d ee 2d 73 bd af bc 9e 3c 03 d9 15 3e
       0.044950962 -0.059369974 0.01937708 0.14633565
0003a0 a9 2b d4 3c 07 2b ba 3b d9 89 9d 3d ff 38 c9 bd
       0.025899725 0.005681399 0.07692308 -0.09825324
0003b0 c1 a2 7a bd d5 28 61 3d c5 e1 17 3e 3a 46 6a bd
       -0.06119037 0.05497058 0.14832218 -0.05719588
0003c0 d8 14 8c 3c bd 4e 71 3d 9d f3 f2 bd 6c b4 30 be
       0.017099783 0.05891298 -0.11862872 -0.17256325
0003d0 8f 1d d8 bb 65 d7 30 3d 3b 44 0e be c5 2b 19 3e
       -0.0065953205 0.043174166 -0.13893215 0.14958103
0003e0 12 10 89 3d fa 8e 19 be 67 49 46 3e 8f 0d e6 3c
       0.06692518 -0.14995947 0.19363938 0.028082637
0003f0 ac 54 f7 bb ed 9d 64 3c 39 27 96 bd ee c8 3f 3c
       -0.0075479355 0.013953668 -0.073317 0.01170562

model.2.weight f4 [256, 512]
000000 4d 74 2d 3d 76 35 c6 bc ca c0 8e 3c e7 e6 4d bd
       0.04234724 -0.024195414 0.017425913 -0.050269034
000010 72 ab 94 3b 40 96 05 bd 40 a2 66 bd ea f1 0c bd
       0.0045370394 -0.032613993 -0.056307077 -0.034410395
000020 e4 af 6c bd 25 38 a7 bc 31 14 7c b7 59 a5 13 bd
       -0.05778493 -0.020412514 -1.5025072e-05 -0.03604636
000030 78 ec aa bb e0 0e e1 bb c3 ba 93 bb 26 32 20 bd
       -0.0052161776 -0.0068682283 -0.0045083477 -0.039110325
000040 fe 69 b7 3c f1 ed 42 bd 15 cf 9b 3b df 5f 34 bd
       0.022389408 -0.0475902 0.0047549107 -0.044036742
000050 53 55 41 bd eb fa a5 bb 38 39 de 3b 28 03 29 3c
       -0.047200512 -0.005065312 0.0067817234 0.010315694
000060 aa b9 96 3b cb eb 6c bd 17 5f 0e 3d 37 a9 e4 bc
       0.0045997696 -0.057842057 0.034758653 -0.02791272
000070 5c 80 f1 bc 36 1f 9a bc 68 1a fb bb 59 ee 7a bd
       -0.029480152 -0.01881371 -0.00766306 -0.061262462
000080 f8 6e 91 bc c1 20 4e 3c 70 b8 10 bc b3 56 54 3c
       -0.01775311 0.012581051 -0.008833036 0.012960124
000090 ef 71 27 bd 6c 3d 92 3c 2f 36 76 bc 2c 83 8c bc
       -0.04088014 0.017851554 -0.015027567 -0.017152391
0000a0 93 78 30 3d 40 11 6e 3b 16 79 96 bc 80 93 cd bc
       0.04308374 0.00363262 -0.018368285 -0.025094748
0000b0 60 ea 1c bb f7 ed 11 3d d7 35 e4 bc 5a 69 d9 3c
       -0.002394341 0.03562733 -0.027857704 0.026539493
0000c0 8b 76 9a bb 34 f8 01 3c c6 31 09 bd 49 9f 1e bd
       -0.0047138385 0.007932711 -0.033494733 -0.038726125
0000d0 dd bd 0c bd dd 74 06 bd 23 7b 2c 3d 6b 5e 32 3d
       -0.034360755 -0.032826293 0.04210962 0.043547075
0000e0 51 a4 00 bd 18 78 ad bc 00 c5 43 b9 fa 8f 8a 3c
       -0.031406704 -0.02117543 -0.00018670037 0.016914356
0000f0 98 19 c4 bb ac ad 08 3c 10 eb 45 3c d9 46 88 bc
       -0.0059844963 0.008342188 0.012079969 -0.016635345
000100 d3 78 12 3d 06 a3 27 bc 18 bc 80 bb 23 20 95 3c
       0.03575976 -0.010231739 -0.0039286725 0.0182038
000110 a0 56 bc 3a 1f 7d 9e bc ac ef 0b bc 36 a5 d4 3c
       0.0014369078 -0.019346772 -0.008541029 0.025957685
000120 f0 b4 56 bc 1a 5e 61 3c fa c6 46 3b 1c 4c af bc
       -0.013104662 0.013755346 0.0030331002 -0.021398596
000130 9e 47 dc bc 83 f8 7c bb 59 b8 81 bd 78 7d 6f bc
       -0.026889618 -0.0038600273 -0.0633399 -0.014617316
000140 75 6b 0f bd 08 67 b1 bb a4 68 21 bd 50 9f 21 bd
       -0.03501459 -0.0054138936 -0.039406434 -0.039458573
000150 8e 2a ac 3c 5c fe d2 bc 07 68 51 bd 7f b3 c1 bc
       0.021016385 -0.025756054 -0.0511246 -0.02364516
000160 d8 11 d5 bb 2e ad 92 bc 81 03 1a 3d 35 36 53 bd
       -0.0065023713 -0.017904844 0.037600998 -0.051565368
000170 3b 9d 1d 3d b2 b7 8b bb a8 17 d0 bc 13 5f 2b bd
       0.038480025 -0.0042638415 -0.025401905 -0.041838717
000180 1f 52 60 bb 08 03 07 bc 50 8a 56 3c e3 e6 16 bb
       -0.0034228635 -0.008240469 0.0130945 -0.0023025803
000190 e8 a8 50 bd 88 36 aa 3b 31 bc f9 bc 34 fe 22 bd
       -0.05094233 0.005194489 -0.030485244 -0.03979321
0001a0 28 7f ff 3b 78 c0 1a 3c 00 7a 0a bd 6f d4 a6 3c
       0.0077971406 0.009445302 -0.033807755 0.020364968
0001b0 42 d9 bd 3c 58 0a 94 3b 84 e5 72 bd fd de 72 bd
       0.023174886 0.0045178346 -0.059300914 -0.05929469
0001c0 0f 3a f9 ba 17 97 8d 3b 00 35 6a bd ca d1 b9 3c
       -0.0019014495 0.00432099 -0.05717945 0.022683043
0001d0 0c 91 1f bc 54 d8 68 bd a7 fc 58 bd e4 ad 00 bd
       -0.009739172 -0.05684693 -0.052975323 -0.031415835
0001e0 76 b2 0d 3b b4 e6 51 bd 7b 45 3a 3c a7 e5 34 3d
       0.0021621264 -0.051245406 0.0113691045 0.044164326
0001f0 09 6c a8 3c 56 cb a4 3c f3 e4 93 bc aa ee 18 bd
       0.020559328 0.02011649 -0.018053507 -0.037336983
000200 03 0b 45 3c f1 de f6 bc 78 97 dd 3b 82 02 ca 3c
       0.012026551 -0.030135604 0.0067624412 0.024659399
000210 55 f1 33 bd 1b 1f fd bc c9 f0 1d bd c6 5a e7 bc
       -0.043931324 -0.030898621 -0.03855971 -0.028241526
000220 fe 39 98 bc 7a 56 fb bc 0f b9 2f 3d 86 d2 92 3c
       -0.01858234 -0.030680884 0.042901095 0.017922651
000230 4b 77 e3 bc 4f 92 b2 3c e4 f8 48 bc f2 9e 74 bc
       -0.027766844 0.021798281 -0.012266371 -0.014930474
000240 a8 2e 87 3b 81 ee 5b bd f5 97 cb 3a 2b 26 44 bd
       0.004125435 -0.053694252 0.0015532958 -0.047887962
000250 a5 45 21 bd 33 87 8f 3c 86 fe b2 3b 96 8a 97 bc
       -0.03937306 0.017520523 0.0054624705 -0.0184987
000260 37 3e 57 bd 41 78 23 3d ae 48 b6 bb d8 50 f0 bc
       -0.052549567 0.039909605 -0.0055628633 -0.029335424
000270 5b 29 6d bd 7e c9 95 bc 26 33 c9 bc f6 86 8d bc
       -0.057900768 -0.018284556 -0.024560522 -0.017276268
000280 98 a3 8a 3b 27 6f 7d bd 2f 8d 88 3a 9a 6f b8 3c
       0.0042309277 -0.06187358 0.0010418053 0.022514153
000290 3e e0 73 bd d9 8a 11 3d 16 cd 1d bd f7 5a 51 3b
       -0.059540026 0.035532806 -0.038525663 0.0031945088
0002a0 cf 17 b7 3c 5d bd a9 3b 6c ce 31 3c 9a aa a0 bc
       0.02235022 0.0051800446 0.0108524375 -0.0196126
0002b0 d1 92 65 bc 01 fc 19 bd 44 54 03 bd 98 f7 71 3c
       -0.014012055 -0.037593845 -0.032062784 0.014768504
0002c0 81 75 73 bd 7d 2d ff ba 82 50 d5 bc b1 38 8e 3c
       -0.059438232 -0.0019468513 -0.026039366 0.017361017
0002d0 be 4e 41 3c 29 f7 f9 bc 7b 9e c8 bc d4 25 fb bc
       0.011798559 -0.030513363 -0.024489632 -0.030657686
0002e0 55 d6 28 3d a5 31 da bc 25 5b a9 bb 1e b3 fd 3c
       0.041220028 -0.026635 -0.005168336 0.030969199
0002f0 ba bb 80 bd b6 0a 32 bd 26 17 fe bc b5 46 e1 bc
       -0.06285806 -0.043467246 -0.031016897 -0.027499536
000300 da 11 e1 3c b6 5d 5c bc c3 84 95 bc 6e ea f0 3c
       0.027474333 -0.013450077 -0.018251782 0.02940866
000310 0e 95 70 3c 7c 64 56 3b 53 57 8f 3c 71 94 78 bd
       0.014683975 0.0032713702 0.017497694 -0.06068844
000320 d7 6e 21 bd 99 be 5e bc e1 e0 17 bd e8 1f 4a bc
       -0.039412346 -0.013595247 -0.037079696 -0.012336709
000330 ba af 4c 3c 79 e4 2f 3d ca c0 f4 bc 62 28 75 bd
       0.012493068 0.042942498 -0.029877085 -0.059852965
000340 d8 9e 2a bd fd eb 2f 3d 1d c6 d8 bc c1 6c 7e bd
       -0.04165539 0.042949665 -0.026461655 -0.062115435
000350 a0 b0 bf bc 4a 62 3c bd 68 00 3d bc 80 0f 03 bd
       -0.023399651 -0.045992173 -0.011535741 -0.031997204
000360 60 13 75 bc 97 f4 25 3d d9 56 28 bd 08 93 1b bc
       -0.014958233 0.040516462 -0.04109845 -0.009495504
000370 d2 ae b0 3b 65 da 7e bd bb c4 34 bd 70 16 76 bb
       0.005391934 -0.062219996 -0.04413293 -0.0037549995
000380 40 b5 66 3c 68 6b c9 3b b3 51 a8 bc c0 43 70 bc
       0.014081299 0.006146837 -0.02054677 -0.01466459
000390 8e d9 98 3b ad 6a 22 bd b4 6d e2 bc 13 08 9c bc
       0.0046646064 -0.039652515 -0.027640201 -0.019046819
0003a0 cd f3 96 bb 6f c1 bd 3c 2c 94 08 bd af cb bd bc
       -0.0046067 0.023163525 -0.033344433 -0.023168413
0003b0 18 16 c0 bc f8 52 26 bd 9b e6 57 bd 46 6e 9a bc
       -0.023448035 -0.04060647 -0.052710157 -0.01885141
0003c0 ad f1 5e bd 7f 74 09 3d a6 50 00 bd b6 da dc 3c
       -0.0544297 0.033558365 -0.031326912 0.026959758
0003d0 a9 b2 15 3d d0 0e 05 bc 58 2c a7 3c 4a c4 2e 3c
       0.036547337 -0.008121207 0.020406887 0.010666916
0003e0 ee 74 fc bc 16 ae ce 3c b2 49 06 bc 8b 6f 0e 3d
       -0.030817475 0.025229495 -0.008196281 0.034774344
0003f0 ad 7b 5c bd 5c df 5b 3c d0 7d cd 3b cc 55 0d 3b
       -0.053828884 0.013419952 0.0062711015 0.0021566032

model.2.bias f4 [256]
000000 b1 70 0d bd 7b 6a 35 3d 9a ba 06 bd ca 3a e5 3b
       -0.0345313 0.044291 -0.0328928 0.0069955336
000010 ff 23 22 3d 49 ef 81 bc 73 ed a8 3c 52 54 9b 3c
       0.03958511 -0.01586117 0.020621037 0.018961105
000020 f2 28 54 3d 26 fb 02 3d 2c 60 3b bc 65 92 19 3d
       0.05179686 0.031977795 -0.011436503 0.03749313
000030 ae cf 6b bd 2a 07 bc bc 9b ac a5 bc fb 8e f1 bb
       -0.057571106 -0.022952635 -0.020223906 -0.007371781
000040 15 b0 d3 3c 90 d8 db bc ef ef df 3c 7e 54 d3 bb
       0.025840798 -0.026836663 0.027336089 -0.0064492812
000050 53 8b 99 bc 23 05 9d bb b0 0e 4e bd 66 71 4f 3d
       -0.018743193 -0.004791872 -0.050306976 0.050645255
000060 2a c0 cc ba eb 79 e8 bb b9 70 6c 3d 1c 68 f3 3c
       -0.0015621234 -0.007094612 0.05772469 0.02971273
000070 bb 00 48 bd 99 83 a2 bb d0 00 0d bb a9 1a 62 3d
       -0.04882882 -0.0049595353 -0.0021515377 0.055201206
000080 00 be 90 bb 9e 8d 22 bc e4 b6 6c 3d ff f5 40 bb
       -0.004417181 -0.0099214595 0.057791606 -0.00294435
000090 ec 8c 62 bc e2 aa ae bc 5a 90 8a bb d8 5e 9c 3c
       -0.013827544 -0.021321718 -0.004228634 0.019088194
0000a0 8e 23 e9 3c 4d c5 d5 3c f6 28 51 bc cb ab 47 3d
       0.028459337 0.026095057 -0.0127661135 0.04874782
0000b0 b3 cc 50 3d ad 85 21 3d bc a6 dc 3c ed 65 cd 3b
       0.050976466 0.039434124 0.026934974 0.006268254
0000c0 45 24 a2 3c da 20 cc b7 8b aa 6a 3a 0f c2 58 bb
       0.019792685 -2.4333993e-05 0.00089518045 -0.0033074652
0000d0 63 19 17 3d d6 1c 71 3b 4f 1f 68 bc f2 7d f9 bc
       0.036889445 0.003679087 -0.014167621 -0.030455563
0000e0 57 12 41 bc cd 4e e7 bc 20 45 67 bc 7c a1 e0 bc
       -0.011784158 -0.028235817 -0.014115602 -0.027420752
0000f0 d5 7b 52 3d 3e 7d 2c 3d 63 80 e8 bc 81 b0 44 bd
       0.051387627 0.042111628 -0.028381532 -0.04801989
000100 59 2c 0b 3c 35 e4 d7 3c d1 df 3e 3c 8a ae 62 3d
       0.00849446 0.026353935 0.011650042 0.055342235
000110 f7 4d 38 3d 15 d0 ed 3c 56 83 60 bc 4f 06 53 3d
       0.044996228 0.029029885 -0.013703188 0.05151969
000120 83 cc c1 3c f7 2d fa 3c 2e fd 61 3b ff e3 67 3b
       0.02365709 0.030539496 0.0034483182 0.00353837
000130 0f b4 0b 3d 9e 20 6c bd 0a 5b 09 3d ad ea ef 3d
       0.034107264 -0.057648294 0.033534087 0.11714683
000140 3a 3e 15 bd 77 05 d7 3c 6f 83 32 bc 72 37 d3 3a
       -0.036436297 0.026247723 -0.010895594 0.0016114546
000150 80 09 a8 3c c0 6b 85 bc 71 72 6c bd 54 a9 c5 3b
       0.020512342 -0.01628673 -0.057726327 0.0060321484
000160 5f 96 45 3c 33 76 42 bc 78 48 e5 3b 99 fd cd bc
       0.012059777 -0.011869001 0.0069971643 -0.025145339
000170 a4 8f 5e 3d 74 b8 79 3d 68 30 51 bd df e7 10 3d
       0.054336205 0.060966924 -0.051071554 0.03537738
000180 7c 44 32 bd 0b f4 23 3c 7e 50 82 bc 33 d7 50 bd
       -0.043522343 0.010006915 -0.015907522 -0.05098648
000190 89 27 9a 3c 9f 1f ef bc 1d 19 8f ba 23 77 3c bd
       0.01881768 -0.029189883 -0.0010917519 -0.046012055
0001a0 54 34 0d 3d a3 68 51 3c 4a 3c 12 bd fc 29 78 bd
       0.034473732 0.012781295 -0.035702027 -0.060586914
0001b0 c5 8a 28 bc 46 d7 0a 3d 58 18 9d 3d 8b f3 f5 3c
       -0.0102869915 0.033896707 0.07670659 0.030023357
0001c0 a7 9f f6 bb 4a 13 c3 bc 6e 22 13 bc 44 89 aa bb
       -0.0075263563 -0.023812909 -0.008980377 -0.0052043516
0001d0 a6 99 a5 bc d3 0f a6 3c 55 8e 21 3c dc 12 54 3c
       -0.020214867 0.020271217 0.009860595 0.01294395
0001e0 46 1e b2 ba 51 3e b0 3c 24 9f 4e 3d a9 48 75 bc
       -0.0013589344 0.02151409 0.050444737 -0.014970937
0001f0 a1 7d 08 bd f5 a4 00 bd 83 2f ae 3c 36 5f 1e 3d
       -0.033322934 -0.031407315 0.02126289 0.03866502
000200 25 f0 37 bc 3b 24 1f 3d 10 df 06 3d 2e 3f 06 3d
       -0.0112266885 0.03885291 0.032927573 0.032775097
000210 9c 96 57 3d 62 28 e9 3c 3c a9 8e 3b 56 14 f4 bb
       0.052633867 0.028461639 0.0043536704 -0.0074487133
000220 c8 d7 d5 ba 97 09 d2 3c b9 d8 c1 bc e4 07 26 bb
       -0.0016314918 0.025639338 -0.023662912 -0.0025334293
000230 fe db 09 3d 87 05 dc bc 43 6b 3a 3d 3c 6f 85 3c
       0.033657067 -0.026858104 0.04551245 0.016288392
000240 cb 09 65 3d ce 0f 09 3d 6f 7b b7 3a c9 0f 45 bd
       0.055917542 0.03346234 0.0013998578 -0.048110757
000250 8d 67 e3 ba 8c 8a a0 3b f8 46 ca 3b 77 7a cc bc
       -0.0017349586 0.0048993286 0.006173011 -0.02496074
000260 fa 43 30 3c 0d 52 25 3c 8d b5 95 bc 98 ac 68 3d
       0.010758394 0.010090363 -0.018275047 0.056805223
000270 c9 af a5 3c aa 36 b8 bc f4 28 7d 3b f5 4f 3d bc
       0.020225422 -0.022487003 0.0038629146 -0.011554708
000280 83 4f 08 bd 18 85 33 bd 6b f0 30 3d 18 bd 90 3b
       -0.033278953 -0.0438281 0.04319803 0.004417073
000290 5b 59 de bb 6f 6a 96 3c 26 73 06 ba 61 d7 80 bc
       -0.0067855543 0.018361298 -0.0005128853 -0.0157277
0002a0 5c c1 1a 3c e5 04 44 bb 25 cb 41 3c ec 83 6d 3d
       0.0094455145 -0.0029910144 0.011828219 0.05798714
0002b0 ee cd 7c 3b f4 7d 29 3c 10 fc db bb df b1 5c 3d
       0.0038574892 0.010344971 -0.006713398 0.05388057
0002c0 df c5 4d bb 71 9c 5b 3c 02 4c 71 3c 60 ad 23 3d
       -0.0031398458 0.013403998 0.014727594 0.039960265
0002d0 15 af d2 bc 81 7d 6f 3c 70 cf e0 3b 25 11 27 bd
       -0.025718251 0.014617325 0.006860666 -0.040787835
0002e0 0b 4b ff bc 0c 43 0f 3c fc da 13 bd 6b 78 1b bb
       -0.031163713 0.008744013 -0.03609751 -0.0023722898
0002f0 38 29 66 3d af 7a 00 3d 0f de af bc 72 04 eb 3b
       0.056191653 0.031367 -0.02146819 0.007172161
000300 e5 e5 61 bc 7e b9 31 bd fc 31 e4 3c eb b7 ef 3b
       -0.013787721 -0.04338979 0.027855866 0.007315626
000310 3c 06 81 bd 0e 54 07 3d 0d ff d8 bb a6 66 56 bd
       -0.06300017 0.033039145 -0.0066222013 -0.052343987
000320 c3 f7 35 bd a5 db ec bc 10 ad 45 bc 1c 68 db 3c
       -0.044425737 -0.028913328 -0.012065187 0.026783042
000330 9d 2b 9c b9 8c 86 21 3c 28 f4 29 3d 94 7b b8 bb
       -0.00029787133 0.009858739 0.04149261 -0.005629966
000340 77 40 b9 bc 77 40 3e 3d a2 3a 0b bd 4e f0 82 3b
       -0.022613747 0.046448197 -0.033991463 0.0039959317
000350 03 1a 99 3c 76 0d f7 3b 66 bd e0 bc ff cc 2f bd
       0.018689161 0.0075394465 -0.027434062 -0.04292011
000360 24 a8 70 bc 4a 56 a3 3c 16 2e 42 3d 5d 89 5c bd
       -0.014688525 0.019938607 0.047407232 -0.053841937
000370 4c c3 55 3d 38 d7 aa 3c b7 51 d7 bc d5 2c 6a 3c
       0.052188203 0.020854577 -0.026284082 0.014292915
000380 86 50 1f 3c d6 83 25 bd 42 e5 e1 3c 40 c1 22 3c
       0.009723788 -0.04040893 0.027575139 0.00993377
000390 5c fd 33 bc 06 be 0c 3d 03 c9 01 3b 34 c1 ec bc
       -0.010985699 0.034360908 0.001980365 -0.02890072
0003a0 90 89 6a 3b 0b 13 35 bd c4 51 57 3d 73 8c cb bb
       0.003578756 -0.044207614 0.052568212 -0.006211811
0003b0 98 a9 be 3c 20 af 56 3c 73 39 32 3c 47 1e 07 3d
       0.023274228 0.0131032765 0.010877955 0.03298786
0003c0 6e 41 a8 3b 9e 44 12 3c 01 f7 4d 3d 72 6d fd 3c
       0.005134753 0.008927492 0.05028439 0.030935977
0003d0 b0 84 09 3d 87 83 01 bc aa 31 aa 3c dc f7 39 3d
       0.033573806 -0.007904894 0.020775635 0.045402393
0003e0 02 b2 1c bd fb e5 8b 3c c0 aa bf 3b a8 94 3e bc
       -0.0382557 0.017077437 0.0058492124 -0.011632122
0003f0 5a 89 01 bc 0f a4 4d 3d a2 47 31 3b f6 61 36 3c
       -0.007906282 0.050205287 0.0027050753 0.011131754

model.4.weight f4 [1, 256]
000000 0b d2 44 bc 9c b5 ad bd 5e f4 45 bb f7 03 e5 bd
       -0.012012969 -0.08481905 -0.0030205469 -0.11182397
000010 40 e1 15 bc 5c 91 21 bc 43 dd 41 3d 38 d8 8f bd
       -0.009147942 -0.0098613165 0.047330152 -0.07023662
000020 e9 05 fb bd 17 8c d3 bd 3f 6d ed bd 53 b9 7b bd
       -0.12256987 -0.103294544 -0.11593103 -0.061456036
000030 ea f7 24 3d d6 11 50 3d 10 d4 d4 3b 83 a7 fc bd
       0.04027549 0.05079826 0.0064950064 -0.12336638
000040 e7 0d 77 bd 7c c4 42 3d 2c a2 d1 bd a7 7d 02 3d
       -0.060315993 0.047550663 -0.1023601 0.031858113
000050 d4 7c ba 3c f7 a6 fb 3c c3 da a0 bb ce 6a 0c be
       0.0227646 0.030719263 -0.004908891 -0.13712618
000060 e3 74 35 bd ba cb ae bd d6 14 d3 bd fb af 3f 3e
       -0.044300925 -0.085349515 -0.103067085 0.18719475
000070 a4 88 80 bc 12 0b 91 3a 49 56 c2 3d 4b 42 8f be
       -0.015690155 0.0011065921 0.09489114 -0.27980265
000080 3f 0e e3 bd 44 c0 aa 3c 2b 01 d0 bd b7 25 fc bd
       -0.110867016 0.020843633 -0.10156473 -0.12311881
000090 cb de 1a bd 3c db da bd 2d ce a3 3c 0d b5 d0 bd
       -0.03781013 -0.10686347 0.019995773 -0.10190783
0000a0 ec 23 d4 3d b0 22 95 bd 54 f4 54 3d 9b a6 eb bd
       0.10358414 -0.07282007 0.051990822 -0.11506387
0000b0 c6 f6 a3 bd 59 96 a8 bd 4a 60 9b 3c 0c 37 d1 bd
       -0.08006053 -0.082318015 0.018966813 -0.102155775
0000c0 b9 e0 38 3e dc a6 a1 3a 1e e0 fa bd 6a 45 d1 bd
       0.18054475 0.0012333053 -0.12249778 -0.10218318
0000d0 3e c0 c3 bd e0 15 01 bd 6f 08 4b 3d 18 ea 03 bb
       -0.09558152 -0.031515002 0.04956859 -0.0020128544
0000e0 7b c0 d1 3c 40 ff f8 3c 6f f3 e8 bd 8d 51 61 3d
       0.025604477 0.03039515 -0.11374556 0.055009414
0000f0 90 12 d1 bd ec f0 a2 bd b0 b7 21 3c f4 bf 2d 3d
       -0.10208619 -0.079561085 0.009870455 0.04241939
000100 c8 f0 0c 3c b0 d7 25 bb 77 cb 05 3d 22 42 f3 3d
       0.008602329 -0.0025305562 0.032664742 0.11877848
000110 5a 25 7a 3d 01 29 e3 bd a0 6b c0 3c 23 37 f1 bd
       0.061070777 -0.11091805 0.02348882 -0.117780946
000120 25 89 19 bd 88 b9 e5 bd e1 21 39 3d d0 b4 27 3c
       -0.037484307 -0.11217028 0.045198325 0.01023598
000130 23 de 02 be 36 4c aa 3b 08 08 c7 3c 35 9f b9 3e
       -0.12780051 0.0051970733 0.024295822 0.36254278
000140 ab 79 50 3d 50 72 5d be 87 9b 0f 3d 1f 2b c5 3c
       0.05089728 -0.21625638 0.03506043 0.024068413
000150 11 39 d1 ba c3 a0 03 3d 31 49 d9 bc 80 7e 8f bd
       -0.0015962442 0.032135736 -0.026524158 -0.0700655
000160 48 82 54 3d 33 64 10 be e7 6d 75 3b ad 2b f8 bd
       0.05188206 -0.14100723 0.003744954 -0.121177055
000170 26 71 33 3e b9 8b c6 bd ba 2d 11 3c 4e 97 ef bd
       0.17523631 -0.09694619 0.008861 -0.11698781
000180 83 92 63 3d 71 3c 04 be 57 68 9d bc 55 4b 3b 3d
       0.055559646 -0.12913682 -0.019214792 0.04572614
000190 96 5b d1 bd b5 da 9e b8 fc 50 c3 bd c2 20 70 3c
       -0.10222547 -7.5747645e-05 -0.09536931 0.014656248
0001a0 20 ff 28 3d 87 54 46 3d 1f ea 6b 3a 64 4f 9c 3d
       0.04125893 0.048420455 0.00089994253 0.0763233
0001b0 0f ad 82 3a c4 1c 8a bd e3 6b 1c 3e 9c f5 9b bd
       0.0009969788 -0.06743768 0.1527553 -0.07615206
0001c0 4a 8c cb 3c bb db 6d 3d bf f6 2d 3d 49 03 78 3c
       0.024847168 0.05807088 0.042471644 0.015137502
0001d0 71 84 3e 3d 35 42 d6 bd a7 7e e1 bd e6 fe f6 bd
       0.046513025 -0.10461847 -0.11010485 -0.12060337
0001e0 6d 9f d5 bb 59 97 94 3b cf 26 b7 bd 50 f0 fe bd
       -0.006519249 0.0045346436 -0.08942949 -0.1244818
0001f0 00 fe 37 3d cf bc 23 3d a7 cc 0e 3d 63 ae 9b 3d
       0.044919968 0.039974984 0.03486314 0.07601621
000200 f2 fc 0e 3c 85 5f c7 bb 79 04 bd bd ad 1d 8c 3d
       0.008727299 -0.006084385 -0.09229369 0.06841598
000210 1f 84 d9 bd 2e be 1a 3d 64 2f 66 3d 91 2b 78 3a
       -0.10620903 0.037779026 0.05619754 0.0009466941
000220 ba ab e4 bd e5 9b e2 bd 86 ab 97 bd 3e 66 f1 bb
       -0.11165567 -0.11064891 -0.074057624 -0.0073669245
000230 61 fc 83 bd bc 20 74 bd 19 af a3 bd c8 1e 22 3d
       -0.06444622 -0.05960153 -0.079923816 0.039580137
000240 6f 6a ac bd 4a 82 7c 3c e2 93 b6 bd c8 40 8b bc
       -0.08418738 0.015411923 -0.08914925 -0.016998664
000250 67 ae fe 3a dd 67 b5 bd 78 e8 bf 3c ed d7 3b bc
       0.0019430638 -0.08857701 0.02342628 -0.011465055
000260 5c 27 e8 bd 42 f0 b3 bd 03 05 b8 bd 96 3c 68 bd
       -0.11335632 -0.0878606 -0.08985331 -0.056698404
000270 3a a3 8b bd 41 15 5b 3c e8 85 c7 bd f9 8c 49 bd
       -0.06818242 0.013371767 -0.097423375 -0.049206708
000280 46 f6 c5 bd 49 fb 33 3c 02 4d 0a be f2 10 89 bc
       -0.096661136 0.010985204 -0.13505939 -0.016731713
000290 ab 7a f6 bd 22 c0 32 3c 8e 7e cd 3c b8 02 da bd
       -0.12035116 0.010910066 0.02508476 -0.1064505
0002a0 b7 0f df bd f2 c6 ba bd 49 2b 36 bd a4 23 86 bd
       -0.10891669 -0.09119977 -0.044474874 -0.06549767
0002b0 90 16 82 bd ec bb ff 3c 86 96 6b 3c f0 58 e0 bd
       -0.0635196 0.031217538 0.014379149 -0.109544635
0002c0 10 a3 b6 bd 15 13 b0 bd 20 5d df bd cd 41 01 be
       -0.089178205 -0.085973896 -0.10906434 -0.12622757
0002d0 ea f7 18 3b 55 d8 11 be fd 4b 0e 3b 40 5f 00 bd
       0.0023341128 -0.1424268 0.0021712773 -0.031340837
0002e0 cf d4 25 3d be c9 4b 3d 87 47 88 bb 78 1c e8 3c
       0.040486153 0.049752943 -0.0041589173 0.028333887
0002f0 f4 fe 16 be 66 dd 8b bd 1b 0d 32 bc 89 95 85 3c
       -0.14745694 -0.06829338 -0.010867382 0.016306655
000300 c8 49 0d 3c b9 95 41 bd c0 57 93 3c 82 cc ec bd
       0.008623548 -0.047261927 0.017986178 -0.11562444
000310 00 bf 14 bd 14 9e c3 bd a3 01 b1 3b c0 4c 1b bd
       -0.036314964 -0.095516354 0.0054018064 -0.03791499
000320 12 bc 29 3d 1e bb c0 3c a3 e0 59 3d cf 94 de ba
       0.041439123 0.023526724 0.053192746 -0.0016981604
000330 46 99 41 bd 0d 46 5c 3d 28 a9 60 bd 0a e5 b6 3d
       -0.047265314 0.053777743 -0.05484882 0.089304045
000340 35 35 33 3d d3 25 dc bd 06 7b 0a 3d fe 62 b4 3c
       0.043751914 -0.10749402 0.03380873 0.02201986
000350 4a ae a5 3d 01 4f f8 bd 51 2a e3 bd 11 8d 71 b9
       0.080898836 -0.12124444 -0.110920556 -0.00023036102
000360 3e dd b2 3c f9 0c 5d 3d a1 c5 06 be 86 b9 68 bc
       0.021834012 0.05396745 -0.13161327 -0.0142043885
000370 4f f1 ba bd c7 1e ef bd 23 10 60 bd e9 7b 8b 3c
       -0.09128057 -0.11675792 -0.05470289 0.017026858
000380 b9 64 c1 bd 9c 5f 46 bc a3 92 d3 bd 19 24 51 3d
       -0.094430394 -0.012107756 -0.10330703 0.051059816
000390 0c 61 2c 3d c1 d9 2b be bf bb 2c 3c 56 b9 8b bd
       0.04208474 -0.16782285 0.010542809 -0.068224594
0003a0 48 d3 84 bc 62 7f 54 bd bb e6 ec bd 61 aa 4d 3d
       -0.016214028 -0.051879294 -0.11567446 0.050211314
0003b0 aa 74 8b 3d e7 32 c2 bd 41 ed 19 bb d2 55 6c bd
       0.06809361 -0.09482365 -0.0023487362 -0.057699032
0003c0 39 73 d8 bd 9d 1c f1 3b 74 41 5e bd f5 9c f4 3c
       -0.10568852 0.0073581473 -0.05426164 0.02986
0003d0 a2 01 cc bd ee 59 35 3d b5 48 cc bd 5d 14 b7 bd
       -0.09961249 0.044275217 -0.09974805 -0.08939431
0003e0 00 50 df 3c 4e ec f7 bd c2 34 88 bd 5a 06 b0 bd
       0.027259827 -0.121056184 -0.06650688 -0.085949615
0003f0 3f d4 06 3d 84 44 c3 bd 37 08 65 3d 48 f0 e6 bd
       0.032917257 -0.09534553 0.055916037 -0.11276299
