best-model-multiclass.pth (torch, 601394 bytes, 15 tensors)

loss_fn.weight f4 [6]
2.0 1.0 3.0 4.0 8.0 4.0
00000000: 0000 0040 0000 803f 0000 4040 0000 8040
00000010: 0000 0041 0000 8040

model.0.weight f4 [512, 24]
0.14671616 0.15716177 -0.07711541 0.15847056 -0.059244376 0.014817143 -0.15901995 0.13460626
0.20037916 -0.15678675 0.18445946 0.099694386 0.11419385 -0.0072234306 0.07772749 -0.033166785
0.17482722 0.010190949 -0.11925526 0.051206082 -0.049314387 -0.028169986 -0.06979043 0.1818591
-0.12072849 -0.05200518 -0.01784145 -0.1138466 0.02686873 -0.15404455 0.2448931 -0.22289991
0.14448926 0.049848687 -0.08215854 0.09056803 0.059013136 0.22387886 0.045164745 -0.07126857
0.020746594 -0.06664942 0.09524475 0.16990574 0.09478322 -0.047525495 0.09106462 0.087286904
0.09357936 -0.13537222 -0.1987199 -0.07804414 -0.14142616 0.1760653 0.041877672 0.07681422
0.060230255 -0.022698067 0.17889641 -0.2252331 -0.009466364 -0.14686194 0.008795686 -0.042262953
0.11244053 -0.016062018 0.17159003 -0.08087738 -0.041044507 -0.15745829 0.19891849 0.10609536
0.22516732 -0.14092992 -0.2557377 -0.21868645 -0.16131067 0.029051205 0.05828706 0.16142802
-0.046671636 -0.117632456 0.08678237 -0.10044812 0.109547906 -0.116461836 0.111296296 -0.14558348
-0.087100856 0.024195101 0.0064073657 -0.048058853 0.15916117 0.134433 -0.14377117 -0.18491592
0.17157696 -0.08420199 -0.077201374 -0.20464522 -0.12330882 0.044828195 -0.007993558 -0.12743017
-0.010096163 -0.14310075 -0.16951095 -0.07285471 -0.18704297 -0.12988555 0.20726751 0.016900998
0.040132303 -0.2617128 -0.13654995 -0.099582404 0.0060370537 -0.14020437 -0.09053059 -0.20613456
0.05691274 -0.019385574 0.009186437 -0.117626555 -0.07176127 -0.09089099 -0.066962175 -0.112625845
0.22719388 -0.039388485 0.17450485 0.03884901 -0.21726821 0.15442243 -0.05826646 -0.109840475
-0.14686482 -0.20787188 0.0383317 -0.03857575 0.11171573 -0.14084055 0.14134982 -0.14587282
-0.055358116 0.02059538 0.08250243 0.13196254 0.15062524 -0.18753819 0.04812966 -0.11835047
0.019736633 -0.11758757 0.1507308 -0.16672298 0.080099404 0.04606589 0.070907824 -0.10783107
0.15960914 0.008656089 -0.0012067012 -0.21678562 0.08090323 -0.05112497 -0.10714312 0.32570162
0.08385727 -0.076584175 -0.14282843 -0.050115153 0.10566074 -0.08435925 -0.067641094 -0.034800127
-0.15131272 0.11202432 0.11877345 -0.31359968 0.018435214 0.046475098 0.01017567 -0.05001602
0.09228778 0.0886021 0.03744137 -0.024686672 -0.007270114 0.097566634 -0.068221584 -0.11294614
0.106327124 0.14877525 -0.052990463 -0.07063325 -0.014778041 -0.039917015 0.04462045 0.06945035
-0.22166686 -0.07757787 0.17414714 0.113702856 0.029226938 -0.1535882 -0.12109123 -0.17057882
-0.033998184 0.07133885 0.12080152 0.09883688 -0.15960506 -0.12147284 -0.041919556 0.2558519
-0.023662873 -0.10679627 0.092483915 -0.0602074 -0.13549799 0.15522134 -0.06642872 -0.06058563
-0.2317401 0.1513252 0.13994062 0.028430961 -0.08876733 -0.19356532 -0.16727495 0.14182742
0.08824791 0.15636154 0.113487944 0.02860724 -0.042551372 -0.16884622 -0.19395125 -0.22322245
0.1058982 -0.07814469 -0.06317727 -0.1310013 -0.08133168 -0.16141975 -0.1089143 0.100888
-0.051623356 0.1434985 -0.08296868 -0.12710841 -0.008126886 -0.102796026 -0.05444961 -0.22592045
00000000: c33c 163e 04ef 203e afee 9dbd 1b46 223e
00000010: 3baa 72bd 9ac3 723c 20d6 22be 39d6 093e
00000020: 3230 4d3e b58c 20be f1e2 3c3e 922c cc3d
00000030: 77de e93d 87b2 ecbb 972f 9f3d e5d9 07bd
00000040: e805 333e f0f7 263c 1a3c f4bd 78bd 513d
00000050: e2fd 49bd bec4 e6bc 49ee 8ebd 4639 3a3e
00000060: 8040 f7bd 6203 55bd 3c28 92bc 6828 e9bd
00000070: d01b dc3c dbbd 1dbe 42c5 7a3e e03f 64be
00000080: fef4 133e 232e 4c3d bd42 a8bd bb7b b93d
00000090: c2b7 713d 8040 653e abfe 383d 42f5 91bd
000000a0: c3f4 a93c 7e7f 88bd ae0f c33d c5fb 2d3e
000000b0: b41d c23d 18aa 42bd 1680 ba3d 7ac3 b23d
000000c0: 89a6 bf3d 049f 0abe 3b7d 4bbe 9bd5 9fbd
000000d0: 05d2 10be 764a 343e ec87 2b3d c650 9d3d
000000e0: 00b4 763d 4cf1 b9bc 9f30 373e 81a3 66be
000000f0: cf18 1bbc fa62 16be c81b 103c eb1b 2dbd
00000100: 3847 e63d 7e94 83bc 4cb5 2f3e 0aa3 a5bd
00000110: 491e 28bd bf3c 21be 4ab1 4b3e 8648 d93d
00000120: 4392 663e ef4f 10be 0df0 82be 57ef 5fbe
00000130: a02e 25be cbfc ed3c 6abe 6e3d 634d 253e
00000140: c22a 3fbd 49e9 f0bd f5ba b13d beb7 cdbd
00000150: a75a e03d 8b83 eebd 50ef e33d d613 15be
00000160: ef61 b2bd ce34 c63c e1f4 d13b 5cd9 44bd
00000170: 25fb 223e cea8 093e c038 13be 995a 3dbe
00000180: dfb1 2f3e 1872 acbd c11b 9ebd 848e 51be
00000190: 5689 fcbd c59d 373d 6af7 02bc 0e7d 02be
000001a0: 606a 25bc 0189 12be 4794 2dbe da34 95bd
000001b0: 3188 3fbe b800 05be ef3d 543e f673 8a3c
000001c0: c561 243d 38ff 85be c0d3 0bbe dcf1 cbbd
000001d0: 7ad2 c53b bc91 0fbe 1a68 b9bd f014 53be
000001e0: 551d 693d 7fce 9ebc b682 163c 31e6 f0bd
000001f0: 93f7 92bd 0e25 babd 7723 89bd 61a8 e6bd
00000200: 83a5 683e d255 21bd 66b1 323e 2420 1f3d
00000210: 8f7b 5ebe ea20 1e3e d0a8 6ebd 0bf4 e0bd
00000220: bb63 16be 5edc 54be b301 1d3d 9b01 1ebd
00000230: 37cb e43d 8138 10be 02be 103e af5f 15be
00000240: 31bf 62bd a4b7 a83c 09f7 a83d 3021 073e
00000250: 813d 1a3e 030a 40be 9b23 453d bb61 f2bd
00000260: b8ae a13c c0d1 f0bd 2d59 1a3e 6eb9 2abe
00000270: 280b a43d 96af 3c3d 1f38 913d 89d6 dcbd
00000280: 9470 233e 45d2 0d3c 2c2a 9eba 0dfd 5dbe
00000290: 98b0 a53d 6b68 51bd da6d dbbd 5dc2 a63e
000002a0: 5cbd ab3d 2ad8 9cbd 9e41 12be 8c45 4dbd
000002b0: a864 d83d 8bc4 acbd 6a87 8abd 948a 0ebd
000002c0: b9f1 1abe 026d e53d 7f3f f33d 2390 a0be
000002d0: 7205 973c ac5c 3e3d dab7 263c 99dd 4cbd
000002e0: 6001 bd3d 0575 b53d 1f5c 193d b43b cabc
000002f0: 233a eebb 04d1 c73d c2b7 8bbd 4e50 e7bd
00000300: 09c2 d93d 8a58 183e 870c 59bd 2aa8 90bd
00000310: 991f 72bc 0680 23bd efc3 363d fc3b 8e3d
00000320: a3fc 62be 25e1 9ebd a153 323e 0bdd e83d
00000330: 556d ef3c 3a46 1dbe aefe f7bd 37ac 2ebe
00000340: ae41 0bbd 1a1a 923d ca66 f73d fd6a ca3d
00000350: 826f 23be c1c6 f8bd d7b3 2bbd 05ff 823e
00000360: a4d8 c1bc 01b8 dabd 3568 bd3d 099c 76bd
00000370: fcbf 0abe 58f2 1e3e c80b 88bd a328 78bd
00000380: 474d 6dbe fef4 1a3e 984c 0f3e 0ce8 e83c
00000390: a5cb b5bd fd35 46be 204a 2bbe 353b 113e
000003a0: 52bb b43d 3d1d 203e 5e6c e83d bb59 ea3c
000003b0: 594a 2ebd 06e6 2cbe 289b 46be 6d94 64be
000003c0: 28e1 d83d 530a a0bd 1663 81bd 3425 06be
000003d0: 3991 a6bd 384b 25be 760e dfbd 5e9e ce3d
000003e0: 0373 53bd 45f1 123e 7ceb a9bd b528 02be
000003f0: a126 05bc b986 d2bd 8e06 5fbd b157 67be

model.0.bias f4 [512]
-0.004442351 0.071356215 -0.18841457 -0.047505595 -0.14755242 -0.19169094 0.10919255 -0.06813681
-0.19454153 -0.058889076 -0.1131242 0.110203125 -0.030930396 -0.12366141 -0.08361445 -0.044633996
0.15692008 0.018032977 -0.16160442 -0.05356594 0.18843861 -0.17395331 -0.07646689 0.17753905
-0.08211503 0.15564844 -0.13405512 0.15451525 0.13452813 -0.03804198 -0.18928325 -0.069067806
0.050782505 -0.068325736 -0.16297045 -0.18054603 0.09658184 0.14747013 -0.077792555 0.0078511825
-0.12502979 0.11787439 -0.13491908 -0.11588877 -0.08366038 -0.037238594 0.02552622 -0.19257462
-0.074732564 -0.08869687 -0.041372932 -0.011143426 0.009934824 0.10430666 -0.1163177 0.005011875
0.18564047 0.026034085 -0.15125673 0.13960622 -0.18153791 0.0827384 0.16878593 0.025396172
0.10691982 0.16214848 0.09365654 -0.061361052 0.0444506 0.16495125 0.047771055 -0.16213624
0.17781043 0.19891554 0.11850104 0.110687636 0.11477064 -0.123671606 -0.06042904 0.08824641
0.052059397 0.08670625 -0.004061081 -0.19791655 0.09677371 -0.12841405 -0.16897073 0.20162803
0.08988038 0.10148322 -0.08950464 0.07509845 0.017211221 0.13918136 0.024028331 0.18252876
-0.043937694 0.18842396 0.20225789 0.02434702 -0.1489468 -7.749299e-05 0.16264533 -0.13955961
-0.073098846 0.074390374 0.041125778 0.19221948 0.033516802 -0.0016929196 0.027185887 -0.04172191
-0.18862411 -0.07136674 -0.18554911 0.14903517 0.012747722 0.02454148 -0.013370467 -0.10481116
-0.14482039 -0.031201882 0.06181184 -0.111681856 -0.1263642 0.13312368 -0.07122843 0.11529311
0.1960265 0.19218993 -0.15816079 0.015594584 -0.16059123 0.008607222 0.027924085 -0.08848834
0.060380604 -0.064182416 0.114747666 0.0020104812 0.1417111 0.13781595 0.045966942 0.038161065
-0.09240688 -0.13468738 0.13732263 0.13447617 0.032063313 0.17118996 0.10654411 0.13327958
-0.039075673 0.029993884 -0.18324818 -0.18662079 0.09768533 -0.12448835 0.15606394 -0.1649382
-0.16920838 -0.16779374 0.13196278 -0.13554014 -0.17618449 0.08617386 -0.04153169 -0.1941212
0.14528154 0.14784393 0.16357474 0.12834886 -0.15786688 -0.089843996 -0.080038376 -0.19787692
0.142153 -0.08230724 0.07034829 -0.10337329 0.18295428 0.14412466 0.14078836 0.099934526
0.1715261 0.06664831 0.034366503 -0.046126273 0.16611035 -0.19644196 0.14664392 -0.019251661
-0.013777188 -0.13389134 -0.08921894 0.03841486 -0.08299074 0.07266719 0.027567778 -0.17364348
0.11169604 -0.08994307 -0.07366376 -0.07432961 0.08074949 -0.20139225 -0.14652711 0.08233937
-0.061847854 -0.038966883 -0.18340285 0.020845577 0.095836006 -0.07373656 0.015609284 0.005853531
-0.043645848 0.16466288 0.052254315 0.037638083 -0.0062910467 -0.0041060657 0.10996671 0.0115972245
0.04621156 0.16584624 0.14456448 -0.075030655 -0.16723783 0.053762116 -0.13906012 -0.20243718
0.14012097 -0.16983674 0.20184022 -0.18815403 -0.16631354 0.11721775 0.01583279 -0.08958087
0.07749489 -0.13263972 -0.11239795 -0.19588749 -0.10422347 -0.17544723 0.1744917 -0.088775404
0.03448379 -0.09183923 -0.047552373 0.14911032 0.04142298 0.09826832 0.0665853 -0.16656244
00000000: 2491 91bb 3523 923d c0ef 40be 3a95 42bd
00000010: fb17 17be a14a 44be 58a0 df3d 508b 8bbd
00000020: e535 47be ac35 71bd a9ad e7bd 2db2 e13d
00000030: be61 fdbc 3142 fdbd 0e3e abbd 23d2 36bd
00000040: a8af 203e e5b9 933c a17b 25be f667 5bbd
00000050: 0df6 403e d120 32be ac9a 9cbd cccc 353e
00000060: ed2b a8bd 4e62 1f3e bf45 09be 3f39 1e3e
00000070: bec1 093e e8d1 1bbd 78d3 41be 6c73 8dbd
00000080: 5101 503d 5dee 8bbd bae1 26be 0fe1 38be
00000090: b3cc c53d 6902 173e b451 9fbd 3fa2 003c
000000a0: cf07 00be 2168 f13d 3a28 0abe 1757 edbd
000000b0: 2256 abbd 7f87 18bd 5d1c d13c 4832 45be
000000c0: 630d 99bd b4a6 b5bd aa76 29bd eb92 36bc
000000d0: acc5 223c bb9e d53d f937 eebd a83a a43b
000000e0: 8918 3e3e 6f45 d53c 0be3 1abe eff4 0e3e
000000f0: 13e5 39be c072 a93d 38d6 2c3e a20b d03c
00000100: c7f8 da3d 400a 263e 00cf bf3d ba55 7bbd
00000110: d511 363d fbe8 283e 95ab 433d 0b07 26be
00000120: f013 363e 84b0 4b3e acb0 f23d 33b0 e23d
00000130: df0c eb3d 8a47 fdbd 7184 77bd 89ba b43d
00000140: 3c3c 553d 0c93 b13d d112 85bb a3aa 4abe
00000150: 4b31 c63d f97e 03be aa06 2dbe 9477 4e3e
00000160: 3413 b83d 6fd6 cf3d 354e b7bd 37cd 993d
00000170: 8cfe 8c3c 8f85 0e3e 10d7 c43c d2e8 3a3e
00000180: 03f8 33bd 36f2 403e b11c 4f3e 6773 c73c
00000190: 8385 18be bb83 a2b8 7f8c 263e b7e8 0ebe
000001a0: d9b4 95bd fb59 983d 8173 283d 2fd5 443e
000001b0: ea48 093d f5e4 ddba f0b4 de3c 98e4 2abd
000001c0: ae26 41be ba28 92bd 9600 3ebe ad9c 183e
000001d0: d2db 503c 370b c93c ce0f 5bbc 3ca7 d6bd
000001e0: cc4b 14be 179b ffbc 692e 7d3d 75b9 e4bd
000001f0: 9e65 01be 9351 083e 36e0 91bd cb1e ec3d
00000200: 2cbb 483e 70cd 443e e7f4 21be 6d80 7f3c
00000210: 0772 24be 4e05 0d3c 0dc1 e43c 6039 b5bd
00000220: a751 773d 1272 83bd d300 eb3d 47c2 033b
00000230: b71c 113e a01f 0d3e d547 3c3d c74e 1c3d
00000240: d13f bdbd 7deb 09be 4e9e 0c3e 1fb4 093e
00000250: d254 033d 6c4c 2f3e cc33 da3d 717a 083e
00000260: d00d 20bd bcb5 f53c 69a5 3bbe 8519 3fbe
00000270: 3f0f c83d bff3 febd 3acf 1f3e 8fe5 28be
00000280: f644 2dbe 1fd2 2bbe 4021 073e 09cb 0abe
00000290: b569 34be ec7b b03d 221d 2abd b5c7 46be
000002a0: afc4 143e 6664 173e 2380 273e e26d 033e
000002b0: dba7 21be 2100 b8bd 29eb a3bd 3fa0 4abe
000002c0: 8e90 113e b390 a8bd c412 903d 60b5 d3bd
000002d0: 5e58 3b3e 6a95 133e d32a 103e 79aa cc3d
000002e0: 8aa4 2f3e e97e 883d e4c3 0c3d e7ee 3cbd
000002f0: d518 2a3e 1528 49be d329 163e a9b5 9dbc
00000300: b7b9 61bc d01a 09be 6bb8 b6bd e658 1d3d
00000310: 0df7 a9bd 89d2 943d d2d5 e13c 99cf 31be
00000320: e5c0 e43d 1334 b8bd 07dd 96bd 1f3a 98bd
00000330: fd5f a53d c539 4ebe 340b 16be 8ba1 a83d
00000340: 2d54 7dbd bd9b 1fbd f5cd 3bbe 58c4 aa3c
00000350: ab45 c43d 3203 97bd 15be 7f3c face bf3b
00000360: fdc5 32bd 639d 283e 9f08 563d 642a 1a3d
00000370: 2025 cebb 2d8c 86bb 3a36 e13d 4902 3e3c
00000380: 5548 3d3d 99d3 293e b608 143e aca9 99bd
00000390: 6540 2bbe aa35 5c3d c765 0ebe b14b 4fbe
000003a0: df7b 0f3e afe9 2dbe 34af 4e3e 73ab 40be
000003b0: 194e 2abe dc0f f03d c4b3 813c 2d76 b7bd
000003c0: a4b5 9e3d b5d2 07be e530 e6bd bb96 48be
000003d0: 1d73 d5bd 70a8 33be f4ad 323e e1cf b5bd
000003e0: e03e 0d3d 3516 bcbd 47c6 42bd 60b0 183e
000003f0: 25ab 293d e740 c93d e05d 883d 588f 2abe

model.1.weight f4 [512]
1.0394638 1.0681983 1.0196573 0.95357186 0.9819776 1.0267045 1.0153843 1.1248728
1.0061681 0.95130956 1.0262501 0.9691969 1.0523208 0.9629526 0.99307805 1.0129402
1.0515827 1.0029986 0.9911691 0.99646693 0.99266624 0.99589694 0.92704445 0.97087014
1.0072544 0.96720344 0.99912983 0.9577451 1.0060747 0.96751875 0.98256606 1.0498745
0.9540475 1.0241151 1.0195584 0.9493738 1.0284923 0.9968813 0.9841142 0.99858135
1.0234984 1.0001904 1.0042226 0.9931109 1.0476291 0.98692185 1.0163461 0.9504151
0.9336024 0.98543125 1.0804056 0.99297965 0.9714153 0.9608269 0.99644387 0.9883309
1.019067 1.0267245 0.9881894 1.0137362 0.98446465 0.9724313 0.97740066 1.0168484
1.036026 0.9485087 0.9841271 0.96548533 0.9654239 0.9545072 0.9742556 0.9776487
0.9691292 0.9853362 1.0118569 1.0317358 0.9316831 1.0517673 1.0458808 0.9937873
0.95699173 1.0238987 0.98232436 1.066587 0.97093934 0.9771282 1.0102073 0.97412723
0.9343178 1.0307876 0.9239313 0.97113985 0.90436333 0.9708991 1.0108693 1.0090641
1.1064295 1.0638303 0.9911952 0.9634443 1.0368428 0.98640513 0.97112864 0.98917884
0.931799 1.0418036 1.0409483 1.0653511 0.9626628 1.0184133 1.0103592 0.9521029
0.9800188 0.9609217 0.99972045 0.9926477 0.9890578 1.0263681 0.99678385 0.978775
1.051997 0.9443364 0.93279475 0.9576507 0.95590734 0.99660015 0.9958041 1.0072157
1.0245823 1.0057507 0.97039056 1.0457714 1.0552775 0.93822265 0.9725738 0.9516553
1.002058 1.036728 0.9514231 1.1394105 1.0307485 0.9499087 1.0215914 0.9453531
0.9657717 0.973528 0.9671976 0.96046525 0.95905864 0.9671118 1.0006634 0.9538561
1.0109749 1.0327356 1.0741302 0.9593568 1.0201857 1.0271145 1.0071055 0.9860671
0.9745499 0.9894187 1.0640068 0.9925401 1.0485414 0.9152092 0.991655 0.9709025
1.0349844 0.98080707 1.0066918 1.01154 1.0271868 0.98636097 1.0622921 1.0022258
0.9991614 1.002695 1.0446278 1.0006814 0.9298794 0.9725823 1.0138395 0.95061487
0.9976339 0.94699365 0.9838741 0.9337444 0.99159503 1.0363975 1.0581126 0.9692904
1.0477407 1.009834 0.9647913 0.98111504 1.01033 1.0388566 1.0147288 1.0154529
1.0045943 0.9786633 1.0088693 1.0364463 1.0043119 0.9904454 1.0014954 0.9565423
1.009279 0.9972742 0.98733056 0.962872 0.9652266 0.9517416 0.9674528 0.99750376
1.0011312 1.0040888 0.96731496 1.0102526 0.97634876 0.96904075 0.9802526 0.9587876
1.0077933 0.9857891 1.0372294 0.9872716 1.0084027 0.9838533 0.99001175 0.9754636
0.97564286 1.038075 0.95578563 1.0059164 1.024358 1.0541207 0.9838509 1.009605
0.92539763 1.0484431 1.0341657 1.029112 0.929937 0.92572826 1.0185988 1.0426077
1.0022441 0.961011 1.0365059 1.0275549 0.9632855 1.0320954 0.96674913 0.9578942
00000000: 260d 853f b9ba 883f 2184 823f 491d 743f
00000010: e262 7b3f 0e6b 833f 1df8 813f d5fb 8f3f
00000020: 1eca 803f 0689 733f 2a5c 833f 4a1d 783f
00000030: 73b2 863f 1084 763f 5d3a 7e3f 06a8 813f
00000040: 439a 863f 4262 803f 42bd 7d3f 7518 7f3f
00000050: 601f 7e3f 1af3 7e3f c952 6d3f f28a 783f
00000060: b6ed 803f a59a 773f f9c6 7f3f c82e 753f
00000070: 0ec7 803f 4faf 773f 7389 7b3f 4a62 863f
00000080: 753c 743f 3416 833f e480 823f 290a 733f
00000090: a3a5 833f 9d33 7f3f e9ee 7b3f 07a3 7f3f
000000a0: ff01 833f 3d06 803f 5e8a 803f 843c 7e3f
000000b0: b618 863f e9a6 7c3f a117 823f 674e 733f
000000c0: 9100 6f3f 3945 7c3f bb4a 8a3f ea33 7e3f
000000d0: acae 783f c0f8 753f f216 7f3f 4103 7d3f
000000e0: ca70 823f b56b 833f fbf9 7c3f 1cc2 813f
000000f0: e005 7c3f 42f1 783f ee36 7a3f 1728 823f
00000100: 809c 843f 77d1 723f c1ef 7b3f 0c2a 773f
00000110: 0526 773f 955a 743f d168 793f 2f47 7a3f
00000120: da18 783f fe3e 7c3f 8784 813f eb0f 843f
00000130: c982 6e3f 50a0 863f 6cdf 853f d868 7e3f
00000140: 69fd 743f 1d0f 833f 9c79 7b3f ec85 883f
00000150: 7b8f 783f 1325 7a3f 794e 813f 6760 793f
00000160: 742f 6f3f d9f0 833f c386 6c3f 9f9c 783f
00000170: 5b84 673f d88c 783f 2a64 813f 0329 813f
00000180: 7b9f 8d3f 972b 883f f8be 7d3f 49a4 763f
00000190: 44b7 843f 0c85 7c3f e39b 783f d33a 7d3f
000001a0: 618a 6e3f d259 853f cb3d 853f 6d5d 883f
000001b0: 1271 763f 5e5b 823f 7353 813f 04bd 733f
000001c0: 83e2 7a3f f7fe 753f aeed 7f3f 291e 7e3f
000001d0: e432 7d3f 0860 833f 3a2d 7f3f 0091 7a3f
000001e0: d6a7 863f 08c0 713f a3cb 6e3f 9928 753f
000001f0: 58b6 743f 3021 7f3f 04ed 7e3f 72ec 803f
00000200: 8325 833f 70bc 803f 846b 783f d6db 853f
00000210: 5513 873f 5c2f 703f 99fa 783f af9f 733f
00000220: 7043 803f 81b3 843f 7790 733f 34d8 913f
00000230: 91ef 833f 372d 733f 82c3 823f a902 723f
00000240: d03c 773f 2239 793f 439a 773f 0de1 753f
00000250: de84 753f a494 773f bd15 803f ea2f 743f
00000260: a067 813f ae30 843f 197d 893f 6898 753f
00000270: 7295 823f 7d78 833f d5e8 803f e56e 7c3f
00000280: 1a7c 793f 8b4a 7d3f 6031 883f 1c17 7e3f
00000290: 9b36 863f 264b 6a3f 1add 7d3f 118d 783f
000002a0: 5e7a 843f 2c16 7b3f 47db 803f 257a 813f
000002b0: db7a 833f 2782 7c3f 30f9 873f ef48 803f
000002c0: 0bc9 7f3f 4f58 803f 5db6 853f 5416 803f
000002d0: 940c 6e3f 27fb 783f 7ec5 813f 7f5b 733f
000002e0: ef64 7f3f 2d6e 723f 2cdf 7b3f df09 6f3f
000002f0: 2cd9 7d3f aca8 843f 3c70 873f 6a23 783f
00000300: 5e1c 863f 3e42 813f 90fc 763f 5b2a 7b3f
00000310: 7e52 813f 41f9 843f a2e2 813f 5cfa 813f
00000320: 8c96 803f ae89 7a3f a122 813f 46aa 843f
00000330: 4b8d 803f d48d 7d3f 0031 803f f5df 743f
00000340: 0e30 813f 5d4d 7f3f b2c1 7c3f c87e 763f
00000350: 1719 773f 56a5 733f fdaa 773f 685c 7f3f
00000360: 1125 803f fb85 803f f4a1 773f f54f 813f
00000370: fef1 793f 0e13 783f d6f1 7a3f 1b73 753f
00000380: 5fff 803f ad5c 7c3f efc3 843f d5bd 7c3f
00000390: 5713 813f cfdd 7b3f 6971 7d3f fcb7 793f
000003a0: bbc3 793f a4df 843f 5eae 743f dec1 803f
000003b0: 2a1e 833f 6ded 863f a7dd 7b3f bd3a 813f
000003c0: dce6 6c3f 6233 863f 8b5f 843f f1b9 833f
000003d0: 5a10 6e3f 87fc 6c3f 7261 823f 2b74 853f
000003e0: 8949 803f d104 763f 3aac 843f eb86 833f
000003f0: e199 763f b41b 843f df7c 773f 8e38 753f

model.1.bias f4 [512]
-0.028240839 -0.013010872 -0.037852783 -0.014750747 -0.009565382 -0.012320606 -0.012907029 -0.006203323
-0.00986014 -0.001814018 -0.010552115 -0.04478947 -0.0073259166 0.009979395 -0.027873522 0.041329373
0.059026733 0.005839668 0.036351204 -0.008681864 -0.029571902 0.050879356 -0.089450285 -0.019307215
-0.019613003 -0.047186982 -0.031983327 -0.02670573 -0.046411775 -0.020622911 -0.05212456 -0.014971119
-0.082578406 -0.052187774 -0.005276511 -0.032459956 -0.025839083 -0.049599078 0.013996572 -0.042264163
-0.008418087 -0.050692305 -0.079938546 -0.022575922 -0.02907743 0.009826047 0.04205081 -0.044293914
-0.06414284 -0.03539212 0.016802501 0.0132826995 0.011528861 -0.043580037 -0.014255272 0.036018845
-0.0058101593 -0.009830195 -0.08097003 -0.03096414 -0.022241099 -0.010046088 -0.034967974 0.04844961
-0.021805514 -0.058878634 -0.026332177 -0.050024975 -0.03874209 -0.054996423 -0.020558074 -0.052038345
-0.04309628 -0.07306297 -0.02861205 -0.013389623 -0.057127003 0.011943567 -0.017310997 -0.09188889
-0.018168403 0.0049121324 -0.03667492 0.00217555 -0.0021184566 -0.09132554 -0.042486057 -0.024139833
-0.00060811045 -0.013670997 -0.029138306 -0.069966525 -0.057538856 0.00023180198 -0.011129017 -0.059155587
-0.020275954 -0.0105324965 0.005721683 -0.04828461 -0.010826108 -4.6859393e-05 -0.040524352 0.0027227793
-0.08301872 -0.060308475 -0.015831562 0.02699063 -0.03638214 -0.057189774 -0.02520315 -0.03817174
-0.0585969 -0.051467843 -0.0460205 0.014271067 -0.015968245 0.025223661 -0.06230465 -0.052747373
0.0030554242 -0.0091570215 -0.050815757 -0.04476155 0.023381816 -0.005143933 -0.021331381 -0.047129504
-8.219107e-05 0.04657327 -0.015754273 0.00018610616 -0.028752908 -0.011882698 0.04221043 -0.03236046
-0.021166539 -0.011705955 -0.017540056 0.023671433 0.022336116 -0.07608535 -0.015281236 -0.02605226
-0.033396956 -0.026893128 -0.012715129 -0.05550481 -0.01935941 -0.04328257 -0.008853827 -0.0490629
-0.041851852 0.024875205 -0.048411734 -0.03392537 -0.029872613 -0.0037934093 -0.002090494 -0.026916692
-0.004200154 -0.021996241 -0.017998796 -0.029222153 0.030939443 -0.0689472 -0.031375587 -0.07993693
-0.04167062 0.0043192552 -0.025059303 -0.012906854 -0.021396993 0.015453401 -0.022250973 -0.0011014923
-0.07481792 -0.0033747903 -0.017493663 -0.013782267 -0.048924077 -0.024078054 -0.042813838 -0.03111339
0.021224188 -0.061311018 -0.038092982 -0.058339145 -0.060057558 -0.0067859255 0.025643973 -0.08013622
-0.017995954 0.012142609 -0.011078663 -0.010245617 0.0008089116 -0.0024058088 0.012655809 0.01906357
-0.021128908 -0.041045386 -0.03651871 0.021740817 -0.0212344 -0.048859116 0.033825196 -0.062199
-0.03225077 -0.078164056 0.0073152776 -0.068573944 -0.052880812 -0.07645173 -0.0345249 0.015867526
-0.023034886 -0.021786748 -0.003246141 0.04793236 0.008719686 -0.010022838 -0.0111612715 -0.032661367
0.026019746 -0.059081983 0.017425792 -0.037496675 -0.06532901 -0.0027019787 -0.043799095 -0.06810229
-0.022064844 0.024373889 -0.019099932 0.0046902862 -0.0008723106 0.027347349 -0.045533054 0.009539956
-0.04104355 -0.0031549465 0.019582147 0.010703917 -0.0057275114 -0.055259295 -0.05340014 -0.038117435
-0.040711522 -0.08049597 -0.016803589 -0.029064436 -0.020127838 0.021922125 -0.03710626 -0.08175073
00000000: 5559 e7bc 8d2b 55bc 850b 1bbd 1ead 71bc
00000010: 1fb8 1cbc 5edc 49bc 0178 53bc 3f45 cbbb
00000020: 6d8c 21bc 58c4 edba c7e2 2cbc 2a75 37bd
00000030: 3e0e f0bb 9e80 233c 0357 e4bc fd48 293d
00000040: 04c6 713d b05a bf3b 00e5 143d 603e 0ebc
00000050: c640 f2bc df66 503d b631 b7bd 2a2a 9ebc
00000060: 73ab a0bc 2347 41bd f300 03bd fac5 dabc
00000070: 461a 3ebd 61f1 a8bc 9080 55bd 6d49 75bc
00000080: de1e a9bd d9c2 55bd 95e6 acbb bbf4 04bd
00000090: 7cac d3bc 6728 4bbd e151 653c 301d 2dbd
000000a0: 04ec 09bc bca2 4fbd d2b6 a3bd 24f1 b8bc
000000b0: ca33 eebc 6efd 203c 783d 2c3d 896d 35bd
000000c0: 525d 83bd 54f7 10bd 66a5 893c ae9f 593c
000000d0: 8ce3 3c3c fb80 32bd f28e 69bc 7f88 133d
000000e0: 2663 bebb d40e 21bc 9dd3 a5bd 82a8 fdbc
000000f0: f732 b6bc 5998 24bc 943a 0fbd 1973 463d
00000100: 7aa1 b2bc b92a 71bd 94b6 d7bc fde6 4cbd
00000110: 07b0 1ebd ee43 61bd 6869 a8bc 2926 55bd
00000120: ba85 30bd 0aa2 95bd d163 eabc 2660 5bbc
00000130: 01fe 69bd f3ae 433c cbcf 8dbc 3e30 bcbd
00000140: e7d5 94bc f4f5 a03b 7138 16bd ac93 0e3b
00000150: ced5 0abb e208 bbbd dc05 2ebd e6c0 c5bc
00000160: 9a69 1fba 51fc 5fbc 75b3 eebc 9c4a 8fbd
00000170: ddad 6bbd df0f 7339 7b56 36bc 214d 72bd
00000180: c219 a6bc 7e90 2cbc f57c bb3b 15c6 45bd
00000190: fd5f 31bc e48a 44b8 ddfc 25bd a870 323b
000001a0: b805 aabd 0506 77bd 31b1 81bc 741b dd3c
000001b0: 7005 15bd d33f 6abd d676 cebc f859 1cbd
000001c0: 4e03 70bd f2cf 52bd fe7f 3cbd 32d1 693c
000001d0: d6cf 82bc daa1 ce3c 2933 7fbd a10d 58bd
000001e0: 833d 483b 5507 16bc 2f24 50bd e357 37bd
000001f0: 398b bf3c 708e a8bb 26bf aebc de0a 41bd
00000200: ff5d acb8 9dc3 3e3d 1b0f 81bc 7e25 4339
00000210: 388b ebbc a6af 42bc d8e4 2c3d 678c 04bd
00000220: 7365 adbc 55ca 3fbc 2ab0 8fbc 98ea c13c
00000230: 3bfa b63c a3d2 9bbd 265e 7abc 8d6b d5bc
00000240: 3fcb 08bd fa4e dcbc 1e53 50bc 0359 63bd
00000250: a097 9ebc 1049 31bd a40f 11bc 2ef6 48bd
00000260: d96c 2bbd 16c7 cb3c 624b 46bd 54f5 0abd
00000270: 69b7 f4bc d99a 78bb ab00 09bb 6580 dcbc
00000280: 72a1 89bb 7631 b4bc 3672 93bc 4c63 efbc
00000290: b774 fd3c 3134 8dbd b083 00bd f9b5 a3bd
000002a0: d0ae 2abd 8a88 8d3b 2b49 cdbc 4577 53bc
000002b0: bf48 afbc 4330 7d3c ac47 b6bc f35f 90ba
000002c0: 233a 99bd 962b 5dbb df4e 8fbc 05cf 61bc
000002d0: 9d64 48bd 573f c5bc 905d 2fbd 82e1 febc
000002e0: 59de ad3c 4321 7bbd 6307 1cbd 07f5 6ebd
000002f0: eafe 75bd 785c debb 4f13 d23c 751e a4bd
00000300: 406c 93bc cbf1 463c 4883 35bc 3bdd 27bc
00000310: 230d 543a c6aa 1dbb 4f5a 4f3c 342b 9c3c
00000320: 8816 adbc 351f 28bd a594 15bd cc19 b23c
00000330: c4f3 adbc 7f20 48bd 4a8c 0a3d 61c4 7ebd
00000340: 6219 04bd 7a14 a0bd ffb4 ef3b 7f70 8cbd
00000350: 8d99 58bd ba92 9cbd fb69 0dbd 9dfc 813c
00000360: a8b3 bcbc 1f7a b2bc 35bd 54bb b954 443d
00000370: 04dd 0e3c d436 24bc c4dd 36bc edc7 05bd
00000380: 5d27 d53c f3ff 71bd 89c0 8e3c 1d96 19bd
00000390: 37cb 85bd ae13 31bb ae66 33bd 3779 8bbd
000003a0: 55c1 b4bc c0ab c73c 7677 9cbc f9b0 993b
000003b0: c6ab 64ba 8c07 e03c de80 3abd 7a4d 1c3c
000003c0: 481d 28bd 38c3 4ebb bd6a a03c 7b5f 2f3c
000003d0: d9ad bbbb 9257 62bd 1bba 5abd 0721 1cbd
000003e0: 20c1 26bd 12db a4bd aea7 89bc 8a18 eebc
000003f0: 23e3 a4bc 0796 b33c bcfc 17bd ed6c a7bd

model.1.running_mean f4 [512]
-0.016391246 0.06610051 -0.1620387 -0.044710096 -0.1150899 -0.19539468 0.15344419 -0.054159842
-0.17865752 -0.069909275 -0.10279752 0.14451326 -0.01781526 -0.13764665 -0.041019008 -0.0025388356
0.14910157 0.037206795 -0.1487792 -0.052921347 0.18876061 -0.18839994 -0.068540186 0.20753115
-0.07529211 0.1681382 -0.11961352 0.17538056 0.13218144 -0.043603044 -0.13284309 -0.06192614
0.078287296 -0.063068874 -0.18215838 -0.17198862 0.07538209 0.18201134 -0.11615185 0.0434037
-0.11880118 0.12063907 -0.12666874 -0.09340041 -0.11655628 0.0029486977 0.064461894 -0.13180073
-0.070081726 -0.10596603 -0.06329811 -9.04965e-05 0.021458399 0.12915306 -0.08161121 0.004132116
0.17409085 0.019643076 -0.14086916 0.14681011 -0.16946012 0.1028662 0.19166608 -0.038968887
0.098233275 0.15635078 0.105862685 -0.05148343 0.040233314 0.14176022 0.0138763515 -0.16690323
0.1852411 0.2171394 0.12479095 0.14506267 0.12824029 -0.11708552 -0.111619145 0.08565565
0.08160493 0.12726204 -0.0008170847 -0.21578912 0.1275009 -0.13440968 -0.18095608 0.17398483
0.06512688 0.08410619 -0.100481294 0.12088333 -0.02926425 0.15704091 0.014816399 0.2159012
-0.020688836 0.19100432 0.15975988 0.024217324 -0.15265223 -0.00011421577 0.13293193 -0.13368347
-0.09158382 0.10458012 0.070700966 0.17651738 0.026235707 0.003919903 0.020690635 -0.00069242716
-0.23110993 -0.114376865 -0.22362097 0.14142036 -0.021141045 -0.027453562 -0.008917206 -0.071415134
-0.11247293 -0.02489351 0.039795496 -0.12405742 -0.09223213 0.077473216 -0.058496863 0.11226253
0.23498848 0.16176307 -0.1864482 -0.00095194764 -0.14403765 0.030330664 0.004923653 -0.115543775
0.10087765 -0.07600218 0.13938594 0.015229513 0.1823251 0.14433247 0.021107137 0.047004156
-0.09464785 -0.11349865 0.18016027 0.16440767 0.0723345 0.15790595 0.14005652 0.13595554
-0.07494646 0.05686249 -0.1360038 -0.17743236 0.099840224 -0.09837997 0.16876946 -0.15917061
-0.16348627 -0.1534182 0.15578228 -0.15222964 -0.23132819 0.09916264 -0.034436848 -0.19590372
0.122027785 0.14261404 0.1799764 0.12886705 -0.14940038 -0.05867476 -0.085537456 -0.1870534
0.13451312 -0.098964535 0.04285718 -0.113954276 0.19164059 0.14522915 0.13871561 0.09816431
0.23663712 0.07848422 0.02261003 -0.031928375 0.19612208 -0.20715076 0.14122243 -0.02301313
0.009576252 -0.09346709 -0.08790033 0.058808867 -0.06301451 0.1017994 -0.007520072 -0.16980629
0.109248444 -0.070535295 -0.03562211 -0.05293876 0.062410265 -0.14134623 -0.14432813 0.091782376
-0.050892167 -0.05801057 -0.19080389 0.025154408 0.12640856 -0.08691588 -0.032536685 -0.019485552
-0.06682326 0.18089867 0.07507811 0.07079309 -0.024683155 -0.0033340836 0.10970703 -0.033567514
-0.005825478 0.1604118 0.13154665 -0.029652951 -0.1810437 0.02680285 -0.13402672 -0.1490857
0.12926 -0.19651815 0.19751938 -0.22475141 -0.13805823 0.1562256 0.0443661 -0.068410285
0.053990863 -0.111006156 -0.19436738 -0.18574277 -0.11904964 -0.22957176 0.18421997 -0.08958982
0.027664423 -0.097760536 -0.071704134 0.16960049 0.011814553 0.099062815 0.07470269 -0.13792185
00000000: ef46 86bc b45f 873d 79ed 25be ef21 37bd
00000010: 41b4 ebbd 8b15 48be 7920 1d3e b6d6 5dbd
00000020: fff1 36be 982c 8fbd 8287 d2bd 49fb 133e
00000030: 4ff1 91bc 3ef3 0cbe 8c03 28bd 9862 26bb
00000040: 15ae 183e 2766 183d 9359 18be 0ec4 58bd
00000050: 764a 413e eaeb 40be cc5e 8cbd 0c83 543e
00000060: c032 9abd 6c2c 2c3e eff7 f4bd f696 333e
00000070: 925a 073e 1b99 32bd 0508 08be 44a6 7dbd
00000080: 1755 a03d 412a 81bd ba87 3abe c91d 30be
00000090: ed61 9a3d 2e61 3a3e 05e1 edbd 14c8 313d
000000a0: 084e f3bd 9e11 f73d 73b5 01be b748 bfbd
000000b0: 0fb5 eebd f03e 413b 9904 843d c5f6 06be
000000c0: 0287 8fbd b804 d9bd 71a2 81bd f0c8 bdb8
000000d0: 86c9 af3c b340 043e c723 a7bd b466 873b
000000e0: df44 323e 84ea a03c 0140 10be 6455 163e
000000f0: f486 2dbe 84ab d23d 1d44 443e d79d 1fbd
00000100: 872e c93d 6b1a 203e 89ce d83d 4ae0 52bd
00000110: b0cb 243d 9729 113e a359 633c aee8 2abe
00000120: d8af 3d3e ca59 5e3e 6692 ff3d 4f8b 143e
00000130: 6c51 033e 88ca efbd 9498 e4bd 3b6c af3d
00000140: 7c20 a73d fb50 023e a031 56ba d3f7 5cbe
00000150: 998f 023e b1a2 09be 8d4c 39be 1429 323e
00000160: 3e61 853d de3f ac3d 23c9 cdbd ae91 f73d
00000170: 95bb efbc 55cf 203e 7bc0 723c 3415 5d3e
00000180: a27b a9bc a396 433e 1898 233e 6963 c63c
00000190: de50 1cbe 2087 efb8 4f1f 083e 52e4 08be
000001a0: 4c90 bbbd 1a2e d63d abcb 903d f9c0 343e
000001b0: 44ec d63c 8872 803b 687f a93c 0084 35ba
000001c0: 15a8 6cbe 6b3e eabd e5fc 64be 80d0 103e
000001d0: fc2f adbc 4be6 e0bc 7919 12bc 1942 92bd
000001e0: 3558 e6bd 79ed cbbc 9a00 233d d111 febd
000001f0: 33e4 bcbd 47aa 9e3d 689a 6fbd e6e9 e53d
00000200: d2a0 703e 38a5 253e 47ec 3ebe 208c 79ba
00000210: 9b7e 13be 0378 f83c 9856 a13b 37a2 ecbd
00000220: f198 ce3d 08a7 9bbd 30bb 0e3e 3585 793c
00000230: 6eb3 3a3e e4cb 133e e0e8 ac3c 6e87 403d
00000240: bbd6 c1bd fb71 e8bd ef7b 383e 7c5a 283e
00000250: 1c24 943d 19b2 213e fa6a 0f3e ee37 0b3e
00000260: 887d 99bd a4e8 683d 9544 0bbe d4b0 35be
00000270: 0879 cc3d 707b c9bd e7d1 2c3e 9ffd 22be
00000280: f268 27be a919 1dbe 6485 1f3e 16e2 1bbe
00000290: 4ce1 6cbe c815 cb3d a70d 0dbd fc9a 48be
000002a0: b4e9 f93d 6a09 123e bc4b 383e b9f5 033e
000002b0: 6afc 18be f254 70bd 432e afbd ed8a 3fbe
000002c0: cfbd 093e ebad cabd 038b 2f3d dc60 e9bd
000002d0: 6e3d 443e f3b6 143e 770b 0e3e 5f0a c93d
000002e0: 0051 723e 56bc a03d ab38 b93c 54c7 02bd
000002f0: 3ad4 483e 541f 54be 9d9c 103e 0886 bcbc
00000300: b6e5 1c3c ac6b bfbd 1705 b4bd 91e1 703d
00000310: c00d 81bd 347c d03d f06a f6bb b3e1 2dbe
00000320: a6bd df3d cf74 90bd 7de8 11bd 50d6 58bd
00000330: e8a1 7f3d 11bd 10be c1ca 13be 66f8 bb3d
00000340: 4e74 50bd 7e9c 6dbd 1862 43be 9e10 ce3c
00000350: 3f71 013e f400 b2bd 3045 05bd 2aa0 9fbc
00000360: a2da 88bd 803d 393e 8dc2 993d f8fb 903d
00000370: 5434 cabc a480 5abb 14ae e03d 177e 09bd
00000380: a7e3 bebb fe42 243e 2ab4 063e bfea f2bc
00000390: 8563 39be a791 db3c 4d3e 09be eca9 18be
000003a0: bc5c 043e 0e3c 49be 8542 4a3e 3c25 66be
000003b0: 235f 0dbe 9bf9 1f3e 3ab9 353d b11a 8cbd
000003c0: 8625 5d3d 3257 e3bd 3e08 47be 5a33 3ebe
000003d0: 4cd0 f3bd dc14 6bbe 29a4 3c3e de7a b7bd
000003e0: 80a0 e23c ad36 c8bd 9ed9 92bd c0ab 2d3e
000003f0: d491 413c 72e1 ca3d b9fd 983d 633b 0dbe

model.1.running_var f4 [512]
0.30154788 0.14506829 0.109600656 0.9712529 1.1115232 0.22574367 0.1632696 0.11323291
0.26522452 0.26804104 0.2430695 0.6658841 0.14609468 0.5173152 0.45759267 0.35434437
0.1927626 0.14256893 0.62191576 0.28732437 0.24606006 0.4614459 0.2931109 0.5988805
0.19180943 0.19628236 0.37566587 0.24859203 0.2770602 0.6034386 0.28905255 0.28740045
0.23737615 0.36774886 0.23423116 0.506316 0.19321194 0.17494512 0.22202337 0.27730998
0.063816 0.16424663 0.1480053 0.22937305 0.19588934 0.61558264 0.2310405 0.92696214
0.41705266 0.30667323 0.101428814 0.08526542 0.10738307 0.5968804 0.2298842 0.20802063
0.11127166 0.3738149 0.26551104 0.13708773 0.49839094 0.31794527 0.57547194 0.15281588
0.06407104 0.11119509 0.18273127 0.22338244 0.45271295 0.22367452 0.629439 0.46279672
0.2517497 0.16814768 0.25210068 0.16218218 0.50714225 0.2677039 0.086237215 0.33438963
0.6580791 0.15615956 0.12501298 0.08905018 0.33935228 0.40123448 0.15994103 0.36096126
0.4873657 0.16954367 0.4126027 0.3182493 0.414905 0.3435538 0.18449838 0.41799608
0.08922575 0.1290927 0.2881635 0.51084805 0.3039694 0.32476312 0.31816727 0.4969685
0.20626542 0.13238826 0.14069079 0.07190486 0.43391514 0.28812453 0.16466661 0.66170746
0.11253192 0.35749897 0.39690447 0.21860792 0.2689243 0.3858876 0.18418553 0.44690937
0.107481636 0.32956612 0.47524247 0.35565236 0.21531728 0.22936866 0.25771677 0.24847415
0.09029452 0.15050323 0.38158676 0.1088808 0.10960724 0.30510578 0.20111762 0.43119577
0.33513027 0.11347108 0.3443379 0.09425775 0.07823862 0.33766845 0.19738998 0.33878702
0.4092701 0.19009826 0.17811453 0.45284498 1.0018464 0.6831335 0.10955102 0.57690483
0.32273346 0.12643443 0.15018325 0.30631632 0.13431114 0.16890295 0.23004776 0.35590768
0.31536508 0.3550822 0.11074377 0.08442494 0.098499216 0.4190375 0.1369205 0.31348866
0.089264564 0.16075641 0.17693579 0.22606792 0.18471612 0.4045207 0.13320917 0.34003788
0.14922284 0.23845871 0.21427934 0.17294042 0.3498562 0.17638773 0.15336871 0.1894045
0.42048332 0.36807203 0.15527754 0.36719462 0.22705619 0.22024041 0.11171718 0.2923189
0.13734944 0.11949809 0.6574964 0.2921764 0.18962267 0.19754428 0.07061138 0.08409776
0.24926643 0.24876453 0.4558194 0.16434501 0.24407175 0.3797655 0.121900335 0.2945703
0.3226983 0.1494923 0.22353052 0.3030582 0.4013768 0.2533256 0.39004195 0.22348225
0.31259558 0.2792033 0.24701045 0.25781962 0.21345767 0.24608602 0.22941601 0.6555599
0.121976025 0.24352509 0.23220582 0.6124314 0.19370407 0.16596049 0.17065108 0.13061063
0.5572639 0.1019928 0.39104772 0.16858967 0.086697556 0.13709797 0.3625457 0.11477841
0.62224495 0.15386406 0.16136648 0.1693138 0.45723847 1.1185412 0.17035648 0.19808882
0.20961311 0.265498 0.19266114 0.17039452 0.87192494 0.17351447 0.5720008 0.60313976
00000000: 7c64 9a3e c88c 143e 4f76 e03d 08a4 783f
00000010: 6446 8e3f 5929 673e 2530 273e a8e6 e73d
00000020: 82cb 873e ad3c 893e 36e7 783e 6177 2a3f
00000030: d899 153e c56e 043f 9649 ea3e a06c b53e
00000040: 8f63 453e 97fd 113e df35 1f3f 2e1c 933e
00000050: 2bf7 7b3e a342 ec3e a212 963e 3c50 193f
00000060: b169 443e 3efe 483e 4757 c03e e98e 7e3e
00000070: d6da 8d3e f47a 1a3f b2fe 933e 2726 933e
00000080: bc12 733e 9449 bc3e 4bda 6f3e ed9d 013f
00000090: 5ad9 453e d024 333e 185a 633e 93fb 8d3e
000000a0: f7b1 823d 4530 283e b48e 173e c5e0 6a3e
000000b0: 3797 483e d396 1d3f e195 6c3e 644d 6d3f
000000c0: ed87 d53e 4604 9d3e e9b9 cf3d a39f ae3d
000000d0: a8eb db3d 27cd 183f c466 6b3e 5c03 553e
000000e0: 65e2 e33d ab64 bf3e 10f1 873e ba60 0c3e
000000f0: 192d ff3e b9c9 a23e 2152 133f c47b 1c3e
00000100: ad37 833d 40ba e33d e81d 3b3e 5ebe 643e
00000110: fec9 e73e ef0a 653e ea22 213f b1f3 ec3e
00000120: 56e5 803e e82e 2c3e 5713 813e 1613 263e
00000130: 13d4 013f 7c10 893e 239d b03d 1e35 ab3e
00000140: df77 283f 4be8 1f3e 6703 003e f15f b63d
00000150: 95bf ad3e 9b6e cd3e 95c7 233e eacf b83e
00000160: ff87 f93e db9c 2d3e a940 d33e 92f1 a23e
00000170: 6e6e d43e 49e6 af3e 25ed 3c3e 9503 d63e
00000180: fdbb b63d e030 043e 2b8a 933e f0c6 023f
00000190: e1a1 9b3e 5a47 a63e d2e6 a23e a872 fe3e
000001a0: 3e37 533e ca90 073e 3f11 103e db42 933d
000001b0: 202a de3e 0f85 933e 5d9e 283e a965 293f
000001c0: 2377 e63d 1b0a b73e 1037 cb3e c1da 5f3e
000001d0: 72b0 893e 0f93 c53e 229b 3c3e 4ed1 e43e
000001e0: 551f dc3d e4bc a83e fb52 f33e 1118 b63e
000001f0: 227c 5c3e 9edf 6a3e 74f3 833e 0270 7e3e
00000200: 55ec b83d 851d 1a3e 575f c33e e6fc de3d
00000210: c379 e03d d336 9c3e c7f1 4d3e b1c5 dc3e
00000220: 3296 ab3e 8763 e83d 0f4d b03e 350a c13d
00000230: 923b a03d e1e2 ac3e 9920 4a3e 7e75 ad3e
00000240: da8b d13e 1ea9 423e a863 363e 4cdb e73e
00000250: 813c 803f d6e1 2e3f 495c e03d 09b0 133f
00000260: 523d a53e 0778 013e a3c9 193e 7ed5 9c3e
00000270: dc88 093e e5f4 2c3e a491 6b3e 8839 b63e
00000280: 8877 a13e 56cd b53e a1cd e23d fce6 ac3d
00000290: f5b9 c93d 158c d63e e334 0c3e 9681 a03e
000002a0: 57d0 b63d 549d 243e a82e 353e 597e 673e
000002b0: 3926 3d3e 561d cf3e fc67 083e 7219 ae3e
000002c0: dfcd 183e 852e 743e 0b6c 5b3e 4b17 313e
000002d0: 5a20 b33e fc9e 343e b00c 1d3e 41f3 413e
000002e0: 9749 d73e f073 bc3e 1301 1f3e ef00 bc3e
000002f0: 6b81 683e b486 613e facb e43d d3aa 953e
00000300: 55a5 0c3e 6abb f43d af51 283f 2598 953e
00000310: 722c 423e 0c49 4a3e b39c 903d 723b ac3d
00000320: b33f 7f3e 21bc 7e3e 2961 e93e 0f4a 283e
00000330: f2ed 793e a070 c23e e2a6 f93d ebd1 963e
00000340: b638 a53e 8214 193e 2fe5 643e 722a 9b3e
00000350: 4381 cd3e e5b3 813e 94b3 c73e 88d8 643e
00000360: 870c a03e bcf3 8e3e 4ff0 7c3e ef00 843e
00000370: a694 5a3e f9fd 7b3e 08ec 6a3e c6d2 273f
00000380: 91ce f93d a45e 793e 5dc7 6d3e 4ec8 1c3f
00000390: 5c5a 463e 8cf1 293e 28bf 2e3e cbbe 053e
000003a0: d9a8 0e3f 9ae1 d03d 6837 c83e c5a2 2c3e
000003b0: 7d8e b13d 6963 0c3e 979f b93e f110 eb3d
000003c0: 724b 1f3f 8a8e 1d3e 413d 253e 9960 2d3e
000003d0: 291b ea3e 5c2c 8f3f ee71 2e3e ccd7 4a3e
000003e0: d2a4 563e 5bef 873e f648 453e e77b 2e3e
000003f0: 7936 5f3f c7ad 313e a56e 123f 5e67 1a3f

model.3.weight f4 [256, 512]
0.0049133305 -0.00068386266 0.06785846 0.022043861 -0.046780366 -0.033547673 0.072977744 0.09225674
0.004659887 -0.032007396 -0.019471494 0.023214998 -0.045824688 -0.033051297 0.031786643 0.06609229
-0.058661215 -0.008937626 0.025807759 0.029291429 -0.0031583493 -0.0037880146 -0.037696406 -0.018608475
-0.00057404 -0.0066535235 -0.030085523 -0.023249209 0.014572383 -0.0010425957 0.04749895 0.046162866
0.011860793 -0.006349096 -0.0064851316 -0.034851454 -0.028811323 -0.011292816 -0.010272616 0.034001883
-0.027727319 -0.021228082 -0.018486684 -0.045143377 0.024576802 -0.016460996 -0.021025248 -0.024323089
0.0073170504 0.014470533 -0.01794415 0.04846341 0.027095104 -0.026948422 0.01651863 0.029368978
0.015010768 -0.005716644 -0.016218338 0.006404909 0.026813503 -0.028991573 0.025704574 0.039984737
0.0007516274 0.0031158938 0.04596535 -0.01205959 -0.03621916 -0.050917577 0.029000433 0.0070819645
0.0033211512 0.027511898 -0.015876248 0.0068948683 -0.017994182 0.032556705 -0.0024605081 -0.042236883
0.01607837 0.046334244 -0.018486453 -0.002976214 -0.03862685 -0.024594575 0.014142578 0.018289922
0.0102550695 0.026484096 -0.049335785 0.054362938 -0.033282947 0.021057995 0.031732988 -0.008295522
-0.0022258777 0.018311234 0.0012384317 0.0040467996 -0.02107272 0.0154158585 -0.032299146 -0.013826989
-0.029300455 0.018846847 0.06451074 0.012037908 -0.027329858 0.06044856 0.025245266 0.055490565
-0.008774132 0.022105556 0.030665977 -0.0038704874 -0.010305553 0.01716786 0.029457351 0.011199212
0.07208631 0.039194506 -0.012905487 -0.074361354 0.058799997 0.022369104 -0.0077564297 0.030206554
0.06622121 0.03673722 -0.019581845 -0.042878672 0.07479093 -0.011104177 -0.061778434 0.02980819
-0.014151375 -0.065128155 -0.032539237 0.04426555 0.028743805 -0.037038676 0.016397633 0.031453986
0.007995136 0.048280954 -0.031340454 -0.025634697 0.036206253 -0.023789328 0.008912313 0.046736367
-0.037742164 -0.039073076 0.09922011 -0.015410351 -0.06634791 0.02685254 0.010095977 -0.023660282
0.030762324 -0.023524716 -0.00966547 -0.028947638 0.00040930999 0.041653965 0.01776348 0.008523418
0.04487058 0.041022517 0.027454156 0.0050694984 -0.013165441 -0.051381193 0.017932156 -0.036546573
0.020991398 0.0578592 0.02898634 0.0103816 -0.0036657562 0.028998608 0.022801364 0.017021978
-0.01992473 0.037189797 -0.005161005 -0.033071987 0.0025175014 -0.0051229754 -0.028954187 -0.029642817
-0.0050005466 0.03521326 0.008251539 -0.013775559 0.048025668 -0.01828449 0.015498598 0.069577165
7.164018e-05 0.008879499 0.012516394 0.018091321 0.0076114265 0.0039055292 0.030664634 -0.024310902
0.051915303 -0.0070994524 0.062280037 -0.016559128 0.038148705 -0.011351982 0.006829987 -0.0029685474
0.007905581 -0.03289143 0.036783807 0.006781999 -0.015919039 0.03500719 -0.027370729 0.018293126
-0.010323182 0.024948051 0.010130316 -0.0063598882 -0.062716484 0.05027878 0.016521357 0.03809889
-0.0018207284 0.02336874 -0.033809185 -0.014377031 0.00019919095 -0.017681776 0.047659263 0.016552448
0.012349534 0.0038223078 -0.002671415 0.011721837 0.03439881 0.018721044 0.02066322 -0.052545026
-0.014764871 -0.021094805 0.004643562 0.026688159 -0.0005514084 -0.025501113 0.02367669 0.009207215
00000000: 0100 a13b 3f45 33ba 60f9 8a3d 5495 b43c
00000010: c59c 3fbd 4969 09bd 5b75 953d 1af1 bc3d
00000020: f7b1 983b 301a 03bd af82 9fbc 612d be3c
00000030: abb2 3bbd cc60 07bd b632 023d 655b 873d
00000040: be46 70bd 1f6f 12bc cb6a d33c 94f4 ef3c
00000050: 4ffc 4ebb 5740 78bb 8c67 1abd cd70 98bc
00000060: 2c7b 16ba cd05 dabb ea75 f6bc 2075 bebc
00000070: 01c1 6e3c b5a7 88ba 428e 423d 4615 3d3d
00000080: c653 423c 140c d0bb 3a81 d4bb 66c0 0ebd
00000090: b905 ecbc 8105 39bc 794e 28bc 8f45 0b3d
000000a0: 6724 e3bc 84e6 adbc 6371 97bc 43e8 38bd
000000b0: 4a55 c93c 36d9 86bc 243d acbc 3741 c7bc
000000c0: dec3 ef3b d015 6d3c 9cff 92bc 9281 463d
000000d0: 8df6 dd3c f0c2 dcbc 1452 873c 3697 f03c
000000e0: b9ef 753c b052 bbbb 52dc 84bc 45e0 d13b
000000f0: fea7 db3c bc7f edbc 6692 d23c 09c7 233d
00000100: dc08 453a 0634 4c3b 2a46 3c3d 9695 45bc
00000110: 8b5a 14bd f38e 50bd 5192 ed3c d30f e83b
00000120: aca7 593b a260 e13c e80e 82bc 59ee e13b
00000130: 8968 93bc 2e5a 053d 7a40 21bb 9500 2dbd
00000140: c9b6 833c fac8 3d3d e770 97bc 960c 43bb
00000150: 3037 1ebd 907a c9bc 45b6 673c bfd4 953c
00000160: e104 283c 2df5 d83c 5214 4abd acab 5e3d
00000170: b353 08bd d181 ac3c 73fa 013d f1e9 07bc
00000180: 08e0 11bb 7101 963c df52 a23a 049b 843b
00000190: b2a0 acbc cc92 7c3c 1c4c 04bd 988a 62bc
000001a0: 8207 f0bc b464 9a3c 351e 843d a53a 453c
000001b0: dee2 dfbc e998 773d 29cf ce3c 134a 633d
000001c0: 60c1 0fbc b616 b53c 3737 fb3c 01a8 7dbb
000001d0: 9fd8 28bc 9da3 8c3c 8b50 f13c e67c 373c
000001e0: fda1 933d 6b8a 203d 8971 53bc c44a 98bd
000001f0: 44d8 703d 693f b73c a629 febb bc73 f73c
00000200: fc9e 873d c479 163d 1b6a a0bc 8ca1 2fbd
00000210: fd2b 993d 4bee 35bc 620b 7dbd 4e30 f43c
00000220: 2bdb 67bc e961 85bd dd47 05bd cb4f 353d
00000230: 2178 eb3c deb5 17bd 5454 863c e5d5 003d
00000240: 08fe 023c 40c2 453d d95e 00bd dbff d1bc
00000250: 024d 143d d6e1 c2bc f304 123c a26e 3f3d
00000260: 8797 1abd 170b 20bd ea33 cb3d b27b 7cbc
00000270: 6ae1 87bd dcf9 db3c 9969 253c 35d3 c1bc
00000280: 4501 fc3c e8b6 c0bc eb5b 1ebc 9923 edbc
00000290: a898 d639 599d 2a3d b884 913c cea5 0b3c
000002a0: 37ca 373d 3a07 283d 8ae7 e03c 091e a63b
000002b0: ddb3 57bc 1675 52bd 75e6 923c dcb1 15bd
000002c0: 27f6 ab3c c5fd 6c3d c374 ed3c 9617 2a3c
000002d0: 2f3d 70bb 7d8e ed3c edc9 ba3c ad71 8b3c
000002e0: 3039 a3bc 5454 183d a61d a9bb 7e76 07bd
000002f0: aafc 243b a2de a7bb 5531 edbc 7ed5 f2bc
00000300: a0db a3bb c83b 103d 7731 073c e2b2 61bc
00000310: 90b6 443d 5bc9 95bc d5ed 7d3c 797e 8e3d
00000320: 873d 9638 517b 113c 9011 4d3c 4034 943c
00000330: 4669 f93b e8f3 7f3b 6634 fb3c a827 c7bc
00000340: 24a5 543d 86a2 e8bb 5a19 7f3d 02a7 87bc
00000350: d141 1c3d aafd 39bc 15ce df3b f68b 42bb
00000360: 6986 013c 2ab9 06bd 9eaa 163d 883b de3b
00000370: a568 82bc b363 0f3d 9438 e0bc 77db 953c
00000380: 9022 29bc db5f cc3c a0f9 253c 9c66 d0bb
00000390: 8071 80bd 1ff1 4d3d cc57 873c 950d 1c3d
000003a0: 82a5 eeba cd6f bf3c 807b 0abd a38d 6bbc
000003b0: eadd 5039 5fd9 90bc 5c36 433d 0099 873c
000003c0: b355 4a3c af7f 7a3b e812 2fbb f30c 403c
000003d0: c4e5 0c3d e05c 993c ea45 a93c 7439 57bd
000003e0: 5ce8 71bc 03cf acbc 0529 983b 20a1 da3c
000003f0: 648c 10ba b6e7 d0bc 9ef5 c13c dcd9 163c

model.3.bias f4 [256]
0.010630116 0.025046624 0.03905249 0.035180796 -0.008119161 -0.016754117 0.02035205 0.028362248
0.02268939 -0.037096817 0.015913248 -0.027568866 0.0006691415 0.037821252 -0.036402766 0.04244562
-0.029662369 -0.030106366 -0.02800799 0.025194652 -0.015326556 0.04260332 0.02135237 -0.018351058
0.0070037455 0.010235286 0.004694221 -0.041644856 0.030140322 0.03579547 -0.014006438 0.012074682
0.021890452 0.023911027 0.040851556 -0.018951146 0.00441209 0.009421127 -0.002039464 0.023779064
0.02214085 -0.012196741 0.012680942 -0.007919149 0.009917613 -0.035409182 0.028580526 -0.025874812
0.032943018 0.024064295 0.03788856 -0.039132256 0.026841827 -0.026757853 -0.03764343 -0.004289744
-0.043339588 -0.0033947006 0.040288344 0.03252003 0.020340178 -0.020214293 0.011856118 -0.027027776
0.026342059 -0.034778677 0.009967874 -0.019136414 0.01990672 0.015063808 0.0047578895 0.009843084
-0.018282555 -0.021662617 -0.005229747 0.041764747 0.025949933 0.025759079 -0.036269035 -0.031895667
0.0055930316 0.024822095 -0.024010332 0.03496304 -0.029761998 -0.042146314 0.030201888 0.036148697
0.043974787 -0.01794404 0.020630695 0.006607954 -0.02539119 -0.001941018 0.015703358 0.022397365
0.019304762 0.032852035 0.029574784 0.035429735 -0.01775495 -0.042921968 0.024387706 -0.027736971
-0.01898561 -0.010683058 -0.026028695 0.022021025 0.004818345 0.03748608 -0.02541 0.0041844673
-0.00049385725 0.03845935 -0.01459237 -0.00066265435 -0.01322106 0.04404706 0.023228867 -0.0043420577
0.0063047996 0.0002931098 -0.025458505 0.027775543 -0.0190467 0.026110297 -0.011936688 -0.021919558
-0.021367097 -0.0103958 -0.016160095 -0.028057812 -0.034022674 -0.012084645 -0.02113543 0.03502136
-0.0061576907 0.02984833 -0.039656166 -0.0130842915 -0.042250074 -0.04004375 0.041105863 -0.018203838
-0.018351046 6.0453563e-06 -0.02272241 0.024528826 0.01798898 0.038746506 -0.0005977149 -0.0050810236
0.025590545 -0.04268261 0.01210596 0.036994208 -0.036664903 0.005797784 0.028773874 -0.016811747
0.0035153003 -0.03983701 0.012516653 -0.030454261 -0.0018775073 0.033994384 0.02182326 0.0015973852
-0.0018895018 -0.0144628985 0.016883636 -0.041922163 0.035474654 -0.014735631 -0.0038773792 -0.0025841494
0.04179158 0.030298218 -0.009875724 -0.03624372 0.006595388 -0.040102772 -0.028241433 0.010033858
0.042962216 0.037814714 0.006435569 -0.011854999 0.039011095 -0.039081734 0.0068149595 -0.00874204
0.0010410697 0.01250648 0.028299347 0.01125938 -0.013729916 0.010428606 0.023065506 0.022971757
-0.03656593 -0.022940317 -0.017882828 0.008449079 0.01595125 -0.004381361 0.028733734 -0.0314485
0.008619747 -0.026860699 0.018287836 -0.0012770979 -0.03918352 0.020861868 0.0121667115 0.029980538
0.0072940234 0.00026302558 -0.02837227 -0.03638584 -0.016094072 0.014452505 -0.033512138 -0.04335969
-0.015156587 0.031699967 0.019020138 0.035511885 0.0064609526 -0.040726922 -0.01768639 -0.033433888
0.008338944 0.019368503 -0.021903677 -0.024359463 0.02137099 -0.039810102 0.014811248 0.03804738
-0.04423922 -0.00334221 -0.012591775 -0.008810393 0.034859568 0.0018028314 0.031436123 -0.04287188
0.033609957 0.010636241 0.018060135 0.007147206 -0.026262788 0.04168238 -0.004457591 0.021773418
00000000: f029 2e3c 942e cd3c 81f5 1f3d bd19 103d
00000010: 3b06 05bc ee3f 89bc 58b9 a63c f257 e83c
00000020: 1adf b93c d5f2 17bd 805c 823c 1ad8 e1bc
00000030: 5369 2f3a 75ea 1a3d 111b 15bd 75db 2d3d
00000040: 7ffe f2bc a0a1 f6bc 0371 e5bc 0465 ce3c
00000050: 3c1c 7bbc d280 2e3d 2aeb ae3c f554 96bc
00000060: ad7f e53b e7b1 273c fbd1 993b cc93 2abd
00000070: d6e8 f63c 459e 123d 427b 65bc e3d4 453c
00000080: 9b53 b33c 0fe1 c33c f653 273d 6f3f 9bbc
00000090: 4b93 903b 125b 1a3c 87a8 05bb 50cc c23c
000000a0: ba60 b53c d7d4 47bc bac3 4f3c 51bf 01bc
000000b0: 7c7d 223c 3809 11bd b521 ea3c 6af7 d3bc
000000c0: 42ef 063d 7c22 c53c 0931 1b3d 2549 20bd
000000d0: 64e3 db3c 4933 dbbc ff2f 1abd fb90 8cbb
000000e0: da84 31bd a079 5ebb 6405 253d b933 053d
000000f0: 72a0 a63c 7298 a5bc 2a40 423c 5b69 ddbc
00000100: 4dcb d73c 1674 0ebd 4b50 233c f8c3 9cbc
00000110: 6b13 a33c 31ce 763c 12e8 9b3b e344 213c
00000120: 4cc5 95bc cd75 b1bc 4c5e abbb 8311 2b3d
00000130: f494 d43c b404 d33c d78e 14bd 08a5 02bd
00000140: c045 b73b b557 cb3c 51b1 c4bc 6835 0f3d
00000150: 6fcf f3bc 9da1 2cbd f369 f73c a810 143d
00000160: e81e 343d 61ff 92bc b401 a93c 8987 d83b
00000170: 2f01 d0bc c269 feba 54a4 803c ae7a b73c
00000180: 0525 9e3c db8f 063d d146 f23c c51e 113d
00000190: d472 91bc f2ce 2fbd bac8 c73c a538 e3bc
000001a0: b687 9bbc fe07 2fbc 213a d5bc 7065 b43c
000001b0: 35e3 9d3b 018b 193d a228 d0bc db1d 893b
000001c0: 3376 01ba 8d87 1d3d d614 6fbc fbb5 2dba
000001d0: 259d 58bc b16a 343d 774a be3c d247 8ebb
000001e0: 7e98 ce3b 88ac 9939 5b8e d0bc 8989 e33c
000001f0: d307 9cbc 43e5 d53c 1992 43bc a590 b3bc
00000200: 0d0a afbc 2553 2abc 2d62 84bc 7fd9 e5bc
00000210: 5c5b 0bbd adfe 45bc 3624 adbc 8f72 0f3d
00000220: 74c6 c9bb 7c84 f43c 816e 22bd 7f5f 56bc
00000230: 6a0e 2dbd ea04 24bd 9f5e 283d 3720 95bc
00000240: ef54 96bc 37d9 ca36 5924 babc adf0 c83c
00000250: a05d 933c a8b4 1e3d f8af 1cba b77e a6bb
00000260: 43a3 d13c f6d3 2ebd 1458 463c 3d87 173d
00000270: f02d 16bd 56fb bd3b 30b7 eb3c cab8 89bc
00000280: f460 663b 222c 23bd a612 4d3c 377b f9bc
00000290: b116 f6ba b23d 0b3d b1c6 b23c 5a5f d13a
000002a0: 29a9 f7ba cbf5 6cbc 8d4f 8a3c 93b6 2bbd
000002b0: df4d 113d b76d 71bc a11b 7ebb d55a 29bb
000002c0: a62d 2b3d f833 f83c cacd 21bc 4c74 14bd
000002d0: 201e d83b ce42 24bd 945a e7bc 0d65 243c
000002e0: 26f9 2f3d 9ae3 1a3d 77e1 d23b 783b 42bc
000002f0: 19ca 1f3d 2b14 20bd 0650 df3b c63a 0fbc
00000300: 8174 883a fbe7 4c3c 08d4 e73c 4379 383c
00000310: 71f3 60bc bedc 2a3c dff3 bc3c 442f bc3c
00000320: 28c6 15bd 55ed bbbc 027f 92bc 016e 0a3c
00000330: 32ac 823c 8591 8fbb 0263 eb3c 24d0 00bd
00000340: d739 0d3c f80a dcbc 5fd0 953c 4b64 a7ba
00000350: e67e 20bd 82e6 aa3c e356 473c bf99 f53c
00000360: b402 ef3b b2e6 8939 f66c e8bc 5209 15bd
00000370: b7d7 83bc 33ca 6c3c 0644 09bd ee99 31bd
00000380: 5553 78bc d3d7 013d 1fd0 9b3c e974 113d
00000390: 66b6 d33b 46d1 26bd 0ce3 90bc f9f1 08bd
000003a0: 11a0 083c b2aa 9e3c 576f b3bc 7f8d c7bc
000003b0: 3712 af3c eb0f 23bd e0aa 723c 92d7 1b3d
000003c0: 2f34 35bd fb08 5bbb bb4d 4ebc 7759 10bc
000003d0: e8c8 0e3d fc4c ec3a 2ac3 003d 6d9a 2fbd
000003e0: 98aa 093d a143 2e3c d9f2 933c 1c33 ea3b
000003f0: 0f25 d7bc 25bb 2a3d fc10 92bb 2b5e b23c
