best-model-by-loss.pth (torch, 62091 bytes, 3 tensors)

model.0.weight f4 [512, 27]
00000000: d7bc c73c 2be4 9ebd 59a5 91bb 8919 89bd
00000010: e568 b23d e8d8 b2bd 328c 47bc 67ee 843e
00000020: ee11 56bd c0f6 aebd bf53 9fbc fdc1 cf3d
00000030: 0c05 48bc 20c3 66be 69a6 333e d790 683c
00000040: fa90 a4bd 0f47 f83d 9367 723e b7d3 4d3d
00000050: e184 3d3e 04f0 173e 4748 ae3c 30af 1e3e
00000060: 0f5e f1bd 6c55 bdbb 1463 233d 45d5 f4bd
00000070: 0aa8 983d 1014 353e 80fe a3bd 6f30 a5bd
00000080: f9de c33d 3f6f a33c b1c6 573c e953 1c3e
00000090: 6324 103e 0df1 423e cb7a 213e 77a4 d9bc
000000a0: 6846 a53c dd8a c1bd f341 0fbd 8802 273e
000000b0: 2f91 b3bd 70c3 163e fe6a b2bd 402c a4bb
000000c0: 101d 693b 8f62 00bd 45b9 83bd 6617 393e
000000d0: 9977 523e d400 583e bdf7 b03c e27b 293e
000000e0: 98f0 adbc b402 40be 7113 5f3d 7d77 3bbe
000000f0: 2429 40be 1d92 273d c2b3 873d aee0 fabd
00000100: 99b0 26be cbc6 47be f3e3 dabd a906 abbd
00000110: 3594 00bd ee53 da3d ec6c 93bc 3e39 3fbe
00000120: 35e3 2dbd cd9f 293e 916a a93d d453 1d3e
00000130: 6517 0fbe fc9f c4b9 07fc 213e 9d42 54be
00000140: 63b0 88bd b0fc c5bd 7fe7 26be c961 b43d
00000150: 4e52 b93d a22d cb3d 14ce c73d 93c6 30be
00000160: 1e77 223d fa67 3cbe 0df5 363e 38d7 fa3d
00000170: 759c 9abd e539 28bc af8e 2fbe 693e 653d
00000180: 9262 08bd ef01 1cbe 54aa 48bc ee64 2a3e
00000190: 0211 123e 7014 1dbe ead4 83bc 8379 183d
000001a0: f413 b13d cbec 303e 52dc 023e 0692 513d
000001b0: 5fd3 6fbd 81ff ae3c 3af2 74bd 4522 fdbc
000001c0: 52b1 fe3d 8e75 6b3e 6ce0 2cbc 346b fdbd
000001d0: ebb7 3b3e 26da 57bd e331 7a3d 94ca e13d
000001e0: 15db 96bd 32ce 9bbc 1026 58bc 5086 5e3e
000001f0: 0424 3b3d bb66 253e 59c6 ed3d cf8a c33c
00000200: 918d e0bc 4ac8 18bd 5e7c 453d 71ac b6bd
00000210: 1df5 03be e4d7 e33d bb7b 383e f74b 993d
00000220: f206 54bd dd92 9dbc e6bf 85bd f0be 71bd
00000230: 1002 d8bd 5c22 053e 58c5 fabc f158 41be
00000240: 47fb f33c e680 a53d 44d9 e33d 625b bebd
00000250: 2128 ee3c c8ee e8bd 49ed 423e dbcc 09be
00000260: 7172 18be 6ebd 13be a8e6 f9bd 1155 c1bc
00000270: d73f 0f3e d80a fabd abcf 993d fc80 aebd
00000280: 1c64 353d 61a7 46bb 2310 033e d66a 183e
00000290: d893 f9bd b1da c63d 84ee 7e3d 9c42 bdbd
000002a0: 54c0 07be 5731 4cbc d88b c03d 99dc 0f3d
000002b0: 1346 fb3d 2101 8b3d 159c 713c 6976 9ebc
000002c0: 5c66 bd3c bf86 6b3e 70a3 9c3d d2e1 4d3e
000002d0: d253 11be 15f1 393e 1d08 d1bd c49b dfbd
000002e0: f925 9db9 d8c4 1cbd 9fa2 103e afb6 91bd
000002f0: eb03 183e 3e0d 8fbd b7e3 dd3c 3d05 393d
00000300: e494 cbbd 8719 013d 1a94 2ebe 83d0 3c3e
00000310: 331f 5dbd 1b2d 36bd 411c 6abd 13fd acb9
00000320: 5316 083e 4b37 86bd 0749 1c3d b8d0 3bbd
00000330: bb4a 063d 1130 81bc 3215 4cbb 3221 bbbd
00000340: a809 adbd f1cb 36be fa14 17be bb4d 0bbe
00000350: f904 17be 1a26 3abe 7642 243e 0096 463c
00000360: 9bb8 753d 26fc 983d 0286 15be fc9f cf3c
00000370: 041e 97bd 9600 c7bd 6754 4abe acd6 0d3d
00000380: 1648 1f3e e69d edbd 2369 a7bd 8226 2f3e
00000390: 32cc 153e b900 913d b4e4 46be e04b 1f3e
000003a0: 2132 b4bc 8aaf dbbd 2dbd 9d3d ee5b 293e
000003b0: ab39 123e b552 55be 1e7b d0bd ec8a 29bd
000003c0: ef86 7bbd f1de a3bd 96ea ff3d 72b8 d83d
000003d0: 6157 e93a 3e18 40be 6585 833b b685 193d
000003e0: 679a fd3c cdba 4fbd f6da fc3d 9a76 28be
000003f0: 049d b0bd 6940 5a3d 0ac0 19be 28c4 3ebd
0.024382038 -0.07758363 -0.00444476 -0.066943236 0.08711413 -0.08732778 -0.012179421 0.25963137
-0.052263193 -0.085431576 -0.019449113 0.10144422 -0.0122082345 -0.22535372 0.17543949 0.014194689
-0.080354646 0.12122928 0.23672323 0.050250735 0.1850772 0.14837652 0.021274699 0.15496516
-0.117855184 -0.0057780053 0.03988941 -0.119547404 0.07453926 0.17683434 -0.080075264 -0.080658786
0.09564013 0.019950507 0.01316993 0.15266384 0.1407638 0.19037266 0.15769498 -0.02656768
0.020175174 -0.09450314 -0.034975003 0.1630956 -0.08767926 0.14722991 -0.087118134 -0.005010158
0.00355703 -0.031343993 -0.06431822 0.18075332 0.20553435 0.21094066 0.021602506 0.16551164
-0.021232888 -0.18751031 0.0544619 -0.183073 -0.18765694 0.04091083 0.06626083 -0.122498855
-0.16278304 -0.19509427 -0.10688009 -0.0835088 -0.03139134 0.106605396 -0.017996274 -0.1867418
-0.04245301 0.16564865 0.08272279 0.15364009 -0.13973768 -0.0003750323 0.15818797 -0.20728536
-0.06674268 -0.09667337 -0.16299246 0.088077135 0.090489015 0.09920813 0.09756103 -0.1726325
0.03966438 -0.18399039 0.17866917 0.12248081 -0.07549373 -0.010267709 -0.17144273 0.055967722
-0.03329713 -0.15235113 -0.012247641 0.16640064 0.142643 -0.15339828 -0.016092736 0.037225258
0.08646384 0.1727783 0.12779358 0.05116465 -0.05855119 0.021362068 -0.059801318 -0.03090013
0.12436165 0.22994062 -0.010551553 -0.12373963 0.18331878 -0.052698277 0.061082732 0.11024967
-0.07366005 -0.01901922 -0.013192669 0.21730924 0.045688644 0.1615247 0.116100974 0.0238699
-0.027411254 -0.037300386 0.04821431 -0.08919609 -0.12886472 0.11125162 0.1801595 0.07485192
-0.051764436 -0.019235069 -0.06530742 -0.059019983 -0.105472684 0.13001388 -0.030611679 -0.18881585
0.029782904 0.08081226 0.111254245 -0.09294774 0.02907187 -0.11373669 0.1903583 -0.13457052
-0.14887406 -0.1442773 -0.12202197 -0.023600133 0.13989197 -0.122090995 0.07510313 -0.085206956
0.044284925 -0.0030312168 0.12799124 0.14884505 -0.12186402 0.09709681 0.062239185 -0.0924122
-0.13256961 -0.012462935 0.09401673 0.035122488 0.12269225 0.06787325 0.0147466855 -0.019343572
0.023120098 0.2300062 0.07648361 0.20105675 -0.14192131 0.18158372 -0.102066256 -0.10918382
-0.00029973665 -0.038273662 0.14124535 -0.07114922 0.14845245 -0.069849476 0.027086122 0.04517101
-0.09940508 0.031518485 -0.17048684 0.18438916 -0.053984832 -0.04447661 -0.05715585 -0.00032994951
0.13289766 -0.06553515 0.03815558 -0.045853347 0.032786112 -0.01576999 -0.0031140563 -0.09137191
-0.084491074 -0.17851235 -0.14754096 -0.1360387 -0.1474799 -0.18178597 0.16040978 0.012120724
0.059990507 0.074699685 -0.14601901 0.025344841 -0.07378772 -0.09716909 -0.1975876 0.034628555
0.15554842 -0.11602382 -0.0817435 0.17104533 0.14628676 0.07080216 -0.19423181 0.15556288
-0.02199656 -0.10726841 0.07702098 0.16538975 0.14279811 -0.20832331 -0.10179733 -0.04139225
-0.06140798 -0.08001507 0.124959156 0.10582055 0.001780253 -0.18759248 0.0040137046 0.037481032
0.030957414 -0.050715256 0.12346451 -0.16451493 -0.08623698 0.053284083 -0.15014663 -0.046573788

model.0.bias f4 [512]
00000000: 6960 7e3e 3474 f1bd 7784 e03d 960b 61bd
00000010: 1564 5d3e 849b 9e3c 56e3 243e e7eb 11be
00000020: c47e 9bbd 7eb3 0dbe 0816 2b3e de63 7bbd
00000030: a7d4 2b3c 80e7 2c3e a402 3dbd 1134 ab3d
00000040: eca0 b83d efe4 c73c 96bb b3bd 73d0 733d
00000050: c11d 5a3e 77e3 15be 2299 df3d f413 a2bd
00000060: 3916 5f3e 8547 333e 1747 a8bd 9bee 4f3e
00000070: ab53 2d3d a07a 23bd b450 183e 8fad 96bd
00000080: bdbd ffbd 1e3b c5bd 1088 f0bc c28f 4f3e
00000090: 4163 bd3c faab 253c 824e f6bd c40a e63d
000000a0: f6e5 0ebe 95ff 4b3e 6b5e 44be db26 83bd
000000b0: d41e 213e 32c4 0d3e f67d 9ebb 24a5 013e
000000c0: 7867 81bd f67f ddbd a134 c73d 5283 ca3d
000000d0: 16e9 f9bd 471f 1dbd f41c 123d d5c5 14be
000000e0: baf8 1f3e 2649 ed3d 1697 c23d 5309 273e
000000f0: c66d f53d 25db 13bd f711 a3bd 5387 193e
00000100: 84e9 d9bd 6c20 24bd 80c1 1abe 2b12 203d
00000110: 3f05 d5bd 4b03 28be 673a 2fbe d95e 033e
00000120: 699c e23d 9944 90bc ea2c 3ebe 3867 423e
00000130: 08f2 e0bd c3fd c03d 6f44 07bd 0771 5dbd
00000140: f461 373e 0936 7e3d 05fd 793d d318 efbd
00000150: c716 37be f573 5bbd 5665 26be a04b 303e
00000160: 2b5a 473e 3990 2dbd 88c0 603e c3c2 d13c
00000170: bf92 1a3e 565b 683d 3af6 2c3e ea12 5fbd
00000180: 2ebb 18be aba2 493e a045 093e f022 81bd
00000190: 0ca6 383d 0a4d e13c 7a4d 1b3c 2b34 403e
000001a0: 29af 043e 245f 0abe bb30 15be cba2 173e
000001b0: 8908 2bbc 153c 2f3e 1c49 223e bf19 9abc
000001c0: f79b 2ebe 3445 823d 13aa 6ebc f44f e03d
000001d0: 37f9 1e3d eb8c b03d 8554 c63d 91cd 7bbd
000001e0: 5bdf 7c3d 4836 493e 8d65 fb3c 7118 0f3e
000001f0: 09d6 b03c d82d 04be e0c0 fa3c 8f40 32be
00000200: 2014 4bbe 0e9d 76bb 85ef 9b3b 0a5e da3d
00000210: b233 8bbd fc8f f73d ab8b cc3d 7cd5 473e
00000220: b0a5 d2bd a1ef 603c 1c76 2dbe ba9f fbbd
00000230: 0a8d c43c 34f8 ab3d 2073 183e 42c5 03be
00000240: 6675 cabd 3daa d6bd 08ba 183e 5cbd 1f3e
00000250: 9c5d d2bd 89ad e63d 4bf2 fa3c ee20 39bd
00000260: 319d 093e 4c13 1d3e c98d 263d bcae c23d
00000270: 451a 0a3e 4d57 d0bd ef02 bbbd 0976 f23d
00000280: 4853 1e3d 075d 3f3e 592a ddbd 2ead bdbd
00000290: 5696 a83d de24 cc3d 25c1 fa3d dfea 273d
000002a0: 81f0 c83d 970b ea3d 499e 263d 1dd8 19bd
000002b0: cd4d 0bbe 3c15 413e 786c 28be 446f 2e3e
000002c0: 44c9 b43d 7758 403e f03b 96bd cbde 7f3d
000002d0: 0285 28be f17a 1abd dd88 31be e678 65bd
000002e0: 1131 033d 23b3 663e 9cc6 493e 2277 4a3e
000002f0: d90d fdbb 299d a43d dc07 66bd c6cc e7bd
00000300: ae80 3ebe b885 b2bd 1290 273d 59fc 3a3e
00000310: 258b 36be 727b cf3c 7085 e33d 4a6c b63b
00000320: 3b8a ddbd 4ec0 0b3e d9f9 0b3e 76de d23d
00000330: c092 253e f573 643e 0071 053e 607c b53d
00000340: 0b32 40bd ba57 03bd 10f2 1c3d fdb9 9fbd
00000350: 0480 ccbd 21c3 e1bd dcb8 0d3d aa17 9cbd
00000360: 49a6 843d 42ea 11bb 34a9 09be 45c8 91bd
00000370: 5731 ed3a 4700 21bd c85e b13d 79f2 ccbd
00000380: 5b74 a73d 9db5 133e 7b5b d23d 3024 693d
00000390: 4f0e e73d 91a6 983c a7ab 0abc 40c6 1ebe
000003a0: 372a afbd 06dd 2dbe f7f5 a73d e5aa fc3d
000003b0: cd9d 63bd ebfc 48bd a39e afbd 046b 17be
000003c0: 5737 313e 7fd6 1f3d e5c6 2bbe edac e639
000003d0: 1417 243e 242d 3abe 7530 293e a5be 8b3b
000003e0: ea8c abbc acd1 503e 964b 1dbc f068 5a3a
000003f0: cca8 563e 5b28 4bbd a06f 4cbe 5492 99bc
0.24841465 -0.11789742 0.10962766 -0.05494269 0.2162021 0.019361265 0.16102347 -0.14250146
-0.07592538 -0.13838002 0.16707623 -0.061374538 0.010487712 0.16885185 -0.046145096 0.0835954
0.090150684 0.024401156 -0.087760136 0.059524965 0.21300413 -0.14637552 0.1091788 -0.07913962
0.21785821 0.17507751 -0.08216684 0.20305865 0.04231612 -0.039911866 0.14874536 -0.073573224
-0.124873616 -0.09630416 -0.029361755 0.20269683 0.023118617 0.010111803 -0.12026693 0.11232522
-0.1395491 0.19921716 -0.19176643 -0.064038955 0.15734416 0.13844374 -0.004836793 0.12660652
-0.06318563 -0.10815422 0.09726835 0.098883286 -0.12202661 -0.038359907 0.035672143 -0.14528592
0.15622225 0.115862176 0.095014736 0.1631215 0.11983828 -0.036097664 -0.07962411 0.14993028
-0.10640243 -0.040069982 -0.15112877 0.039079826 -0.10401391 -0.16407506 -0.17112122 0.1282915
0.11064989 -0.017610835 -0.18571821 0.18984687 -0.10983664 0.09423401 -0.033024248 -0.05406287
0.1790846 0.06206325 0.061032314 -0.11674657 -0.17879783 -0.053577382 -0.16249594 0.17216349
0.1946799 -0.04237387 0.21948445 0.025605565 0.15095042 0.05672773 0.16890803 -0.054461397
-0.14915153 0.19690959 0.13405466 -0.06305492 0.04508023 0.027502555 0.009478921 0.187699
0.12957443 -0.13512856 -0.1456937 0.14808194 -0.010439047 0.17112763 0.15848202 -0.018811105
-0.17051683 0.06360856 -0.014566916 0.1095275 0.03881189 0.08620628 0.096840896 -0.06147534
0.061736446 0.19649613 0.030688072 0.13974167 0.021586435 -0.12908113 0.030609548 -0.1740744
-0.19831896 -0.0037630233 0.0047587776 0.10662468 -0.067969695 0.1208801 0.09987577 0.19515032
-0.10285509 0.013729007 -0.16939586 -0.12286325 0.023993034 0.0839695 0.14887667 -0.12868217
-0.09885673 -0.10481689 0.14914715 0.15599579 -0.10271761 0.11263568 0.030633112 -0.04519742
0.1343887 0.15339392 0.04066256 0.09505984 0.13486584 -0.10172901 -0.09131419 0.1183892
0.038653642 0.18687831 -0.10799093 -0.09261547 0.08231799 0.09967969 0.12243871 0.040995475
0.098114975 0.11427992 0.040678296 -0.037559617 -0.13603897 0.18855757 -0.16447628 0.17034632
0.08827451 0.18783747 -0.07335651 0.06246833 -0.16456988 -0.037714902 -0.17337365 -0.0560235
0.032029215 0.22529273 0.1970467 0.19772008 -0.007722598 0.080377884 -0.05615984 -0.11318354
-0.18603775 -0.08716911 0.04090888 0.18260325 -0.17826517 0.025327418 0.111094356 0.0055671083
-0.10817381 0.13647577 0.13669528 0.10296337 0.16169262 0.22309859 0.13031387 0.08861613
-0.046922725 -0.032066084 0.038316786 -0.07799146 -0.099853545 -0.11023546 0.034600124 -0.07621701
0.06477029 -0.0022264873 -0.13443452 -0.071182765 0.001809637 -0.039306905 0.08660656 -0.100071855
0.0817649 0.14424749 0.10271355 0.056919277 0.11282026 0.018634113 -0.008463777 -0.15505314
-0.08552974 -0.16978845 0.08201211 0.12337283 -0.055570412 -0.049069326 -0.085751794 -0.14786917
0.17306267 0.03902292 -0.16775091 0.00043997858 0.16024429 -0.18181282 0.16522391 0.00426467
-0.020941216 0.20392483 -0.009600541 0.0008331677 0.20962828 -0.049599033 -0.19964457 -0.018746532

model.2.weight f4 [1, 512]
00000000: 5f62 c3bd ee5a 6ebd 3767 153b ca7d 6cbc
00000010: f2a0 2fbd 4fc5 0bbd cfab 38bd eced d63b
00000020: c168 75bb bc2b 913b 7553 22bd 0149 9fbd
00000030: ba11 53bd c915 61bd ee5d 58bd 35ab 76bd
00000040: 680b 02bb de3f 23bd a563 9cbd 6927 b83c
00000050: e07d 83bd d541 1d3d b071 8ebd 8434 a3bd
00000060: 0d6a 88bd b64c 53bd 24d0 b2bd 4036 45bd
00000070: 3c01 4e3b 3e25 71bd 472c eebc db70 28bd
00000080: 151d 133c dee9 3dbd 28d5 bf3c 78b5 96bd
00000090: ecb3 45bd 7e85 983c 6200 06be 696d 66bb
000000a0: e45e e2bb 9c22 83bd 1117 2fbb 959e bd3c
000000b0: 20bb a0bd 38cd 0dbc 40e2 c6bd 6e9b 42bd
000000c0: 3a9f dbbb d7a1 743c 3088 cdbe 5936 053c
000000d0: 9010 023d 9a71 88bd 28fd 053c 26aa 083c
000000e0: 478d d1bc 06da 63bb f935 23bc 845d 0dbd
000000f0: 8fe7 b83c 150a 44bb 80ff 163d d136 183c
00000100: 579a 763c e9ce 11bc 5be7 063b ae29 dcbb
00000110: 39c6 55be 1442 933c e847 723c e8ff a73c
00000120: 8cbf 88bd 70c2 5bbd 0fde d43b 88cd 81bd
00000130: 298f 6fbc cdc1 203d 089a 0d3c 629c 51bd
00000140: ac1b b6bd 458d a03c 505b 613d 9268 a33c
00000150: b117 343c 762b 3bbd 9067 f43c 53e1 e3bc
00000160: e951 89bd 6c39 6d3c 0688 08bd b0f6 8abd
00000170: fcc2 73bd 9f58 39bd add3 98bd 6c7b 9abd
00000180: e34c 9d3d dd42 91bd 5909 45bd 124a e3bb
00000190: 278a 3bbd 463e 19be e475 063d c976 c6bc
000001a0: 2eba acba 1bf5 1fbc de0f 8dbc b1c3 9539
000001b0: 13dc 0a3d 2176 2f3d ca0f d8bd 4fc5 88bd
000001c0: a9ce ba3b 5523 a2bd 2e63 acbd d1e8 5abd
000001d0: 951a 36bd f6bf 1dbc 34ea 873b 2709 88bd
000001e0: 4b01 9dbd ec92 c8bc fb9b 58bd c654 523d
000001f0: 159c 213d 06d5 423c cefe 48bc 394c 25bd
00000200: 5b32 f3ba 18ab 4a3d 1777 9dbd 3bdd 80bd
00000210: 21c1 d0bc 159d fcbc 8a37 34bd 47ae a1bd
00000220: 2077 b5bc 9df7 3d3b ed71 25bc ea07 5fbd
00000230: 1502 84bd 3164 26bd 2581 64bc 2870 32bc
00000240: 0d92 7c3c 9b71 95bd 5da2 6abd a2ec a9bd
00000250: b48b be3b 3510 11bd db6f e63c e6b9 d03b
00000260: 31d2 9ebd 0052 7abb c908 ca3c 0b20 a9bd
00000270: 5bf8 cb3c 014d 7ebc 33e6 a3bd 5cb3 633b
00000280: d920 4fbd 015e 93bd df4c a2bd b082 aabd
00000290: e6bf 68bc 25f2 45bd b252 0ebd 1b11 55bd
000002a0: 4083 343c d87c 583c 0d57 453c aae3 97bc
000002b0: d580 c23c 9b0c f6bc 58f4 00bd 478b 6ebd
000002c0: 77e0 90bd b90f 82bd 9bb4 39bd 1409 2a3d
000002d0: 01c5 2fbc d866 06be 62c9 643c 79f8 a1bc
000002e0: bec9 77bd cfec 89bd bd83 17bd 2a5d 3abd
000002f0: 39fe 633d 9303 6abd ab84 b7bd 7e2a 30bd
00000300: 668f 13bd 0cb1 5dbd 5413 afbd 83a7 193d
00000310: 4c8e 3f3c bfbb 8d3b cd48 dfbb 67f0 56bd
00000320: 5189 81bd 0b72 93bd fb37 22bd 475f 95bd
00000330: 7653 e03d 8421 31bd aae8 5ebd 3da1 853d
00000340: 11c7 58bd a9e8 88bd 6d31 95bb d8de f9bb
00000350: 7dba 93bd 3fb9 debc 06d5 ac3c 1376 6dbd
00000360: b65f 70bd ed54 aebd 3b21 a23c b025 9e3a
00000370: fb5b c13c 138a 9ebd 3964 99bd 58d3 18bc
00000380: 1e72 e8ba b570 80bd 293c a4bd 03a8 8abb
00000390: 6e5d 32bb 18d9 853a ca4e 27bd bb32 ccbc
000003a0: 5221 02bd c0bf d93c 9910 cfbb 4a90 573b
000003b0: 6550 023d 8aa9 523c d3c4 83bd 19e9 b63c
000003c0: e801 15bd d895 7ebd 1770 533c c2b4 fc3b
000003d0: 8153 ebbc bc88 f5bc fc28 f8bc d67f 753a
000003e0: e339 82bb a121 64bd 6d17 f43b 377f 21bd
000003f0: 9574 5e3d 10dd 87bc 84f9 803c bf91 55bb
-0.09540247 -0.058192186 0.0022797117 -0.014434287 -0.0428781 -0.034123715 -0.045085724 0.006559124
-0.0037446471 0.0044302624 -0.039630372 -0.07777596 -0.051530577 -0.054952417 -0.052823953 -0.06022187
-0.0019843224 -0.03985583 -0.07636193 0.02247973 -0.06420493 0.03839286 -0.06955278 -0.07969001
-0.066608526 -0.05158683 -0.08731106 -0.04814744 0.0031433841 -0.058873408 -0.029073847 -0.041123252
0.008979102 -0.04636561 0.02341707 -0.07358831 -0.04826729 0.018618342 -0.13086084 -0.0035160428
-0.0069082845 -0.064030856 -0.002671663 0.023146907 -0.07848191 -0.008654885 -0.097111225 -0.04751151
-0.006702331 0.014931164 -0.40142965 0.008130633 0.031754076 -0.06662293 0.008178033 0.008341348
-0.025580062 -0.0034767403 -0.009961599 -0.03451301 0.022571353 -0.0029913236 0.036864758 0.009290413
0.015051446 -0.008899429 0.0020584676 -0.006718836 -0.20876397 0.017975844 0.014787652 0.020507768
-0.0667716 -0.053652227 0.006496198 -0.0633803 -0.014621534 0.039247323 0.008642681 -0.05117453
-0.08891997 0.019598613 0.055018723 0.019947324 0.010991977 -0.045695744 0.029834539 -0.027817404
-0.06705076 0.0144790225 -0.033332847 -0.06785333 -0.059512123 -0.04525053 -0.07462249 -0.07543072
0.076806806 -0.07092831 -0.048104618 -0.00693632 -0.04578605 -0.14965162 0.032827273 -0.024226563
-0.0013178044 -0.009763028 -0.01721948 0.00028565296 0.033901285 0.042837266 -0.105498865 -0.06678259
0.0057009053 -0.07916895 -0.084173545 -0.053444687 -0.044458944 -0.009628287 0.0041477922 -0.06642371
-0.07666262 -0.02448412 -0.05288313 0.051350378 0.039455492 0.011891609 -0.012267781 -0.040355895
-0.0018554436 0.049479574 -0.0768873 -0.06292196 -0.025482716 -0.030836621 -0.04399828 -0.07894569
-0.02215153 0.00289867 -0.010097963 -0.054450907 -0.064457096 -0.040622894 -0.013946806 -0.010890998
0.015415681 -0.07297059 -0.057283748 -0.08297087 0.0058149938 -0.035415847 0.028129509 0.006369817
-0.077549346 -0.0038195848 0.024662392 -0.08258065 0.024898699 -0.015521289 -0.080028914 0.0034744358
-0.050568435 -0.07195664 -0.07924818 -0.08325708 -0.014205908 -0.04832663 -0.034746833 -0.052018266
0.011017621 0.013213359 0.01204468 -0.018541176 0.023743073 -0.030035308 -0.031483024 -0.058238294
-0.07074063 -0.06350655 -0.045338254 0.041512564 -0.010728122 -0.1312517 0.013964029 -0.019771801
-0.06049513 -0.06734621 -0.03699087 -0.045499004 0.055662367 -0.057132315 -0.08960851 -0.043009274
-0.036025427 -0.054123923 -0.085486084 0.037513267 0.011691641 0.0043253596 -0.0068140985 -0.05247536
-0.06325019 -0.07199486 -0.03960417 -0.07293563 0.10953419 -0.043244854 -0.054421104 0.065248944
-0.05292422 -0.066850014 -0.004553011 -0.007625442 -0.07213304 -0.027187942 0.021097671 -0.057973932
-0.058685027 -0.08512292 0.019791236 0.0012065675 0.02360343 -0.07741179 -0.07489819 -0.009327732
-0.0017734205 -0.06271497 -0.08019287 -0.0042314543 -0.0027216333 0.0010211794 -0.040846623 -0.024926534
-0.031770058 0.026580691 -0.0063191173 0.00328924 0.03181495 0.012857804 -0.064340256 0.022327946
-0.03637877 -0.06215462 0.012905142 0.0077119777 -0.028726341 -0.029972427 -0.03029298 0.00093650573
-0.003974186 -0.055696134 0.0074490816 -0.039427962 0.0543104 -0.016584903 0.015743978 -0.0032588092
