best-model-by-loss.pth (torch, 607469 bytes, 15 tensors)

loss_fn.weight f4 [6]
000000 00 00 00 40 00 00 80 3f 00 00 40 40 00 00 80 40
       2.0 1.0 3.0 4.0
000010 00 00 00 41 00 00 80 40
       8.0 4.0

model.0.weight f4 [512, 27]
000000 11 6e 1c 3e 05 69 27 3e d1 b9 82 bd 6c d5 21 3e
       0.15276362 0.16348656 -0.06383098 0.1580407
000010 42 aa e0 bd 3d 0e 39 bc 25 60 f3 bd d0 98 83 3d
       -0.10969974 -0.011294899 -0.118835725 0.06425631
000020 87 4d 42 3e f2 5b 13 be ba 3e d7 3d f8 4a 22 3a
       0.18974887 -0.14390543 0.10510011 0.0006190981
000030 74 d8 35 3e 15 5d 4f bc fc 43 21 3e 6e fa e6 bc
       0.17758352 -0.01265647 0.1574859 -0.028195586
000040 94 ee 21 3e 08 e8 e5 ba 83 de 17 be 1c cd 5c 3d
       0.15813667 -0.0017540464 -0.14830975 0.053906545
000050 ee 3d 62 bd 3c e3 a2 bd 17 19 02 be 40 42 c5 3d
       -0.055234842 -0.07953498 -0.12704884 0.09631777
000060 b9 31 01 be 59 f6 03 be 6a 6d d9 bc 73 45 f3 bd
       -0.12616624 -0.12886943 -0.02654143 -0.11878481
000070 10 77 72 3c 7f b7 49 be c1 e5 2a 3e 6c e3 49 be
       0.0147988945 -0.19698904 0.16689207 -0.19715661
000080 cf 88 f4 3d c1 5d 95 3b ef b3 a6 bd 0f 76 d4 3d
       0.11940157 0.0045582955 -0.08139788 0.103740804
000090 51 b1 69 3e c9 9a 3a 3e 57 b2 b9 bc 38 28 8b bc
       0.22821547 0.18223108 -0.022668047 -0.016986951
0000a0 17 68 b5 3d 28 f0 03 bd 6b a0 9b 3d 19 6b 1d 3e
       0.08857744 -0.032211453 0.07598957 0.15372886
0000b0 71 e9 cd 3d 1b e5 d8 3a 11 fe de 3d ec 75 3f 3d
       0.10054291 0.0016547771 0.10888303 0.04674332
0000c0 71 af 67 3d 19 b0 c3 bd 39 4d 86 be 2e c1 0d be
       0.0565638 -0.09555072 -0.2623079 -0.13843223
0000d0 4f a6 70 bd 1f 64 3e 3e 4e 2b a5 3c 81 27 1e 3d
       -0.058752354 0.1859288 0.02016225 0.038611893
0000e0 50 44 3e 3c e8 73 57 bd d4 a7 1c 3e a1 39 18 be
       0.011612967 -0.05260077 0.15298396 -0.14865734
0000f0 ce e8 3e bc ba ee 01 be 9f 86 5e bd 3a 55 b8 bd
       -0.011652185 -0.12688723 -0.054327603 -0.09000631
000100 9d b6 bf 3d 67 21 ee bc fc 27 18 3e 3f fa 24 be
       0.093610026 -0.029068662 0.14859003 -0.16111086
000110 e3 7a 28 be 91 6a fe bd e9 bd 77 3e 3a b8 23 3d
       -0.16453128 -0.1242267 0.24193539 0.039970614
000120 80 1c 41 3e e2 91 5d be 78 46 15 be 35 47 1a be
       0.18858528 -0.21637681 -0.14577663 -0.15066226
000130 7f 47 11 be 27 88 99 3d d2 c6 d2 3d 3d 2f 90 3d
       -0.1418743 0.07496672 0.10291828 0.0704026
000140 2d c1 0a bd 1b e4 07 be 80 ac d4 3d 44 0c 80 bd
       -0.033875633 -0.13270609 0.10384464 -0.062523395
000150 50 3d 07 3e 53 0d 82 bd bf 7c 07 3e b6 bf 18 be
       0.13206983 -0.06350198 0.1323118 -0.14916882
000160 79 3d eb bd b2 f4 a5 3d ae 5c 0a bd a5 26 fe bd
       -0.11486334 0.081033126 -0.033779792 -0.124097146
000170 da 38 23 3e 75 6d b0 3d d1 85 8b bd da 60 19 be
       0.15939656 0.08614627 -0.06812633 -0.14978352
000180 72 0f 34 3e 09 ff 14 bd ae 05 31 bd 59 c6 5a be
       0.17584017 -0.036376033 -0.043218307 -0.21364726
000190 65 f4 03 be 29 02 e4 3a 5b 67 50 bc 07 08 d0 bd
       -0.12886198 0.0017395663 -0.012719954 -0.10157781
0001a0 19 2d 40 bc df 63 26 be 3f 4b 50 be 2c 04 a7 bd
       -0.011729502 -0.16249035 -0.20341204 -0.081550926
0001b0 08 e1 13 be b5 b6 ca bd ad 46 6e 3e 7b 05 9d 3d
       -0.14441311 -0.0989813 0.23269148 0.07667061
0001c0 ea 08 ba 3d 7f 3b 1f be fc 3d 8d bd 01 cb 2d bd
       0.090837315 -0.1555004 -0.06896588 -0.042429928
0001d0 28 9e a4 3d 15 2f 18 be 98 f8 04 be bf 49 bd bd
       0.080379784 -0.1486171 -0.12985456 -0.092425816
0001e0 73 4f b6 bc 63 c5 45 be ad c2 74 bd d4 3b 6d be
       -0.022254681 -0.19313578 -0.05975597 -0.23167354
0001f0 f7 ad c0 bd 1a 4d f4 bd 64 71 3c bd 7e 2c 0a be
       -0.09408181 -0.119287685 -0.046006575 -0.13493535
000200 96 f4 ec 3d dc d6 0d bc 8f a7 42 3e 6d d3 82 3d
       0.115700886 -0.0086571835 0.19009231 0.063879825
000210 9b 31 43 be 71 ba 04 3e 06 7e 48 bd 79 12 0a bc
       -0.19061892 0.12961747 -0.04894831 -0.008427256
000220 03 61 bc bd 8a d6 bf bd 71 64 1c 3e cd b3 87 bd
       -0.09198191 -0.09367092 0.1527269 -0.06626091
000230 d5 58 d2 3d d1 60 14 be f7 61 d6 3d 3f 1f 02 be
       0.102708496 -0.14490058 0.10467904 -0.12707232
000240 35 8b 95 bc f4 59 42 3d a0 75 24 3d e6 b7 5b 3e
       -0.018254856 0.047449067 0.04015124 0.2145687
000250 e4 69 86 3e d5 eb 4c bd c7 d5 8c 3d 98 32 a1 bd
       0.26252663 -0.050029594 0.06876712 -0.07870978
000260 e7 47 07 bc c2 0d 63 be 13 ad 1b 3e cb 5e f1 bd
       -0.008256889 -0.22173217 0.15202741 -0.117856584
000270 4b b5 22 3e 3b 7b bc 3d 07 64 00 3e 76 60 c4 bd
       0.1588947 0.09203192 0.12538157 -0.09588711
000280 6a 27 2e 3e ec 6f 84 3d eb 97 26 3d 57 28 1b be
       0.17007223 0.0646666 0.040672224 -0.15152107
000290 06 1a 5c 3d b9 15 65 bd 1e 0a e4 bd 87 5e 09 3e
       0.053735755 -0.05592892 -0.11134742 0.13414966
0002a0 a3 2b 74 3c ef e5 0a be f8 19 54 be 7d b5 c7 3c
       0.014902982 -0.13564275 -0.20713031 0.024378533
0002b0 f4 61 83 3d 3a e1 b4 bd 89 b8 90 bd ac e6 6c ba
       0.064151675 -0.08832021 -0.07066447 -0.00090370583
0002c0 df 76 55 be 92 4d 18 3e 0f d2 06 3e b9 16 13 be
       -0.20846127 0.1487334 0.13166068 -0.14364137
0002d0 d0 6e e0 3d 90 d2 91 3d 23 02 a5 3c ca c8 94 bd
       0.10958636 0.0712024 0.02014262 -0.0726486
0002e0 e6 f8 02 3e dc 7c ce 3d 8b 5e 8b 3d 8f cb 0a bd
       0.1279026 0.10082409 0.06805142 -0.033885535
0002f0 56 e9 46 bc 8f 24 62 3d e6 71 85 3b 16 60 29 3d
       -0.012140593 0.055210646 0.0040724156 0.0413514
000300 d9 08 63 3e 22 2e 13 3e 0a 74 20 bd b7 4e 9c bd
       0.22171344 0.14373067 -0.039173163 -0.07632201
000310 0a aa db bc 68 4e 7d bd ce 02 ad bc 66 57 b3 3d
       -0.02681448 -0.061842352 -0.021119501 0.08756904
000320 5f 4a 43 be 7c b2 61 bd 35 48 c0 3d 26 7b c7 3d
       -0.19071339 -0.055101857 0.093887724 0.097402856
000330 12 49 ca bd 0c 49 28 be c0 38 c1 bd 50 e1 41 be
       -0.09877218 -0.16434115 -0.09434652 -0.18933606
000340 b8 48 21 bd ad 8c 95 3d a1 fb 3d 3e c2 18 9f 3d
       -0.03937599 0.073022224 0.1855302 0.07768394
000350 4d 3b 94 bd 08 b7 9e bd 53 80 eb bd 14 fd f2 3d
       -0.07237873 -0.07749754 -0.11499085 0.11864677
000360 4e 62 0b 3d d8 f7 18 bd 19 4b 5a 3d 1f 08 cc bd
       0.034029298 -0.037345737 0.053294275 -0.099624865
000370 ec bd 4e bd 44 3c 6d 3e be 01 41 bc c6 0a 6f 3d
       -0.050474092 0.23167521 -0.0117802005 0.058359884
000380 37 53 58 be 5a 4f 42 3e 43 d3 40 3e 7d 69 6c 3d
       -0.21125494 0.18975583 0.1883059 0.05771779
000390 b5 62 f9 bd 70 8f b0 be 54 fb 16 be 04 4e 25 3e
       -0.1217703 -0.34484434 -0.14744312 0.16143042
0003a0 6c e8 7a 3d f5 42 73 3e 4b 5c 65 3d 24 8f 84 bd
       0.06125681 0.23756011 0.05599622 -0.064726144
0003b0 c7 3d e6 bc c9 cb 6a bd 03 ba 8c bd 7d ed f1 bd
       -0.02810563 -0.05732325 -0.068714164 -0.118128754
0003c0 a2 2c 6f 3d e1 19 71 bd 5e c4 a6 3a 72 ad b7 bd
       0.058392175 -0.05886257 0.0012723317 -0.08968629
0003d0 a2 f8 69 bc 58 b9 5a be 11 cc 50 be 0e 28 b6 3d
       -0.01428047 -0.21359766 -0.20390345 0.088943586
0003e0 be 74 a4 bd 95 df c8 3d 53 10 06 bd 66 74 12 be
       -0.08030079 0.0980827 -0.03273041 -0.14302215
0003f0 d1 ea 6a be c2 01 29 be 45 e2 d9 bd 4a f5 0a be
       -0.22941138 -0.16504577 -0.106388606 -0.13570133

model.0.bias f4 [512]
000000 25 a2 75 bd 21 fe 8e bd dd 65 11 be d4 c1 48 be
       -0.059969086 -0.06982065 -0.14199014 -0.1960519
000010 19 96 ab 3d eb 4d fd bd e5 46 df bd eb 86 98 bd
       0.08378238 -0.12368377 -0.10902194 -0.074476086
000020 57 4d 18 be 96 1e 13 be ce 57 fd bd ce 15 45 3e
       -0.14873253 -0.14367136 -0.12370263 0.19246599
000030 1c 62 51 3c 40 f2 94 bd 63 70 3e bc 47 e4 23 3e
       0.012779739 -0.07272768 -0.011623475 0.1600505
000040 d0 b1 e4 bd 4b 49 9a 3d 48 c2 11 bd 6a d1 26 be
       -0.111667275 0.07533511 -0.03558567 -0.16290823
000050 f2 ae 01 3e fb 20 bc 3d 67 30 11 3e dd 0f ba 3d
       0.12664393 0.09185978 0.1417862 0.09085057
000060 ea 54 03 3d d0 42 5e 3d ad c2 12 be 3f 77 3d 3e
       0.032063402 0.054262936 -0.14332075 0.1850252
000070 fc 5b ee bd 19 99 0d 3e a0 f5 fa bd cc 0a 05 be
       -0.116386384 0.13827933 -0.122538805 -0.129924
000080 a5 c6 a0 3d 2c f2 ff 3d e5 1d 65 bd 98 60 5a 3d
       0.078503884 0.124973625 -0.055936713 0.053314775
000090 58 19 29 be ec 5b 9a bc 5b bb 2d 3e 0a 83 39 3e
       -0.16513574 -0.01884266 0.16966002 0.18116394
0000a0 5b e2 7e bd 36 ec 92 3d 11 bb 36 3e 65 dc 97 3d
       -0.06222759 0.0717396 0.17844798 0.07415084
0000b0 20 b7 06 3d a1 87 25 be 26 87 5f 3d b8 9c 52 3d
       0.032889485 -0.1616502 0.054572247 0.05141899
0000c0 5e 58 de bd 43 03 c4 3d 83 07 01 be 7f a2 3b 3e
       -0.108566985 0.095709346 -0.12600522 0.18323706
0000d0 3b f8 4a bc ec e2 06 3e 22 3a 3a bd f3 2e c4 bd
       -0.012388284 0.13172501 -0.045465596 -0.09579267
0000e0 fe 2d 0f 3e 44 66 eb 3d 1a 16 45 3e fe 8f 63 3d
       0.13982388 0.11494115 0.19246712 0.055557244
0000f0 dd 72 a5 bd 54 4a e0 bd c8 b8 39 be a0 2d 2b 3c
       -0.08078549 -0.10951677 -0.18136895 0.01044789
000100 b6 cc 42 3e 3f ee 69 bd 5d 32 16 bd c9 d9 09 3e
       0.19023404 -0.057111975 -0.036669124 0.13461985
000110 87 70 39 3e 7b 5d 5d 3d 12 f2 01 3c dc c2 3e 3e
       0.18109332 0.054044228 0.007931249 0.1862902
000120 79 79 25 3e 4a 89 f9 bd c7 8d 00 be 00 ad 21 bd
       0.1615962 -0.12184389 -0.12554084 -0.039471626
000130 b2 8f a4 3d 43 cd ef bd dd d2 ac bd 39 e3 69 3c
       0.0803522 -0.117090724 -0.084386565 0.0142753655
000140 4e 3b 46 bd f1 10 04 3e 78 a0 04 3e 29 d5 00 3e
       -0.0483964 0.12897088 0.12951839 0.12581314
000150 9d 12 d1 3d c5 8b e8 bd 35 fa 17 be f0 e9 05 be
       0.10208628 -0.11354784 -0.1484154 -0.13077521
000160 b7 75 c3 bc 7e 84 1c 3e d9 25 18 bd e6 81 34 3e
       -0.023859842 0.15284917 -0.03714547 0.17627677
000170 c7 fd 13 3e 2c 99 3a be 85 59 b7 3d e5 f6 a6 bd
       0.14452277 -0.18222493 0.08952621 -0.0815256
000180 f6 bc 3b be 56 bc 90 3d 31 4d 85 bd a4 6a 2f be
       -0.18333802 0.07067172 -0.06508864 -0.17130524
000190 be f5 09 be 69 91 13 3e 48 c2 33 bd 18 ec 1a 3e
       -0.1347265 0.14410938 -0.043886453 0.15129125
0001a0 f2 ff 7d bd f7 0d 42 3e fd f9 49 bd c7 38 3b 3e
       -0.062011667 0.1895064 -0.049310673 0.18283378
0001b0 7d 6d 95 3d 60 1c 14 be a2 08 ac 3d 05 55 a7 3d
       0.07296274 -0.14463949 0.08400084 0.08170513
0001c0 9d a6 26 be aa 38 2b be dc 4b 34 3c 4c f4 d4 3d
       -0.16274495 -0.16720834 0.011004414 0.103981584
0001d0 c7 50 27 3e b3 86 4f bd 25 13 38 be 1a 7c b4 3d
       0.16339408 -0.05066557 -0.17976053 0.08812733
0001e0 b9 f6 4a 3c d0 89 0b 3b f5 73 f8 3d 22 d1 be 3c
       0.012387925 0.002129186 0.12131492 0.023293082
0001f0 23 e1 27 3e ce c3 1c 3e 0d 2b 68 3d da cf 11 3e
       0.16394477 0.15309069 0.05668168 0.14239445
000200 a8 e5 79 3d 66 88 3d be b9 96 31 3e 5c 39 9e 3b
       0.061010033 -0.18509063 0.17342652 0.004828615
000210 eb 8d a7 bc fb 3b 23 3e c8 eb 2f 3e b4 26 1e be
       -0.020453414 0.1594085 0.17179787 -0.15444452
000220 3b d9 9a 3d 88 21 d7 bd ed 35 3d bd 28 9f 22 3d
       0.07560965 -0.105044425 -0.046194006 0.039702564
000230 a7 ea 8d bd 8e b8 aa bd 7d d2 c8 3d 5d b9 3b bd
       -0.06929522 -0.08335982 0.098057725 -0.045831073
000240 a5 f5 90 3d 93 2f 3b 3e f8 c7 3f 3d 69 30 35 3d
       0.07078103 0.18279867 0.046821564 0.04423562
000250 ef 96 35 3e 81 6d 94 bd e2 cb 92 3a fe 6f 35 be
       0.17733358 -0.07247449 0.0011199678 -0.17718503
000260 08 f3 9e bd 19 cd 7c bc b8 39 34 3e 98 45 e1 3d
       -0.07761198 -0.0154297585 0.17600143 0.10999602
000270 98 b7 12 bd 1a 14 54 bd e3 8e 40 3d a0 53 a8 bd
       -0.03581962 -0.051776983 0.047011267 -0.08219075
000280 0f 4c a4 bc 58 68 37 3d 63 5b 72 bd 8b ac 11 3e
       -0.020055799 0.044777244 -0.059169184 0.14225976
000290 b1 7d 99 3d 3a e2 db bc c6 76 f7 bc b0 9d a1 3c
       0.07494677 -0.026841272 -0.030208003 0.019728512
0002a0 f3 e5 c5 3d 70 4d 5d 3d 19 61 62 bd 5b 5a 87 3d
       0.09663 0.05402893 -0.05526838 0.06609031
0002b0 cd 7a 28 bc 7d 13 0e be 6d a9 1b be 63 08 b3 bb
       -0.010283184 -0.13874622 -0.1520135 -0.0054636463
0002c0 a9 9e 2a 3e af 8c 9e bd 1f a6 f9 3d 2f b0 7e bd
       0.16662087 -0.07741677 0.12189888 -0.06217974
0002d0 e9 90 ed 3d 49 c7 33 bd 02 e6 9f bd c9 7c 75 3d
       0.11599905 -0.043891225 -0.078075424 0.059933458
0002e0 da 5e df 3d f2 e2 15 be 3d 87 73 bc 62 71 32 3d
       0.109067634 -0.14637354 -0.014863786 0.04356516
0002f0 36 ec f0 3c aa f0 3b 3e b1 32 2c be 2d 10 27 3e
       0.02940951 0.18353525 -0.16816212 0.16314764
000300 f3 ab c3 3d b9 77 3a be 54 38 93 bd 03 ab 8c 3d
       0.09554281 -0.18209733 -0.07188478 0.068685554
000310 fb 1d 11 be 7b 24 3a 3e 0a e1 98 bd 85 3f 96 3d
       -0.14171593 0.18177979 -0.07464798 0.07336334
000320 2a 07 1a 3d 84 ac 99 bd 18 f4 40 be 04 ec 68 3c
       0.03760449 -0.07503608 -0.18843114 0.014216427
000330 ad a6 1f be df e6 35 bd dd 7c 02 3d a2 05 8b bd
       -0.15590926 -0.04440963 0.03185736 -0.06788184
000340 4e 6e de 3d 49 76 31 be a9 76 18 be 48 89 cc 3d
       0.10860883 -0.17330278 -0.14889015 0.09987122
000350 88 94 ca bd 68 ce 20 3e a5 88 0b bd 34 91 09 bd
       -0.09891611 0.15703738 -0.03406586 -0.033585742
000360 3d d4 39 3e 02 5b 97 bc 3f 9b 17 be e8 a3 a3 bd
       0.18147369 -0.018476013 -0.14805315 -0.07990247
000370 05 e4 6f 3d 89 c5 06 3e 85 f0 26 3e a9 c0 84 bd
       0.058567066 0.13161291 0.16302688 -0.064820595
000380 0c 91 02 3d db a7 0e 3e 2d 27 97 bd a8 17 90 3c
       0.03187661 0.1393122 -0.07380519 0.017589405
000390 51 6e c1 bd b2 a9 e7 3c eb 38 3d 3e c4 b4 2a 3e
       -0.09444869 0.02827916 0.18478744 0.16670519
0003a0 83 a7 00 be 66 9d c4 3d c6 ab 39 3e ed a6 ee bc
       -0.125639 0.09600334 0.18131933 -0.02913233
0003b0 b1 7a 8d 3d fb a0 31 be 00 f7 d8 3d 53 ec 13 bd
       0.06908167 -0.17346565 0.105939865 -0.03611405
0003c0 40 bf 31 3e 9a 2a 08 3e a8 84 e6 bd 9a fd b1 bd
       0.17358112 0.13297501 -0.11255771 -0.08690949
0003d0 e6 f4 19 be 24 b4 34 be 0d 34 37 be 3d f1 c3 3d
       -0.15034828 -0.17646843 -0.1789095 0.09567497
0003e0 ba db 01 3e d5 ab f6 bd 67 12 0a 3e 4b 9e 7c bd
       0.12681475 -0.12044493 0.13483582 -0.061674397
0003f0 53 2a 6a 3d 22 a1 1c 3e 06 22 1d 3e c5 f7 1c be
       0.05716927 0.15295842 0.1534501 -0.15328892

model.1.weight f4 [512]
000000 eb 9c 76 3f 69 d1 7d 3f dc 52 7b 3f 02 78 87 3f
       0.9633319 0.9914766 0.9817331 1.0583498
000010 80 8c 80 3f 03 f6 70 3f 30 6d 81 3f e4 a4 7f 3f
       1.0042877 0.94125384 1.0111446 0.9986098
000020 28 bb 7d 3f 71 ec 81 3f 7a 46 7e 3f 07 db 81 3f
       0.991137 1.0150281 0.9932629 1.0144967
000030 32 b7 61 3f 53 3b 73 3f 7d 01 78 3f ec a6 84 3f
       0.8817016 0.95012397 0.9687727 1.036344
000040 f7 d6 6d 3f 6d 9b 8a 3f df 5f 64 3f 4c b9 72 3f
       0.92906135 1.0828682 0.8920879 0.9481399
000050 68 86 68 3f e0 09 82 3f b9 a0 82 3f 84 1e 79 3f
       0.9083009 1.0159264 1.0205299 0.9731219
000060 c8 5e 67 3f 0a 17 85 3f 76 5c 73 3f 05 0b 83 3f
       0.90379 1.0397656 0.9506296 1.0237738
000070 04 4b 84 3f eb e9 84 3f d5 5d 72 3f 98 ac 85 3f
       1.0335393 1.0383886 0.94674426 1.0443296
000080 de 04 76 3f 21 ea 7c 3f 28 bc 7b 3f 87 88 83 3f
       0.96101177 0.9879475 0.9833398 1.027604
000090 f6 33 78 3f 84 9f 89 3f d2 73 79 3f b4 54 78 3f
       0.96954286 1.0751805 0.9744235 0.97004247
0000a0 1f 22 7b 3f 68 98 68 3f 8a a1 62 3f 22 6d 85 3f
       0.9809894 0.90857553 0.8852774 1.042393
0000b0 03 10 4d 3f 74 e5 83 3f 58 b9 81 3f 46 1c 73 3f
       0.80102557 1.0304399 1.0134687 0.94965017
0000c0 f7 fb 71 3f 6b 53 74 3f 8d 29 89 3f 3d fb 71 3f
       0.9452509 0.95439786 1.0715805 0.94523984
0000d0 2d c0 87 3f ce 6f 72 3f a4 86 80 3f 98 af 6f 3f
       1.0605522 0.9470185 1.0041089 0.9362731
0000e0 38 ab 63 3f 72 4f 7c 3f 6b 1d 81 3f 6d 06 73 3f
       0.88933134 0.98558724 1.0087103 0.9493168
0000f0 64 5c 77 3f 9b 78 81 3f 42 a8 80 3f dc 0a 7e 3f
       0.9662535 1.0114931 1.0051348 0.9923532
000100 6a 10 8c 3f 31 19 83 3f 61 d6 85 3f fa b7 7a 3f
       1.0942509 1.0242063 1.0456048 0.97936976
000110 48 d7 85 3f 2d 5f 6a 3f 23 2a 85 3f 45 ae 80 3f
       1.0456324 0.91551477 1.0403484 1.0053183
000120 a1 19 81 3f fb a8 80 3f 23 8d 7d 3f a3 2f 82 3f
       1.0085946 1.0051569 0.9904348 1.0170788
000130 55 7f 7a 3f 6e 35 6b 3f 79 2b 66 3f a3 cf 89 3f
       0.97850543 0.918784 0.89910084 1.0766491
000140 88 11 6f 3f d6 35 5a 3f 14 d7 8c 3f 89 0f 8e 3f
       0.93386126 0.852384 1.1003137 1.1098491
000150 fe c0 79 3f ef b4 71 3f 9b ca 7a 3f 97 7b 82 3f
       0.9756011 0.9441671 0.979654 1.0193967
000160 18 66 84 3f 7d 87 7b 3f 46 c9 89 3f e9 62 84 3f
       1.0343657 0.98253614 1.0764549 1.0342685
000170 5e 41 71 3f cd 83 73 3f 6a 9e 75 3f e2 13 76 3f
       0.9424037 0.9512299 0.95944846 0.9612409
000180 38 3f 81 3f 21 3f 82 3f ea 62 76 3f a1 a5 7f 3f
       1.0097418 1.0175515 0.9624468 0.99862105
000190 c5 97 82 3f e2 35 80 3f 36 b7 76 3f 9a 0f 67 3f
       1.0202566 1.0016444 0.9637331 0.9025818
0001a0 ba 8d 83 3f df d6 7d 3f b6 6b 6e 3f c1 ab 7f 3f
       1.0277627 0.9915599 0.93133104 0.9987145
0001b0 f3 61 85 3f 6d a3 63 3f a0 6c 76 3f f8 55 7a 3f
       1.0420517 0.8892124 0.962595 0.9778743
0001c0 a9 8e 73 3f 22 28 7e 3f 90 1b 7c 3f e0 ba 68 3f
       0.9513956 0.9927999 0.9847956 0.9091015
0001d0 8e 85 6b 3f 94 a0 7b 3f e6 6a 6b 3f 12 23 80 3f
       0.92000663 0.982919 0.9195999 1.0010703
0001e0 9d a0 80 3f 7b e2 80 3f 7e 8a 5a 3f 45 4c 7c 3f
       1.0049015 1.0069116 0.8536757 0.9855388
0001f0 79 ba 82 3f 1e 5b 80 3f c1 f9 86 3f c0 75 7e 3f
       1.0213157 1.0027807 1.0544969 0.9939842
000200 68 23 81 3f 3e 82 6d 3f 17 1e 72 3f 90 87 6f 3f
       1.008893 0.9277686 0.94577163 0.93566227
000210 0e 86 88 3f fa 90 66 3f 88 ac 89 3f f5 28 81 3f
       1.066591 0.90064967 1.0755777 1.0090624
000220 bf fc 61 3f 6f de 70 3f 0b e7 73 3f 8f f4 81 3f
       0.88276285 0.94089407 0.9527442 1.0152758
000230 46 ad 7f 3f 02 52 8e 3f fa a3 6f 3f 7c bd 6e 3f
       0.9987377 1.1118777 0.93609583 0.9325788
000240 be 91 7e 3f fe cc 82 3f 91 9f 6c 3f 35 10 7e 3f
       0.99441135 1.0218809 0.9243098 0.9924348
000250 cb af 8b 3f 7e 1c 64 3f 16 8a 75 3f c3 cd 80 3f
       1.0913023 0.89105976 0.9591383 1.0062793
000260 17 2a 84 3f 0a db 82 3f 77 c6 7f 3f 2c 58 6b 3f
       1.0325345 1.0223095 0.9991221 0.91931415
000270 bb b0 7e 3f ee a8 5c 3f c5 2e 89 3f 07 0c 75 3f
       0.9948842 0.86195266 1.0717398 0.9572148
000280 59 a7 81 3f 57 61 83 3f 4f 80 81 3f de 37 7a 3f
       1.0129195 1.0264081 1.0117282 0.97741497
000290 91 5d 6c 3f c6 eb 89 3f c0 78 67 3f 62 6f 7e 3f
       0.9233027 1.0775077 0.90418625 0.99388707
0002a0 85 6c 81 3f 22 3e 60 3f fd b8 7e 3f 24 10 66 3f
       1.0111243 0.8759481 0.9950102 0.8986838
0002b0 a2 4d 7c 3f 15 1f 71 3f 2f 8b 60 3f 18 d5 80 3f
       0.9855596 0.9418805 0.8771238 1.0065031
0002c0 bb 97 60 3f 70 c6 88 3f 8a 0e 6b 3f 68 dc 89 3f
       0.8773152 1.0685558 0.9181906 1.0770388
0002d0 f6 9f 7a 3f dc 1c 8b 3f 19 37 76 3f f8 e5 6e 3f
       0.9790033 1.0868182 0.9617782 0.93319654
0002e0 cb 63 7e 3f 65 3d 82 3f ff 45 7e 3f ef fb 79 3f
       0.9937102 1.0174986 0.99325556 0.97650045
0002f0 2f 75 7f 3f 79 70 85 3f b1 a6 7a 3f f0 bc 7e 3f
       0.9978818 1.0424949 0.979106 0.99507046
000300 08 4b 88 3f 8c 6d 6f 3f 1b b3 79 3f 29 38 85 3f
       1.0647898 0.9352653 0.9753892 1.0407764
000310 d9 3f 80 3f ea e9 72 3f 19 b7 73 3f df f7 73 3f
       1.0019485 0.94888175 0.9520126 0.95300096
000320 fd 1d 54 3f a3 1e 6f 3f d4 1f 8d 3f 32 99 6f 3f
       0.8285826 0.9340612 1.1025338 0.9359313
000330 32 a9 80 3f 72 49 79 3f 05 33 82 3f 81 59 75 3f
       1.0051634 0.97377694 1.017182 0.958397
000340 89 cd 6e 3f 93 1a 81 3f 6b 74 81 3f 2f 1d 81 3f
       0.9328237 1.0086235 1.0113653 1.0087031
000350 dd 7c 6d 3f f5 eb 8b 3f 1c 4f 87 3f ea 1d 6c 3f
       0.9276865 1.0931383 1.0571017 0.92233145
000360 2a b8 6e 3f 34 f2 8f 3f af 43 8d 3f cd 9f 74 3f
       0.9324976 1.124579 1.103628 0.95556337
000370 1b 21 6d 3f b3 07 5f 3f 9e 6d 70 3f 82 bc 7f 3f
       0.9262864 0.87121123 0.9391726 0.99897015
000380 04 d7 7b 3f c2 01 81 3f 49 b0 81 3f 29 9a 7c 3f
       0.9837496 1.0078661 1.0131923 0.9867273
000390 c1 a4 6e 3f e5 d8 81 3f 56 9e 81 3f 39 27 77 3f
       0.93220145 1.0144316 1.0126445 0.96544224
0003a0 13 05 80 3f 38 2a 79 3f ca ba 65 3f a0 dc 83 3f
       1.0001549 0.97330046 0.8973814 1.0301704
0003b0 25 11 63 3f f6 78 7d 3f 94 55 87 3f 27 cf 84 3f
       0.88698035 0.99012697 1.0572991 1.0375718
0003c0 9e 64 73 3f b4 c8 72 3f 85 e7 7b 3f c7 a5 80 3f
       0.95075405 0.948375 0.98400146 1.0050591
0003d0 f0 e8 5f 3f 80 34 82 3f 1a 49 88 3f 1d a9 83 3f
       0.8746481 1.0172272 1.0647309 1.0285984
0003e0 fe c1 61 3f 2c e1 71 3f 38 45 73 3f 04 71 7a 3f
       0.88186634 0.9448421 0.95027494 0.978287
0003f0 72 c4 71 3f 69 6d 86 3f c9 1d 84 3f 09 79 5f 3f
       0.94440377 1.0502139 1.032159 0.8729406

model.1.bias f4 [512]
000000 b8 e0 6a bd 37 63 29 bd af f9 7b bd b8 27 20 bd
       -0.057343215 -0.041354384 -0.061517414 -0.03910038
000010 35 21 0e be 21 81 82 bd 37 75 a4 bd 52 f7 71 3c
       -0.13879855 -0.06372286 -0.080301695 0.014768438
000020 8b 37 19 be e9 69 9c bd ac ea 02 be 3b 73 93 bd
       -0.14962594 -0.07637388 -0.12784833 -0.07199713
000030 18 85 d4 bd ae 31 94 bd 3c 48 b1 bd 56 55 37 3c
       -0.10376948 -0.07236038 -0.08656356 0.011189779
000040 2c c0 b2 bd df ad cb 3c 36 0f 04 be a9 83 e6 bc
       -0.0872806 0.024863182 -0.12896428 -0.028138952
000050 ef 86 8e bd d6 30 33 bd af 6f f6 bd 44 15 24 bd
       -0.0695933 -0.043747745 -0.12033021 -0.040059343
000060 9c 72 b6 bd 38 6a e5 3c 0b 0f 4a bd a3 8b a7 bc
       -0.08908579 0.02800475 -0.049330752 -0.020452326
000070 96 5b a0 bd 97 ff 0a 3d 55 8f 03 be 4b a7 97 3d
       -0.07829969 0.033935156 -0.12847646 0.074049555
000080 a5 b5 ab bd 31 b9 c0 bc 7b 78 b1 bd 61 6d 3f bd
       -0.08384255 -0.023525806 -0.08665558 -0.04673517
000090 eb cf e5 bd 6e 7a 3d 3c d4 0d a9 bd 02 91 99 bd
       -0.11221298 0.011564834 -0.08254591 -0.07498361
0000a0 ec b9 d4 bc 6c 61 ee bd ec b3 05 be 6e b3 30 bd
       -0.02596756 -0.116396755 -0.13056916 -0.043139867
0000b0 cf f8 1f be b9 c6 28 bd 0c cd 25 bd db 61 ce bd
       -0.15622257 -0.04120514 -0.04047875 -0.10077258
0000c0 ff ab c7 bd a6 66 a7 bd 83 3f 8d bd 6e 0e a1 bd
       -0.097496025 -0.081738755 -0.068968795 -0.0786408
0000d0 90 0f 72 bd a1 b9 72 bd d5 25 86 bd 71 02 b6 bd
       -0.059096873 -0.05925906 -0.06550185 -0.088871844
0000e0 50 00 14 be 46 6b 09 bd 65 0e 88 bd 26 c9 05 bd
       -0.14453244 -0.03354957 -0.066433705 -0.032662533
0000f0 60 fe 4d bd 9c 1c 82 bd 27 ae ac 3b ee e5 94 bd
       -0.05029142 -0.06353113 0.005269784 -0.07270418
000100 83 f8 ed bd 16 63 8f bd ec 88 cc bd 67 4c b4 bd
       -0.116196655 -0.07001321 -0.09987053 -0.08803635
000110 f3 37 2f bd e7 16 ed bd 3e 1a f1 bc 59 6e c9 3c
       -0.042777967 -0.11576634 -0.029431459 0.02458875
000120 a3 4c 03 bd b7 82 c0 bd 5b 2c 79 bd 5f d8 0b bd
       -0.03205551 -0.09399932 -0.060833316 -0.034141894
000130 48 ec 1a bd 80 15 ce bd b1 53 40 be e1 90 7d bd
       -0.03782299 -0.100626945 -0.18781926 -0.061905745
000140 de 97 69 bd 3d 34 cf bd cd 2d 21 bd d1 e4 c4 3c
       -0.057029597 -0.101173855 -0.03935032 0.02403489
000150 bd df 31 bd 19 32 3e be 68 ee f7 bd 4a f2 a3 bd
       -0.043426264 -0.18573798 -0.12106019 -0.08005197
000160 81 69 59 bd 20 92 da bd 00 1b a0 bd ac 04 40 bc
       -0.053079132 -0.106724024 -0.0781765 -0.011719864
000170 70 8a 10 be 89 7c 97 bd b8 ab b9 bd 4d e5 d7 bd
       -0.1411531 -0.073968 -0.09065956 -0.105417825
000180 74 88 35 bd 08 13 4a ba 96 e3 a1 bd c3 fe 60 bc
       -0.044319585 -0.00077085244 -0.07904737 -0.013732615
000190 ff 33 86 bd 7a e5 d0 bd f3 e4 f7 bc a3 59 72 bd
       -0.06552886 -0.10200019 -0.030260539 -0.059167515
0001a0 12 f9 aa bd 81 e1 6e 3c b5 80 a7 bd 8c 0a 08 be
       -0.08348288 0.0145801315 -0.08178846 -0.13285273
0001b0 0d e0 32 bd 93 d9 ef bd f3 75 ee bd 90 6c 8a bd
       -0.043670703 -0.11711421 -0.11643591 -0.06758988
0001c0 9a ee c6 bd 48 07 92 bd c9 16 15 bd ba 55 fd bd
       -0.097134784 -0.07130295 -0.036398683 -0.12369867
0001d0 48 3d 91 bd 53 e2 89 bd 95 a1 6d bd e3 99 e9 3b
       -0.070917666 -0.06732621 -0.058015425 0.0071289404
0001e0 72 ad b4 bd 16 12 05 3c 7d 24 f8 bd 4d e1 98 bd
       -0.088221446 0.008121988 -0.121163346 -0.07464848
0001f0 32 1b 09 bc 32 f0 c3 bb ea e8 34 bc a2 00 27 bd
       -0.0083683 -0.0059795612 -0.011041859 -0.040772088
000200 1c 2c 44 bd 0f db 8c bd 27 7e 08 be 67 b8 c3 bd
       -0.04789363 -0.068777196 -0.13329373 -0.09556656
000210 9c e9 d6 bd b6 85 ea bd 10 c9 61 bd 79 30 25 3c
       -0.10493776 -0.114512846 -0.05512339 0.010082358
000220 51 5b ee bd ab 01 2e 3d 6f 9b f9 bd 9a d2 e8 3c
       -0.11638511 0.04248206 -0.1218785 0.028420735
000230 4b e8 f6 bc 53 b1 08 bd cf 6f b4 bd e6 d9 db bd
       -0.030140063 -0.033372235 -0.08810388 -0.1073492
000240 96 41 5a bd c4 72 2c bd cd 74 dd bd 6f 80 c4 bb
       -0.053285204 -0.042101637 -0.108132936 -0.005996756
000250 64 00 c6 3c 55 13 ed bd df 57 74 3c 5b 46 d2 bd
       0.024170108 -0.11575953 0.014913528 -0.102673255
000260 d0 06 54 bd 1b 94 9d bc 70 a9 90 bd 55 dc 00 bd
       -0.05176431 -0.019235661 -0.07063568 -0.031460125
000270 55 3a 73 bc 9d c1 b9 bd a0 41 ce bc 79 66 c2 bd
       -0.01484545 -0.09070132 -0.025177777 -0.09492201
000280 6c 39 65 bd d9 34 fa bc 59 1c 88 bd c4 c2 6a bd
       -0.055962965 -0.030542778 -0.06646032 -0.05731465
000290 bb 3b 8e bd e4 ea 84 3d 65 a1 fb bd 91 26 1d 3d
       -0.069449864 0.06490114 -0.12286643 0.038366858
0002a0 c2 9c 7a bd 0c 63 f2 bd 76 1d 54 bd 74 1d ee bd
       -0.061184652 -0.11835298 -0.05178591 -0.116267115
0002b0 79 c7 6e bd af 94 03 bd 33 6e e1 bd b9 3c 8d 3c
       -0.0582957 -0.032124218 -0.11007347 0.017240869
0002c0 e5 57 08 bd 28 2c b4 bd 69 b8 0c be 6c 38 10 3c
       -0.033286948 -0.08797485 -0.13742222 0.0088025145
0002d0 b2 11 ba bb a3 82 ad 3c 3a 09 9a bd 47 d5 80 bd
       -0.005678379 0.021180457 -0.07521291 -0.062906794
0002e0 89 86 ca bc 4e dd c6 bc e6 d1 00 be 71 be 40 be
       -0.024722354 -0.024275448 -0.1258007 -0.18822648
0002f0 4d af cc bd ac 51 ad bc f0 d6 cc bd a7 6b 2d bd
       -0.099943735 -0.021157108 -0.100019336 -0.042338993
000300 01 00 3b 3d 5f 2d 05 be 84 7e bf bd ab 4b 1a 3d
       0.0456543 -0.13005589 -0.09350303 0.03766982
000310 69 10 3e bd 59 6f 5a bd 46 7e 5c bd 7a 12 f5 bd
       -0.04640237 -0.053328846 -0.05383136 -0.11966415
000320 35 8c 1b be 13 17 b4 bd 78 0e cd 3c a5 d0 c4 bb
       -0.15190203 -0.087934636 0.025031313 -0.0060063177
000330 1c 6a 0b 3a d1 51 7d bd e4 a1 62 3c 5f 58 9c bd
       0.0005318241 -0.061845604 0.013832543 -0.07634043
000340 9a b9 1c bd 43 10 b4 bd 84 aa c4 bc 06 4b 2c bb
       -0.03826294 -0.08792164 -0.02400709 -0.0026289835
000350 55 14 6c bd 63 69 86 3c 17 c0 96 3b 24 87 d7 bd
       -0.057636578 0.016407674 0.0046005356 -0.10523823
000360 32 73 c3 bd 2a 30 7a 3c fb c5 12 3d cc ad 95 bd
       -0.09543456 0.015270272 0.03583334 -0.0730854
000370 87 48 71 bd bb 40 26 be f3 b6 d3 bd a4 bd 84 bb
       -0.058907058 -0.1623563 -0.10337629 -0.0040509272
000380 79 a6 98 bd 36 fe 97 3c 07 88 42 bd a5 74 d8 bc
       -0.07453627 0.018553834 -0.047493007 -0.026422808
000390 e7 a9 6b bd a1 44 c8 bd d6 71 f8 ba d8 21 10 3d
       -0.05753508 -0.09778715 -0.0018954824 0.035188526
0003a0 0c 0c 59 bd 7d 4f 9e bc 00 b5 ff bd e1 76 2e bd
       -0.052990004 -0.019325012 -0.12485695 -0.04259384
0003b0 d5 8a f3 bd e4 b2 84 bd f0 85 a7 bd 8a 3f be bb
       -0.118917145 -0.06479433 -0.081798434 -0.0058059143
0003c0 e2 1d b0 bd 03 1b be bd 07 a4 eb bd 94 a7 34 3c
       -0.0859945 -0.09282496 -0.11505895 0.011026282
0003d0 60 b9 ff bd 3d 46 52 bd e5 1d f5 bc 44 2c 34 bb
       -0.12486529 -0.051336516 -0.029921481 -0.0027492205
0003e0 4c 96 32 be a8 75 97 bd 5c ff a9 bd 8c 1b 60 bd
       -0.17440146 -0.07395488 -0.08300659 -0.05471377
0003f0 df f7 df bc dc ef 89 bd 3c 26 bb bd e0 1e e4 bd
       -0.027339874 -0.06735203 -0.09138152 -0.111387014

model.1.running_mean f4 [512]
000000 1a cd a9 3d d6 3f 63 3e 27 88 71 be 14 46 21 bf
       0.08291073 0.2219232 -0.23587094 -0.62997556
000010 2e 77 b5 be 96 47 d5 3d 12 79 b2 bc 76 1c 8e be
       -0.3544249 0.104140446 -0.021786246 -0.2775609
000020 8e 6f 76 be b7 c1 0e bf 37 45 16 bf 5e 51 0c 3f
       -0.24065992 -0.55764335 -0.58699363 0.54811656
000030 5a fc 2c bf d2 ef 26 3d d1 7f 85 be c9 a5 fe 3d
       -0.6757256 0.040756054 -0.2607408 0.12433965
000040 f0 b3 21 3e 57 8e 71 3e c8 f6 53 3e bc 63 5e be
       0.15791297 0.23589455 0.20699608 -0.21717733
000050 ad eb 86 3e 32 0f 6b 3c 45 60 28 3d ce b8 88 be
       0.2635168 0.014346885 0.041107435 -0.26703495
000060 ff 5e 0e 3c 60 dd 10 3f bc 9a 78 be c6 dc 36 3e
       0.008689641 0.5658779 -0.24277776 0.17857656
000070 af 97 f3 be 56 db ab 3c 5a 80 26 be bb bd aa 3e
       -0.47576663 0.020978611 -0.162599 0.33347878
000080 94 0f 0c 3f e7 67 b0 3e 28 c2 dd be 28 77 82 bd
       0.5471127 0.3445427 -0.43312192 -0.063703835
000090 cc 46 e9 bc 03 e2 b4 be 24 07 4b 3e 64 aa f9 3e
       -0.028476141 -0.35328683 0.19826943 0.4876281
0000a0 f4 5a 05 3e ec 05 89 3d d6 ae 2b 3e e8 88 0e 3b
       0.13022977 0.06690583 0.16765913 0.0021749083
0000b0 e7 4d 9c 3e 11 f9 4f 3e 93 56 ab 3e d9 b9 a4 3e
       0.30528185 0.20309855 0.33464488 0.3217304
0000c0 3c 30 90 bd 15 2a bc 3c 49 4f 85 3e 6d 31 3f be
       -0.0704045 0.022969285 0.26037052 -0.18671198
0000d0 42 7f e0 be ee a5 38 3e c4 35 47 3e af 91 4c be
       -0.4384709 0.18032047 0.19454104 -0.19977449
0000e0 a7 85 c1 3e e0 77 0e be 1f 85 7a 3e 40 c7 23 3e
       0.3779728 -0.13912916 0.24464844 0.15993977
0000f0 6d c8 e6 bd 3e 9d bc be de 5c 3e be ef 7d 20 3e
       -0.11268697 -0.36838716 -0.18590114 0.1567304
000100 6c cc 40 3f be ce d8 bb ac 8a f2 be 02 0a bf 3d
       0.75311923 -0.0066164425 -0.47371423 0.09328081
000110 0e 3f 80 3e e5 c7 8d 3e 2c 5f a8 be e2 5c 07 3f
       0.25048107 0.2769157 -0.3288511 0.528761
000120 c3 76 d4 3b 35 ee fb bc e9 6d ab be eb 21 82 be
       0.006483884 -0.030753234 -0.33482292 -0.25416502
000130 6a 5c af 3e bf d8 ad bd e8 3a 0f 3f 5f d8 a5 3e
       0.34250194 -0.08488607 0.5594926 0.3239164
000140 f4 15 dd bd 80 fa 31 3e a1 e7 53 be 32 88 de be
       -0.10795203 0.17380714 -0.20693828 -0.43463284
000150 6c 96 da bd 5b 7f 24 bf 94 90 05 bd 18 a0 4f 3e
       -0.10673222 -0.6425683 -0.032608584 0.20275915
000160 2a ea 02 bf ef 1b ac 3e 95 2c c2 3d 42 6e d5 3d
       -0.51138556 0.33615062 0.094811596 0.10421421
000170 95 00 9e be 8d fe 5f 3d da 28 e6 3c f5 63 78 be
       -0.3085982 0.054686118 0.028095651 -0.2425688
000180 ae 55 7f 3e 48 3e 0f 3c 54 42 2b bf 08 29 86 be
       0.24935028 0.008742876 -0.66898084 -0.2620318
000190 f6 12 0a 3e e3 60 0a 3f d3 50 2f bf 83 b7 8c 3e
       0.13483796 0.5405409 -0.684827 0.27483758
0001a0 f0 99 8a bd 47 a6 9c 3e 6c 4f 68 be df 0a 67 3e
       -0.067676425 0.3059561 -0.22686547 0.2256274
0001b0 0f 21 07 bd 22 8c ba be 8b de 37 bc 2b a4 57 3d
       -0.03299051 -0.36435038 -0.011222492 0.052646797
0001c0 09 fe 84 be 2e 97 25 bd 59 cc 5a 3e 4e bd 7d 3e
       -0.25975063 -0.04042738 0.21367015 0.24779245
0001d0 63 b4 30 3e 9b 92 09 be b4 2f 91 3e fc 96 a3 3d
       0.17256312 -0.13434832 0.28356707 0.07987782
0001e0 45 24 3f be e4 6f 9d 3e 92 31 f8 3d f8 c7 8c be
       -0.1866618 0.30749428 0.1211883 -0.27496314
0001f0 e4 76 0a 3d 90 ed c9 bb 1d 10 41 3e b1 3a 87 be
       0.03380479 -0.006162353 0.18853803 -0.26411965
000200 55 8a 42 3d 58 13 ce be 1b 0c 0b 3c 0c 05 86 be
       0.047495205 -0.40249133 0.008486773 -0.26175725
000210 c9 28 aa 3d 44 30 ac 3c ca e7 a4 3e 69 fe 9f be
       0.083085604 0.021019109 0.3220809 -0.31248787
000220 8d 2d e7 bc d8 9f bb 3c b9 82 07 bd ba 90 8a 3d
       -0.028219962 0.022903368 -0.03308365 0.06765886
000230 2b bc 20 be ee a5 9c 3e 51 71 a4 3e b4 86 2b 3e
       -0.1569678 0.30595344 0.32117704 0.16750604
000240 19 11 38 be c3 b0 df 3e 9a c3 cb 3d 89 3d 82 3e
       -0.17975272 0.43689546 0.099494174 0.25437573
000250 eb e6 68 3e b1 d9 3c 3e d0 63 16 3f bf 2e a8 be
       0.22744338 0.18442418 0.5874605 -0.32848164
000260 02 f6 83 be 00 da 50 be ba 6a bd bd fb 68 21 be
       -0.25773627 -0.2039566 -0.09248872 -0.15762703
000270 c6 bd 3b 3c b3 16 85 3e 73 73 4b 3e f9 fd 5a be
       0.01145882 0.2599388 0.19868259 -0.21385945
000280 31 85 30 bc e9 fd 3c be c8 33 e6 3c 33 b1 9f be
       -0.010773943 -0.18456234 0.028100863 -0.3118988
000290 0b 5a 86 be fc 50 05 bf 0d a7 b6 be f5 ed 20 3d
       -0.26240572 -0.520767 -0.35674325 0.039289434
0002a0 d8 13 29 3b a2 45 4b be a6 17 8b be 65 01 9b 3e
       0.0025799181 -0.19850782 -0.2716648 0.302745
0002b0 aa 6b d9 bc 84 c7 86 3c f8 49 72 3e e3 a0 8e be
       -0.026540596 0.016452558 0.2366103 -0.27857122
0002c0 f4 d0 fc bd d7 d9 61 be 20 be 78 3e 18 b9 39 3e
       -0.12344542 -0.22055756 0.24291277 0.18137014
0002d0 95 c5 74 bc a8 7d 80 3e 13 1e bf be 48 63 f0 3e
       -0.014939685 0.25095868 -0.37327632 0.46950746
0002e0 a4 bf 2c be 40 47 08 3f f0 c6 91 3e 78 d9 06 bd
       -0.1686998 0.5323372 0.2847209 -0.032922238
0002f0 24 19 bd 3d 8d a9 b3 3d d6 17 a1 3e be 7f 14 3f
       0.09233311 0.087725736 0.31463498 0.5800742
000300 17 32 57 3e 6e 0f 9b be a1 d4 cb 3c 22 98 59 3e
       0.21015202 -0.3028521 0.024881663 0.2124944
000310 a4 9d bf be f7 a6 92 bb e6 28 91 3e 8c 07 a9 3e
       -0.37424958 -0.00447547 0.28351516 0.3301357
000320 f5 e0 92 bd 99 ad af be ec 7e 9d be 35 c8 b6 bb
       -0.071718134 -0.34312132 -0.30760896 -0.0055780658
000330 b7 44 8b 3c b9 95 1b 3e 7c 33 05 3f 12 0e d7 3d
       0.01700054 0.15193833 0.52031684 0.105007306
000340 ab 17 0d 3e ae 91 c9 bd 55 b5 89 be 0a fa 5a 3d
       0.1377856 -0.09842239 -0.26896158 0.053461112
000350 e7 06 8b bd 0f 59 a9 3e 96 d7 da be c7 78 bc 3e
       -0.06788426 0.3307576 -0.42742604 0.36810896
000360 53 c9 cd 3e e8 a6 68 3f e2 ad c6 bd e1 85 33 3d
       0.4019266 0.9087968 -0.09701134 0.04382885
000370 73 46 28 be 67 99 8e 3e 69 88 79 3e 56 ee 15 bf
       -0.16433124 0.27851412 0.24368443 -0.58566797
000380 ee a3 c3 3e c4 6e 66 be 9e 97 a6 bd 18 a4 e4 bd
       0.38211006 -0.22503191 -0.081343874 -0.11164111
000390 ed 74 20 3e d6 b9 94 be c5 a0 a3 be c9 81 2d 3d
       0.15669604 -0.29048032 -0.31958595 0.0423601
0003a0 b6 29 f7 bc e7 39 0f be c5 51 45 3f 8e 7c 00 bf
       -0.030171257 -0.13986932 0.77077895 -0.50190055
0003b0 b6 0c 7f 3e d8 67 b7 be b8 dc 12 3e 38 67 81 bc
       0.24907193 -0.35821414 0.1434201 -0.015796289
0003c0 f1 ca 0b 3f c7 30 00 3f eb df 1c bf cd d3 58 3e
       0.5460654 0.5007443 -0.6127917 0.21174546
0003d0 cf a8 90 be 3d ee 75 bc 7c 0b ba 3e 31 ec 39 3d
       -0.2825379 -0.015010414 0.36336887 0.045391265
0003e0 01 da 17 3f 8c d9 bc 3d 16 27 3e 3e 1c a0 49 bd
       0.5931702 0.09221181 0.18569598 -0.049224958
0003f0 fb 21 05 3e e8 25 86 3e 07 8e 9e be c5 dc 8b be
       0.13001244 0.26200795 -0.30967733 -0.2731687

model.1.running_var f4 [512]
000000 92 3d d1 3c d7 78 bb 3b 95 61 c6 3c 12 08 11 3c
       0.025542054 0.0057211923 0.024216453 0.008852022
000010 a9 91 c8 3c 81 fd fd 3c 15 0a 05 3c 41 86 bd 3c
       0.024483519 0.03100467 0.0081200795 0.023135306
000020 16 cb 95 3c 71 b4 67 3c 10 81 a3 3c e0 f1 0d 3c
       0.018285315 0.014142142 0.019959003 0.0086636245
000030 6b 03 1c 3d ed e1 bf 3c da a5 00 3c 16 50 cb 3c
       0.038089197 0.02342316 0.007852042 0.024818461
000040 6b 0d af 3c 6c 60 0c 3c e9 4d f9 3c 06 88 37 3d
       0.021368703 0.008567911 0.030432658 0.044807456
000050 26 3b e7 3c d1 b6 87 3c 95 21 61 3c 27 59 8c 3c
       0.028226446 0.016566666 0.013740917 0.017132355
000060 96 71 1a 3d 7b 1f 56 3c a0 18 05 3d 2b 4a b3 3c
       0.03770598 0.013069029 0.032494187 0.021885952
000070 cd 6c 05 3c 54 fc b3 3c 86 58 e9 3c eb 11 ec 3b
       0.008143616 0.021970905 0.028484594 0.0072042844
000080 46 9f ab 3c 76 31 a1 3c b0 76 92 3c 3e 43 63 3c
       0.02094997 0.019676905 0.01787886 0.013871012
000090 86 67 b1 3c 13 9f 6b 3c bf a5 1b 3c 6f 85 a0 3c
       0.02165581 0.014381188 0.009499966 0.019594876
0000a0 09 ae cd 3c f8 49 2a 3d 88 10 c2 3c 8f 7a 58 3c
       0.0251074 0.04157445 0.023689523 0.013212814
0000b0 c7 e3 86 3c 4a c2 23 3c 36 77 d8 3b 8b ba 11 3d
       0.016466035 0.009995053 0.006606008 0.035578292
0000c0 c9 46 bb 3c d6 35 69 3c 3a ac 55 3c e2 a4 6e 3c
       0.022860901 0.014234027 0.01304155 0.014565678
0000d0 c3 20 8c 3c 06 12 b3 3c 5e 10 2a 3c 4f ff 13 3d
       0.017105466 0.02185918 0.010379879 0.036132153
0000e0 7c 4d 46 3d 3e 93 41 3c 2c 39 cf 3b c9 2c 3c 3c
       0.04841374 0.01181489 0.006323954 0.011485287
0000f0 94 95 73 3c 5b 0d 6d 3c 6a ec 25 3d 21 1c 24 3d
       0.014867205 0.014468516 0.040508665 0.04006589
000100 b1 f9 d5 3b cd 5a 23 3c ae 6b bb 3c 6c 31 ac 3c
       0.0065300097 0.009970379 0.022878494 0.02101966
000110 da fe 12 3c 60 8e 10 3d 4e 65 b0 3c 48 9e 59 3c
       0.008971894 0.03529203 0.02153268 0.013282366
000120 a8 34 a4 3c 7e 3c cb 3b ad 48 24 3c c1 31 4a 3c
       0.02004464 0.0062022796 0.010027093 0.012340964
000130 5a 8c 98 3c a6 66 33 3c 59 2f 99 3c 6e 5a 8c 3c
       0.018621612 0.010949766 0.018699335 0.017132964
000140 a9 5d cf 3c a4 40 0c 3d 3a 6d 03 3c 1f d4 cb 3b
       0.025313215 0.034241334 0.008021647 0.006220355
000150 d8 7a 05 3d c6 c7 c6 3c 4a 8e bc 3c ea 81 78 3c
       0.032587856 0.024265181 0.023017067 0.015167693
000160 d9 d4 a9 3c 57 85 6e 3c 0f 80 ff 3b 4f d7 ce 3c
       0.020731376 0.014558158 0.007797248 0.025249152
000170 fe 12 95 3c 3f 14 0e 3d ed c7 84 3c 1b df 1d 3c
       0.018197533 0.034687277 0.016208613 0.009635712
000180 27 41 f7 3c 81 2a 62 3c 37 48 0a 3d f0 cd fd 3c
       0.030182434 0.013804079 0.033760276 0.030981988
000190 c0 4a ab 3c d9 f1 ce 3c 9b 4e 82 3c 5e 54 bf 3c
       0.020909667 0.025261806 0.015906623 0.02335566
0001a0 5d 48 30 3c dc 99 59 3d d6 e2 bb 3c f3 d7 d4 3b
       0.01075944 0.053125247 0.022935312 0.0064954697
0001b0 3a b7 f0 3b 7b 1b 05 3d 0a 10 53 3c 85 32 4d 3c
       0.007346061 0.03249691 0.012882242 0.012524252
0001c0 b9 35 79 3c 98 3b ed 3c 97 4b 8d 3c 71 84 f5 3c
       0.015210562 0.02895908 0.017247958 0.02997038
0001d0 1f cf c5 3c bc dd 34 3c 1b 38 07 3d 44 fc a5 3c
       0.024146615 0.011039194 0.03301249 0.020261891
0001e0 ac bd f8 3b e1 b9 66 3c c8 76 35 3c 55 95 de 3b
       0.00759097 0.014082403 0.011075683 0.006792704
0001f0 f6 e7 d4 3c ec c5 1f 3c 30 64 27 3c 09 dc 24 3d
       0.025989514 0.009751778 0.010216758 0.040248904
000200 06 69 2f 3c b2 97 67 3c 3e 24 07 3d 3b 38 9d 3c
       0.010706192 0.014135288 0.032993548 0.019191852
000210 5a 8c 8a 3c 67 04 e0 3c e8 7b 4f 3c de 53 14 3c
       0.016912628 0.02734585 0.012663819 0.009053199
000220 9d 26 f0 3c 36 43 d4 3c ec f4 32 3c 7c 60 75 3c
       0.029315287 0.025910955 0.010922652 0.014976617
000230 08 c9 b2 3c 47 06 3f 3c 00 ec c2 3c 57 7b 4d 3d
       0.021824375 0.0116592115 0.023794174 0.050166454
000240 98 1c 1e 3d 93 22 35 3c d9 ce 38 3c 6f 44 01 3c
       0.038601488 0.011055606 0.011279785 0.007889851
000250 85 e4 ec 3b 76 64 6f 3c a0 bb d1 3c 8b 3e 03 3d
       0.00722939 0.014611354 0.025602162 0.032042067
000260 94 98 3d 3c ac 0d 9f 3c 67 ac 95 3c ad de bf 3c
       0.011572022 0.019415699 0.018270684 0.02342161
000270 d0 a6 a5 3c cd a0 83 3c 81 21 56 3c c4 69 b7 3c
       0.020221144 0.016067887 0.013069511 0.0223893
000280 2b ae 1e 3c 46 0f e1 3b 7c 17 92 3c 65 21 a0 3c
       0.00968508 0.006868276 0.017833464 0.019547174
000290 7e 9e 5e 3d d5 55 ad 3c 22 d0 ea 3c b3 26 ad 3c
       0.05435037 0.021159092 0.028663699 0.021136617
0002a0 fe ef 44 3c 4d 61 64 3c 0c 6a cd 3c fb 80 5a 3d
       0.012020109 0.013939214 0.025074981 0.05334566
0002b0 98 f4 f1 3b a5 bf 7c 3c d7 5e c0 3c 8c a7 8e 3c
       0.007383894 0.015426551 0.023482723 0.017413877
0002c0 9a b9 c4 3c 02 44 73 3c f8 10 97 3c 7a ef 0d 3c
       0.024014283 0.014847757 0.018440709 0.008663053
0002d0 ea c3 0e 3c 26 48 1b 3c da 2a 90 3c 06 b4 e7 3c
       0.008713702 0.009477651 0.017598558 0.028284084
0002e0 fb ed b2 3c e6 ff 42 3c 39 06 e2 3c 05 1a 72 3c
       0.021841994 0.011901831 0.027590858 0.014776711
0002f0 bf c0 a2 3c bb 9c 4e 3c d7 b7 cf 3c 1a 48 4b 3d
       0.0198673 0.01261061 0.025356216 0.04962931
000300 3e 99 f5 3b 68 77 ae 3c 79 e6 c2 3c 30 96 f0 3b
       0.0074950745 0.021297172 0.023791539 0.0073421225
000310 8a 74 14 3c 62 6e ea 3c 57 6a a2 3c c1 05 c4 3c
       0.009060988 0.028617088 0.019826097 0.023928525
000320 d1 a6 e1 3c 70 64 93 3d 8f ed 00 3c 24 cc bd 3c
       0.027545365 0.07196891 0.007869138 0.02316863
000330 39 0b 28 3c 5f 41 49 3c a4 f2 77 3c 0f 65 ba 3c
       0.010256582 0.012283652 0.015133534 0.022753267
000340 6e ad 16 3c bb 92 96 3c 78 5d e1 3b 52 11 a5 3c
       0.009196622 0.018380513 0.0068775974 0.02014986
000350 ee 56 92 3c 23 df 8c 3c e5 22 2d 3c 54 32 0a 3d
       0.017863717 0.017196244 0.010567402 0.033739403
000360 c3 8b f6 3c b4 8f 05 3c 64 4c 09 3c 6c a2 9d 3c
       0.03009594 0.008151937 0.008380029 0.019242488
000370 80 ae e2 3c 87 43 07 3d 3c 4b 9b 3d cd 2a bf 3c
       0.027671099 0.033023383 0.07582709 0.023335839
000380 c8 01 49 3c a4 f5 39 3c 64 89 4a 3c 10 c6 e6 3c
       0.012268491 0.011350069 0.012361858 0.028170615
000390 d8 63 89 3c 0e c3 9c 3c c6 c6 83 3c 04 b6 97 3c
       0.016771242 0.019135978 0.016085993 0.018519409
0003a0 2a 85 6f 3c cf b6 77 3c ed b6 dc 3c 62 06 8d 3c
       0.014619151 0.015119269 0.026942695 0.017214958
0003b0 d0 1d 0e 3d 79 83 61 3c 44 c1 7b 3c 49 8b 27 3c
       0.0346964 0.013764256 0.015365902 0.010226079
0003c0 de c0 ef 3c 83 e2 2a 3c 94 e8 a8 3c 84 8d ce 3c
       0.02926677 0.010429981 0.020618714 0.025213964
0003d0 0e 33 3f 3d 00 a4 88 3c 42 be 91 3c 25 5c 18 3c
       0.04667955 0.016679764 0.017790917 0.009299313
0003e0 18 e4 a9 3c 8d 43 f9 3c e4 ae 05 3d 64 d8 4c 3c
       0.020738646 0.030427719 0.03263749 0.012502763
0003f0 1f 3b de 3c cd e0 7d 3c e8 ea 4b 3c 97 16 b7 3c
       0.0271278 0.015495491 0.012446143 0.022349639

model.3.weight f4 [256, 512]
000000 20 9e 06 bd 1a 38 71 3d 1b 2e bf 3c 3c 09 d0 bc
       -0.032865644 0.058891393 0.023337414 -0.025395028
000010 d9 ea c4 3b 9c 2f 4b bc 42 1f 8a b9 e2 ae 1a 3c
       0.0060094413 -0.012401488 -0.000263447 0.009441109
000020 bf cf c9 3d 09 86 a2 bc 6e 94 16 3c 6e 4c eb 3c
       0.098540775 -0.019839304 0.009190662 0.028722968
000030 ac e4 c7 3c 2e e8 8a 3d 0a 56 86 3d b8 a4 bb bd
       0.024401031 0.06782566 0.065593794 -0.09162277
000040 1c ad 7a 3d 0a de bb 3a f8 c1 49 bc 05 9c 3a 3d
       0.061200246 0.001433314 -0.012314312 0.045558948
000050 d4 f9 29 3d 21 68 89 3d 1a 37 31 bd c2 30 fa bc
       0.04149802 0.06709314 -0.04326544 -0.030540828
000060 04 49 56 3d ae 20 1a 3d 8d 3d 4b 3a 60 b2 01 bc
       0.052315727 0.037628822 0.0007753007 -0.007916063
000070 bd 72 58 bd 58 38 b6 b9 13 01 1e 3d fe 5d 36 bc
       -0.052843798 -0.00034755724 0.038575243 -0.011130808
000080 13 8b 21 bb 5b 96 98 bb 24 39 ce bd 2e e1 e5 bc
       -0.0024649545 -0.0046565956 -0.100694925 -0.028061476
000090 35 2f 24 3d a6 b0 08 bd 04 41 51 bc d8 52 68 bd
       0.040084083 -0.03337159 -0.012771849 -0.05671963
0000a0 28 71 70 3d cf 9b ec bb 5e 83 8d 3c 78 c3 4e bd
       0.058701664 -0.0072207223 0.017274555 -0.050479382
0000b0 9d e9 2d bc 65 ec a0 3d 17 4d a5 3c 26 aa 16 3d
       -0.01061478 0.07857589 0.02017836 0.03678336
0000c0 1f 16 ac bb 28 15 f3 3c 4e 34 94 3c 22 71 95 3b
       -0.0052516605 0.029673174 0.018091347 0.0045606056
0000d0 85 19 8f bd d6 2b 59 3d ed 64 6e 3d eb c1 fd bc
       -0.06987289 0.05302032 0.05820172 -0.030976256
0000e0 39 6b ef 3c d7 06 01 bd bd 92 54 bd 42 c8 9e bc
       0.029225932 -0.031500664 -0.051897753 -0.0193826
0000f0 bd 20 42 3d df 3d 00 3d 02 ba 1b 3d 24 86 da 3c
       0.047394503 0.031309005 0.038019188 0.026675291
000100 b2 4f 8c bc 5f 62 94 3c 92 b0 31 bd 0d 62 f8 3c
       -0.017127845 0.018113313 -0.04338128 0.030320192
000110 25 f3 66 3d c3 c5 24 bd 4c 50 cc 3c 1f c1 05 bc
       0.056384224 -0.040227663 0.024940632 -0.008163719
000120 a8 55 a1 bc d0 40 88 bb f6 61 e9 3c 2f 26 81 bc
       -0.019694164 -0.004158117 0.028489094 -0.015765278
000130 de e8 cf 3c 69 1f f8 bb 6b 0f 77 bc e7 db e4 3b
       0.025379594 -0.0075721038 -0.0150793595 0.006984222
000140 e9 8b b4 bc 46 41 d7 3c d6 78 eb bd 74 d6 75 bd
       -0.02203937 0.026276242 -0.11497657 -0.06001897
000150 c5 11 f3 b9 29 e4 82 bd 9c ac 9a 3c b4 c8 51 3c
       -0.0004636181 -0.06391174 0.018881135 0.012804199
000160 6b b7 0f 3c 84 58 21 bc d7 c9 40 bd 29 0a b1 3c
       0.008771758 -0.009847764 -0.04706749 0.02161129
000170 58 9a 17 3d 7a ba 02 bd 10 e7 eb b9 0e 58 3a bd
       0.037012428 -0.03191612 -0.00044994848 -0.04549413
000180 da 57 5b 3d 11 3c b7 3b aa 73 33 3d 4f eb 5d 39
       0.05355058 0.0055918773 0.043811478 0.00021163862
000190 b6 e6 34 bd c0 95 98 3d c1 0c d6 bc ad da 85 bb
       -0.044165336 0.074504375 -0.026129128 -0.004084906
0001a0 d4 61 b2 bc 64 f1 b6 bc e0 6a 0e 3d 11 83 04 bd
       -0.021775164 -0.0223319 0.034769893 -0.032351557
0001b0 71 3a 2b bb c7 b2 db 3c f3 82 85 3c 69 05 58 3d
       -0.0026127363 0.026818646 0.016297793 0.052739535
0001c0 bf 2c 25 bd 65 1f 30 bd 3c 30 53 3d ba f6 25 3d
       -0.040325876 -0.04299869 0.05155967 0.0405185
0001d0 e0 b2 57 3d ed 51 93 bc ee 59 1b bd 70 5d 36 3d
       0.052660823 -0.017983401 -0.03792756 0.044522703
0001e0 74 e2 66 3c 34 fe 0c 3d 33 83 93 3b 64 11 cd ba
       0.014092077 0.034422114 0.004501724 -0.0015645442
0001f0 32 5b 8f bc 95 4f 89 bd 66 6a d5 3c ac 96 82 3d
       -0.01749954 -0.06704632 0.026051711 0.06376395
000200 4e 89 2a 3d 86 e7 29 3d 15 2a d0 bb 4e 7d 7d bc
       0.04163485 0.041480564 -0.006352673 -0.0154717695
000210 f4 94 cc 3c 65 56 22 3b e8 10 16 bb ac 6a bd 3b
       0.02497337 0.0024770733 -0.002289826 0.0057805385
000220 20 68 80 3d 48 fd 85 bd ae f8 f8 bc d5 1f cc 3b
       0.0626986 -0.0654245 -0.030392017 0.0062293806
000230 4e 79 4f b9 36 41 eb 3c 0e a3 7f bb 65 75 dc 3c
       -0.00019786248 0.028717618 -0.00390071 0.026911447
000240 d2 2d 6c 3c 8c c2 07 bb 6b c0 81 3c 17 33 7d 3c
       0.014415221 -0.0020715324 0.015838822 0.015454075
000250 12 c1 2b 3d 9b da d1 39 f3 58 de 3c 7c eb 7c bd
       0.041932173 0.0004002646 0.027142024 -0.061748013
000260 8d 08 10 bc 3f df 48 3c eb 14 8b bd 59 3c c5 39
       -0.008791101 0.012260257 -0.06791099 0.0003761973
000270 5a b8 9a bc 83 46 62 3d 5c 47 28 3d d3 fc 8e bd
       -0.018886734 0.055243026 0.04108368 -0.06981816
000280 ed 1b d3 bc ef 06 83 bc bf d9 02 3d bb d4 d2 bc
       -0.025770152 -0.015994517 0.03194594 -0.025736203
000290 5b 59 44 3d 89 42 85 3b c7 d6 6a 3c 6e c5 af bb
       0.04793678 0.0040667695 0.0143334335 -0.0053641116
0002a0 11 e5 9b 3d ab 35 05 3d 8f 21 ed bc 66 e4 32 3d
       0.0761205 0.032521885 -0.028946666 0.04367485
0002b0 1e 42 64 bd d5 cc 4c bd ba 0b 2e bc 3c 24 94 bd
       -0.055727117 -0.05000003 -0.010622913 -0.07233474
0002c0 9f 88 29 3d ca 75 11 3c af 67 00 bd 75 fb 9b 3d
       0.041390058 0.008878181 -0.03134888 0.07616321
0002d0 3f 9e d3 bb 53 e7 dc 3d b1 27 7a 3c 6f 00 c4 bc
       -0.0064580734 0.10786309 0.015268252 -0.023925988
0002e0 06 a3 dd 3c 1d 83 03 3c 5e 90 05 3d 00 5e dd bc
       0.027055275 0.008026865 0.032608382 -0.027022362
0002f0 59 b7 b9 3c 0d 7c 29 3d ac 1d 68 bd 0d 51 84 3c
       0.022670435 0.04137807 -0.056668922 0.01615193
000300 36 b6 0d 3a a9 ec f9 3c 61 62 94 bb 4a b1 0f 3c
       0.00054058747 0.030508356 -0.0045283292 0.008770296
000310 27 58 b0 bd 14 af b5 3b 91 7b 7f 3d 5d 9a 6d bc
       -0.08610564 0.0055445526 0.0623737 -0.014502135
000320 1f 0d 0e bd aa f0 10 bd 00 7f 97 bc 87 44 e3 bc
       -0.034680482 -0.035385765 -0.018493176 -0.027742637
000330 15 44 cf bc 68 8c da bb 19 72 15 3d a1 50 9c 3c
       -0.025301019 -0.0066695698 0.036485765 0.019081416
000340 80 53 ae bc 34 47 a0 ba 1f 36 86 3d 0b 53 1c 3d
       -0.02128005 -0.0012228251 0.065532915 0.038165133
000350 67 7c 0b bd ae 8d 93 bc 7f e2 6b 3b 17 c7 32 3d
       -0.034054186 -0.018011894 0.0035993156 0.043646898
000360 06 ba a2 3c 2b 0d 29 3d b3 63 24 bd dc 69 d3 3c
       0.019864094 0.041272324 -0.040134143 0.025807314
000370 35 1e 2a bd 90 68 04 bd 6b 21 38 bd 8d 5a 4c bc
       -0.041532714 -0.03232628 -0.044953745 -0.012472761
000380 78 98 14 bd 7b 26 ed bc 55 c4 01 3d cf c1 c8 3c
       -0.036278218 -0.028949013 0.031681377 0.024506478
000390 51 0b da b9 63 ac 08 bd 43 d8 9c bd 30 7c 3f bc
       -0.00041588632 -0.033367526 -0.07658436 -0.011687323
0003a0 25 37 54 bc 65 61 9d bb 93 3d 26 bc 52 1f 8a bd
       -0.012952601 -0.00480287 -0.010146516 -0.06744255
0003b0 e7 05 42 bc 26 8e c0 3b c8 2c 93 3a 31 d9 64 bb
       -0.011842228 0.0058763204 0.0011228556 -0.0034919495
0003c0 8f d5 99 3c 23 3a 83 bc dc f0 24 bc 39 2e c3 ba
       0.01877859 -0.016018933 -0.010067191 -0.0014891095
0003d0 b8 26 21 3d 7d d2 13 bc 45 c1 15 3d 9e ad 19 bd
       0.039343566 -0.009022352 0.03656127 -0.03751909
0003e0 86 38 08 3c f3 7f 9f 3c 1b 3e 13 bc d7 5f d7 3c
       0.0083142575 0.01947019 -0.008986975 0.026290817
0003f0 01 2f f3 bc 5d e9 98 bb 0a a2 8d 3b fb 7b 07 3c
       -0.0296855 -0.004666491 0.004322295 0.008269305
