best-model-binary.pth (torch, 731399 bytes, 19 tensors)

model.0.weight f4 [512, 24]
-0.08242581 -0.10081251 0.15812878 -0.16316003 -0.018821537 -0.05191922 0.22499567 -0.09660755
-0.16026346 -0.033749983 0.08729619 0.14202195 0.1046188 -0.048393134 0.01212344 -0.19708462
0.10667783 0.14242388 0.15413207 -0.03603263 0.0052135712 0.037531782 -0.11285576 -0.34012663
-0.23798886 -0.029089957 0.12644716 0.053319454 -0.01520145 0.07106736 -0.14891766 0.02434545
-0.034135215 -0.05225766 0.12721804 -0.1554792 0.059145737 -0.16637638 0.01169359 -0.12257407
0.010102923 -0.13931078 0.1388252 -0.20301564 0.08056295 -0.1519549 0.09750898 -0.046302892
0.025819702 -0.011970025 0.12049468 0.04047838 -0.18877815 -0.0006363979 -0.11457627 0.18380725
0.048641805 -0.09781643 -0.058818307 0.09366768 -0.12297803 0.067562334 0.12905169 0.13401824
0.06340375 -0.20507179 0.09128857 -0.075382665 -0.032999586 -0.0024791607 0.12905517 0.25119406
-0.009207748 0.055927996 -0.19386603 0.007368443 -0.19645925 0.06664268 -0.11743894 -0.05522714
0.12811732 0.18833904 -0.1158106 -0.17926763 0.05739866 0.085558936 -0.044753235 -0.08445009
-0.13724466 0.0954357 0.21470682 -0.106604986 0.07557135 0.120001845 0.16916487 0.07621253
0.0019926617 0.14376473 0.08111552 0.18278907 -0.07867977 0.0359299 0.20160142 -0.1439277
0.0453232 -0.08261416 0.1681568 -0.14923157 0.05725089 0.07663539 -0.22149397 -0.15069696
-0.06664633 0.09251044 0.113891505 -0.14956017 0.07673386 -0.071913004 -0.116774976 0.019051721
0.122661695 -0.030697973 0.023996199 0.044240884 0.04788117 -0.07554584 -0.11604473 0.14188616
0.03196555 0.104552515 -0.096424304 0.09619123 0.14948574 0.13111234 0.055446982 0.19659002
0.00035591784 0.036967088 0.19965169 0.18971911 -0.08857665 0.19616686 0.06273383 -0.07848785
0.15555716 -0.12830143 0.12583715 0.19179131 -0.1522032 -0.12537394 -0.19518915 -3.5580757e-05
-0.17007679 -0.07150105 0.06510644 0.139854 0.09425003 0.12159132 0.105376944 -0.16772196
-0.1848336 0.003987352 0.21380037 0.001293703 -0.037628148 -0.10869352 -0.10466648 -0.18815732
0.15548488 -0.04017518 -0.17899033 0.029896414 0.007624302 -0.016721174 0.06540593 0.13431275
-0.19080329 -0.1806205 0.01443646 -0.23393986 -0.180057 0.20136575 -0.03318653 -0.09276587
-0.006483569 -0.16417126 0.16435656 -0.044515073 -0.07323613 -0.12628071 0.11170245 -0.14985839
-0.016546702 -0.047018472 -0.08291039 0.042766288 0.16360271 -0.10144341 0.00867625 -0.1503097
-0.10754933 0.17283839 0.008475931 0.24726814 -0.04235495 -0.062163472 -0.04559277 0.16594312
-0.19793838 0.102795996 0.089447685 0.051248785 0.07891808 -0.049155276 0.13171814 -0.15971997
-0.090123996 0.12936497 0.02360719 -0.06456527 -0.054736204 -0.16093735 0.10908739 -0.07510252
0.010804437 0.0011340657 0.19777292 -0.113974266 -0.04310468 0.103631556 0.08902701 -0.06212818
-0.1242856 0.027036374 0.081751876 0.08225252 0.21798228 -0.18617679 0.08755191 -0.29036525
0.09900052 0.13614827 0.062497564 0.14288333 -0.16906075 -0.18872957 -0.19885863 0.1642603
0.10842973 -0.17981382 0.12919402 0.16200429 -0.19485962 0.1548865 0.13046539 0.020682268
00000000: ddce a8bd ca76 cebd 83ec 213e 6c13 27be
00000010: a02f 9abc 3fa9 54bd 4465 663e 2eda c5bd
00000020: 1b1c 24be 6c3d 0abd 58c8 b23d 346e 113e
00000030: 6242 d63d e137 46bd 65a1 463c 8dd0 49be
00000040: e879 da3d 91d7 113e ccd4 1d3e f396 13bd
00000050: 9bd6 aa3b edba 193d ec20 e7bd 1425 aebe
00000060: 5ab3 73be 104e eebc 5d7b 013e 8065 5a3d
00000070: 810f 79bc c48b 913d df7d 18be 1c70 c73c
00000080: 5ed1 0bbd 210c 56bd 7245 023e f035 1fbe
00000090: cd42 723d 925e 2abe 7996 3f3c 1d08 fbbd
000000a0: bb86 253c 7ca7 0ebe 3128 0e3e 55e3 4fbe
000000b0: 30fe a43d 119a 1bbe cab2 c73d 1aa8 3dbd
000000c0: d783 d33c ec1d 44bc eac5 f63d a8cc 253d
000000d0: 0f4f 41be f1d3 26ba f7a6 eabd f837 3c3e
000000e0: a13c 473d fb53 c8bd 77eb 70bd d7d4 bf3d
000000f0: e8db fbbd 1f5e 8a3d 2026 043e 143c 093e
00000100: d3d9 813d 57fe 51be 80f5 ba3d 3a62 9abd
00000110: 932a 07bd 6a79 22bb 0a27 043e 829c 803e
00000120: 18dc 16bc c114 653d d184 46be fb72 f13b
00000130: 9d2c 49be f57b 883d d483 f0bd db35 62bd
00000140: 3031 033e f3db 403e 1c2e edbd ef91 37be
00000150: db1a 6b3d 8639 af3d 2b4f 37bd 2bf4 acbd
00000160: dd89 0cbe cb73 c33d 1bdc 5b3e b753 dabd
00000170: 27c5 9a3d 87c3 f53d 8e39 2d3e 5115 9c3d
00000180: 5197 023b 1037 133e e51f a63d 0f2d 3b3e
00000190: dc22 a1bd 3b2b 133d 9a70 4e3e c861 13be
000001a0: d2a4 393d 9d31 a9bd 4c31 2c3e 29d0 18be
000001b0: e97f 6a3d 04f3 9c3d 51cf 62be 4e50 1abe
000001c0: df7d 88bd 1d76 bd3d f33f e93d 4d26 19be
000001d0: a426 9d3d 2047 93bd b827 efbd 5b12 9c3c
000001e0: 0e36 fb3d 517a fbbc ad93 c43c ee35 353d
000001f0: 0c1f 443d c7b7 9abd dca8 edbd 9b4a 113e
00000200: 4fee 023d a11f d63d 1b7a c5bd e8ff c43d
00000210: ca12 193e 5042 063e 601c 633d e54e 493e
00000220: 7c9a ba39 cd6a 173d 7e71 4c3e ba45 423e
00000230: ad67 b5bd f7df 483e 987a 803d 3dbe a0bd
00000240: 604a 1f3e 7361 03be 74db 003e f164 443e
00000250: 28db 1bbe 0762 00be aadf 47be 8c3c 15b8
00000260: 9c28 2ebe 246f 92bd 8656 853d e335 0f3e
00000270: 2906 c13d df04 f93d decf d73d 4ebf 2bbe
00000280: 0545 3dbe 55a8 823b 7cee 5a3e 7891 a93a
00000290: f91f 1abd b59a debd 615b d6bd 50ac 40be
000002a0: 6e37 1f3e bb8e 24bd 3e49 37be 53e9 f43c
000002b0: 48d5 f93b d8fa 88bc 8bf3 853d 4889 093e
000002c0: f061 43be 95f4 38be e786 6c3c ee8d 6fbe
000002d0: dd60 38be d332 4e3e 99ee 07bd 08fc bdbd
000002e0: 1e74 d4bb 831c 28be 164d 283e 7055 36bd
000002f0: d3fc 95bd bb4f 01be 41c4 e43d 7a74 19be
00000300: f38c 87bc 7196 40bd eccc a9bd b42b 2f3d
00000310: 7887 273e 90c1 cfbd d526 0e3c c9ea 19be
00000320: d342 dcbd 8cfc 303e a2de 0a3c dc33 7d3e
00000330: 627c 2dbd 209f 7ebd 7cbf 3abd feec 293e
00000340: 5cb0 4abe b586 d23d 5930 b73d 3fea 513d
00000350: cd9f a13d 0b57 49bd 1fe1 063e a28d 23be
00000360: ee92 b8bd 4078 043e de63 c13c cc3a 84bd
00000370: 1233 60bd c3cc 24be 3669 df3d 5acf 99bd
00000380: 1805 313c eea4 943a fc84 4a3e 576b e9bd
00000390: 888e 30bd c83c d43d cb53 b63d 1e7a 7ebd
000003a0: 7389 febd 637b dd3c 876d a73d 0274 a83d
000003b0: bf36 5f3e 21a5 3ebe 6a4e b33d c1aa 94be
000003c0: c9c0 ca3d 746a 0b3e 72fd 7f3d 0250 123e
000003d0: 431e 2dbe 5342 41be 99a1 4bbe da33 283e
000003e0: 6810 de3d 1d21 38be 704b 043e 74e4 253e
000003f0: 4889 47be 919a 1e3e b898 053e dc6d a93c

model.0.bias f4 [512]
0.07973477 -0.12474586 -0.08762432 0.016794315 -0.05077953 0.13739178 0.12923476 0.14094989
0.10851023 -0.11772541 -0.157703 -0.13737795 -0.026070189 0.16044283 -0.046060704 0.18799397
0.15245025 -0.19311254 0.09413402 -0.08517199 -0.19431566 0.07157493 -0.07049112 -0.18123902
-0.14342633 0.15047793 -0.049837813 0.15998448 -0.07072036 0.19938019 -0.052765764 0.19306184
0.07999884 -0.15462682 0.089422315 0.08540933 -0.17111225 -0.17699571 0.012116638 0.11060877
0.17395774 -0.056472916 -0.19105026 0.09284996 0.014870717 0.005314729 0.12898137 0.024522895
0.17661253 0.15697484 0.052526988 0.1511182 0.066199504 -0.19375561 0.18329766 0.006214492
-0.024894206 0.16860323 0.17779575 -0.16241868 0.08011045 -0.11322649 -0.052959897 0.043379236
-0.07583267 -0.086706944 0.10176869 -0.049643334 0.077063374 0.19535203 0.050601106 0.04788106
0.17944771 -0.076882035 0.0004866414 -0.18900023 -0.085948214 -0.016385479 0.18526722 0.11461257
-0.037565082 -0.05631497 0.049908977 -0.088807255 -0.028509002 0.053865183 -0.06304808 0.14920855
0.08042549 -0.021013964 -0.035275448 0.019706264 0.10642937 0.05832036 -0.05552808 0.07083411
-0.009038747 -0.1486448 -0.16108958 0.0023337724 0.1766363 -0.0793508 0.12778974 -0.0608469
0.12170005 -0.045773722 -0.08501803 0.05929073 0.10801539 -0.15577959 -0.015354552 0.041437376
0.03703153 0.19919546 -0.17963962 0.17412561 0.10582091 -0.19234201 -0.07822619 0.07069812
-0.15378737 0.19087751 -0.07672773 0.07842034 0.03970726 -0.0790784 -0.19212453 0.014854091
-0.16597532 -0.04422993 0.04231982 -0.0707259 0.11663626 -0.18390772 -0.16048162 0.10794193
-0.10631205 0.16731238 -0.041025188 -0.03700811 0.19503622 -0.021862367 -0.16393536 -0.08496765
0.06337246 0.13905935 0.17237636 -0.07512062 0.029875943 0.1481975 -0.08296734 0.012631338
-0.097614564 0.028508134 0.19869216 0.17253603 -0.13476232 0.10012207 0.1920201 -0.036030132
0.07273512 -0.18315077 0.11329808 -0.038656823 0.18660398 0.1430672 -0.11723909 -0.08931719
-0.16055827 -0.18850839 -0.18552552 0.09882085 0.1352053 -0.12907512 0.14370836 -0.06393283
0.059990652 0.17168708 0.15922461 -0.16369033 0.08000016 -0.10306113 -0.17529099 -0.009263797
-0.045943096 0.04309096 0.022968622 0.11786374 0.1049289 -0.183219 -0.1785056 -0.12904118
0.10523235 0.1888718 -0.11921339 0.037989486 0.0115293 0.07521736 0.07890774 0.03170174
0.1356742 -0.06807307 0.19319272 -0.0051609296 -0.18419847 0.100116216 0.14451851 0.1363903
0.023101773 0.06909658 0.06195276 -0.087362945 -0.007225377 0.0045333314 -0.113298275 -0.0764247
-0.08056129 -0.033489466 -0.13437757 0.11805403 -0.0052587213 0.15903142 -0.13131909 0.05653812
-0.06696129 0.1084135 -0.08200866 -0.10101407 0.01631156 -0.1167215 0.14100091 -0.0075453618
0.11522165 -0.060465448 -0.04971663 -0.19302708 0.057076756 0.070033304 0.13425016 0.027157178
-0.019467728 -0.026853938 0.08302586 0.1955275 0.012930466 -0.17244421 -0.18226139 0.07751039
0.18166576 -0.10734895 0.10283654 0.17015786 0.17872289 0.12970817 -0.13206537 0.14310509
00000000: fc4b a33d c27a ffbd 6174 b3bd 3b94 893c
00000010: 32fe 4fbd 6eb0 0c3e 1e56 043e 2b55 103e
00000020: 9d3a de3d 051a f1bd e57c 21be ceac 0cbe
00000030: 2691 d5bc 204b 243e 26aa 3cbd 7e81 403e
00000040: eb1b 1c3e 4bbf 45be 56c9 c03d a76e aebd
00000050: affa 46be e095 923d a65d 90bd b996 39be
00000060: 5ade 12be e316 1a3e bc22 4cbd f9d2 233e
00000070: d6d5 90bd 522a 4c3e ea20 58bd 01b2 453e
00000080: 6fd6 a33d 7e56 1ebe 0c23 b73d 16eb ae3d
00000090: 0d38 2fbe 5d3e 35be dd84 463c da86 e23d
000000a0: fa21 323e 2550 67bd aea2 43be 1f28 be3d
000000b0: 4fa4 733c 2e27 ae3b b113 043e 3de4 c83c
000000c0: ead9 343e 03be 203e 8a26 573d bbbe 1a3e
000000d0: 9b93 873d df67 46be 62b2 3b3e f0a2 cb3b
000000e0: efee cbbc 53a6 2c3e 1710 363e 1551 26be
000000f0: f310 a43d 4ae3 e7bd 7aec 58bd 6dae 313d
00000100: 294e 9bbd 6993 b1bd 1a6c d03d cf56 4bbd
00000110: 67d3 9d3d 5d0a 483e 1b43 4f3d ee1e 443d
00000120: 24c1 373e 5474 9dbd e723 ff39 4789 41be
00000130: 9e05 b0bd d73a 86bc b1b6 3d3e ffb9 ea3d
00000140: d8dd 19bd 87aa 66bd 5b6d 4c3d 94e0 b5bd
00000150: b68b e9bc bda1 5c3d 5a1f 81bd 20ca 183e
00000160: 1fb6 a43d 7a25 acbc fd7c 10bd 086f a13c
00000170: a4f7 d93d 54e1 6e3d 6971 63bd 7911 913d
00000180: 4117 14bc 5836 18be abf4 24be 34f2 183b
00000190: 25e0 343e ac82 a2bd 50db 023e 993a 79bd
000001a0: e03d f93d 3a7d 3bbd ef1d aebd d6da 723d
000001b0: 2c37 dd3d af84 1fbe a991 7bbc 3dba 293d
000001c0: 60ae 173d e5f9 4b3e 73f3 37be fc4d 323e
000001d0: a2b8 d83d 4ef5 44be 0d35 a0bd 2dca 903d
000001e0: 707a 1dbe 6575 433e 6e23 9dbd d89a a03d
000001f0: 14a4 223d dbf3 a1bd 4bbc 44be 935e 733c
00000200: 6ff5 29be 712a 35bd 8c57 2d3d bed8 90bd
00000210: fede ee3d 4e52 3cbe 4b55 24be a910 dd3d
00000220: 22ba d9bd f053 2b3e 070a 28bd d195 17bd
00000230: 93b7 473e b518 b3bc acde 27be 8503 aebd
00000240: 6cc9 813d 9365 0e3e 6e83 303e d7d8 99bd
00000250: 65be f43c 16c1 173e c8ea a9bd acf3 4e3c
00000260: 25ea c7bd e489 e93c f575 4b3e 49ad 303e
00000270: 22ff 09be cd0c cd3d eba0 443e 5594 13bd
00000280: 27f6 943d e08b 3bbe d308 e83d 9e56 1ebd
00000290: 1d15 3f3e 3580 123e 0c1b f0bd eeeb b6bd
000002a0: 6369 24be 5808 41be 67fa 3dbe 9662 ca3d
000002b0: 4273 0a3e 452c 04be 4928 133e 37ef 82bd
000002c0: c2b8 753d bdce 2f3e c70b 233e 709e 27be
000002d0: 20d7 a33d b711 d3bd 7b7f 33be 2ec7 17bc
000002e0: d42e 3cbd 2580 303d b128 bc3c 8b62 f13d
000002f0: f7e4 d63d c39d 3bbe 2cca 36be 5f23 04be
00000300: 0f84 d73d 9c67 413e 2626 f4bd dd9a 1b3d
00000310: 64e5 3c3c 8f0b 9a3d 629a a13d afd9 013d
00000320: 2dee 0a3e e569 8bbd 50d4 453e 041d a9bb
00000330: 869e 3cbe bb09 cd3d a9fc 133e e6a9 0b3e
00000340: ee3f bd3c 8282 8d3d 2dc2 7d3d 58eb b2bd
00000350: dbc2 ecbb 578c 943b ed08 e8bd 8e84 9cbd
00000360: 51fd a4bd 402c 09bd 469a 09be 50c6 f13d
00000370: 5a51 acbb 22d9 223e 8378 06be 8494 673d
00000380: 0023 89bd e607 de3d 28f4 a7bd 77e0 cebd
00000390: d29f 853c af0b efbd 8b62 103e 153f f7bb
000003a0: 54f9 eb3d 9eaa 77bd aaa3 4bbd e4a8 45be
000003b0: 51c9 693d 9f6d 8f3d e078 093e bb78 de3c
000003c0: c97a 9fbc cafc dbbc 7609 aa3d 5c38 483e
000003d0: 4eda 533c 3795 30be bba2 3abe c4bd 9e3d
000003e0: 9706 3a3e c4d9 dbbd f79b d23d dd3d 2e3e
000003f0: 2203 373e 38d2 043e 253c 07be 248a 123e

model.1.weight f4 [512]
1.0116459 0.94758606 1.017752 0.97245073 0.99332654 0.9789697 0.9649606 0.9664518
1.030807 1.0299519 1.0087786 1.0369921 0.9940569 0.96900296 1.0047911 0.9806923
0.99157536 1.0262991 0.9349752 0.9933336 1.0311478 1.0044796 0.9838496 0.9694155
1.0128067 0.9864262 1.0177177 0.964433 1.017334 0.968846 1.0142016 0.9648794
0.9874506 1.0002426 0.99507946 1.000562 0.98003787 0.9940158 0.96896774 0.95496947
0.9576306 0.9485509 1.0146577 1.0433477 1.0114485 0.9850067 0.99085313 0.9984929
0.953309 0.9932861 0.97994995 1.0144801 1.0358033 0.96727383 0.9809124 1.0321503
1.0147909 1.061104 0.9840424 1.0440387 0.99990255 1.0023651 0.9628522 1.0242935
0.9975468 1.0366127 1.0326526 1.0102559 0.9517722 1.0098352 1.0413775 0.97841907
0.9685077 0.9904717 1.0346107 1.0102612 1.0261014 1.0115353 0.9975804 1.0128741
0.9914565 1.0061378 0.9859609 1.0105809 1.0196244 1.0072918 0.968179 0.96096236
1.0087113 1.0107741 1.0020672 0.9854078 0.9659726 1.0227051 0.9810525 1.0116767
1.0127578 1.0142947 1.0348196 1.0330011 0.9836436 0.9896158 0.9830762 1.0017508
1.0313051 0.95808965 1.0215782 1.0000558 0.99900764 0.96592635 1.0114766 1.0546769
0.99458545 1.0187827 0.978886 1.0042233 1.0139787 1.007 1.0241923 0.97868687
0.9513891 0.98944086 1.0495112 1.0204097 0.9678174 0.97027194 0.97778374 0.9559136
1.0544757 1.0101135 0.99770606 1.0151908 0.9929445 1.0065225 1.0684396 0.9937636
0.99327385 1.0085344 0.9958314 1.0160416 0.97452044 1.0391647 0.99387044 1.0054123
1.0009145 1.0177727 1.0098306 1.0302553 1.021189 1.0024396 0.99819016 1.0216655
1.0156145 0.99202555 0.99833596 0.95286953 1.0064627 0.97377104 0.9549826 0.97189265
0.9717034 0.9967992 0.9958477 1.0121939 1.0421153 0.99733984 0.9852859 1.0455723
0.9941174 0.96882886 0.99002755 0.9606971 1.00605 1.0261763 1.065102 0.9751217
1.0399715 1.0114399 1.0477747 1.0129148 0.9973171 0.9664873 0.98960197 0.96624756
0.98346615 0.99345046 1.009292 0.9875101 1.0314214 0.9682195 0.9683169 1.0070328
1.0042259 0.9888576 0.96112245 0.9761787 0.9806166 1.0545806 0.9670557 1.0177523
1.0383157 1.0312701 1.0052832 1.0319817 1.0006118 1.0281419 1.0442934 0.9726921
0.9970636 0.96592057 1.0324801 0.96225554 1.0214378 0.96766424 1.03763 1.0190184
1.0336071 0.98081714 0.94762325 1.0092734 0.9706337 1.016714 0.97154456 1.0306696
0.984759 0.99739075 0.9998185 0.97314775 0.9843417 1.028122 0.92631716 0.95458883
1.0541945 0.99257904 1.0329072 0.9583379 0.9871067 1.0286564 1.0423096 1.0174085
1.0429776 1.001254 0.98610806 0.9426106 0.9808916 1.0040978 1.031585 0.97760004
0.93663657 1.0159807 0.9538294 0.95959276 0.97187316 0.9963168 0.9758801 0.97972864
00000000: 9d7d 813f 0095 723f b345 823f 88f2 783f
00000010: a64a 7e3f c29d 7a3f a807 773f 6369 773f
00000020: 7cf1 833f 77d5 833f a81f 813f 28bc 843f
00000030: 837a 7e3f 9410 783f ff9c 803f a70e 7b3f
00000040: e2d7 7d3f c55d 833f 895a 6f3f 1c4b 7e3f
00000050: a7fc 833f ca92 803f 91dd 7b3f 9d2b 783f
00000060: a6a3 813f 6d86 7c3f 9344 823f 15e5 763f
00000070: 0038 823f 4b06 783f 5cd1 813f 5602 773f
00000080: 90c9 7c3f f307 803f 87bd 7e3f 6a12 803f
00000090: c3e3 7a3f d277 7e3f 450e 783f e178 743f
000000a0: 4727 753f 3bd4 723f 4ee0 813f 6b8c 853f
000000b0: 2577 813f 6629 7c3f 8da8 7d3f 3b9d 7f3f
000000c0: 0f0c 743f ff47 7e3f 00de 7a3f 7cda 813f
000000d0: 3495 843f 429f 773f 131d 7b3f 801d 843f
000000e0: abe4 813f 42d2 873f 34ea 7b3f 0fa3 853f
000000f0: 9df9 7f3f 804d 803f 7b7d 763f 0d1c 833f
00000100: 3a5f 7f3f baaf 843f f62d 843f 1150 813f
00000110: 58a7 733f 4842 813f dc4b 853f ac79 7a3f
00000120: 1ff0 773f 8e8f 7d3f 206e 843f 3d50 813f
00000130: 4a57 833f fd79 813f 6e61 7f3f dca5 813f
00000140: 18d0 7d3f 20c9 803f ef67 7c3f b75a 813f
00000150: 0d83 823f f0ee 803f 94da 773f a101 763f
00000160: 741d 813f 0c61 813f bd43 803f b043 7c3f
00000170: fb49 773f 00e8 823f 4226 7b3f 9f7e 813f
00000180: 0ca2 813f 69d4 813f f874 843f 6139 843f
00000190: 11d0 7b3f 7657 7d3f e2aa 7b3f 5f39 803f
000001a0: ce01 843f 5d45 753f 13c3 823f d401 803f
000001b0: f7be 7f3f f346 773f 1178 813f a7ff 863f
000001c0: 279d 7e3f 7967 823f 4698 7a3f 648a 803f
000001d0: 0eca 813f 60e5 803f bc18 833f 398b 7a3f
000001e0: 3c8e 733f ff4b 7d3f 6256 863f c99c 823f
000001f0: e2c2 773f be63 783f 0950 7a3f c1b6 743f
00000200: 0ff9 863f 664b 813f aa69 7f3f c6f1 813f
00000210: 9c31 7e3f bbd5 803f a1c2 883f 4b67 7e3f
00000220: 3247 7e3f a817 813f ceee 7e3f a70d 823f
00000230: 2c7a 793f 5903 853f 4b6e 7e3f 5ab1 803f
00000240: f71d 803f 6046 823f 2142 813f 68df 833f
00000250: 52b6 823f f14f 803f 6489 7f3f efc5 823f
00000260: a8ff 813f 63f5 7d3f f292 7f3f 42ef 733f
00000270: c5d3 803f 0f49 793f bd79 743f f5cd 783f
00000280: 8ec1 783f 3b2e 7f3f e0ef 7e3f 928f 813f
00000290: 0964 853f aa51 7f3f b23b 7c3f 50d5 853f
000002a0: 7a7e 7e3f 2b05 783f 7272 7d3f 3ff0 753f
000002b0: 3fc6 803f bf59 833f 4355 883f 93a1 793f
000002c0: c91d 853f dd76 813f 7b1d 863f 31a7 813f
000002d0: 2c50 7f3f b66b 773f 8e56 7d3f 005c 773f
000002e0: 70c4 7b3f c552 7e3f 7b30 813f 76cd 7c3f
000002f0: 9e05 843f 3cdd 773f 9ee3 773f 73e6 803f
00000300: 798a 803f c625 7d3f 1f0c 763f d9e6 793f
00000310: b109 7b3f 7ffc 863f f690 773f b545 823f
00000320: 87e7 843f a900 843f 1fad 803f fa17 843f
00000330: 0c14 803f 279a 833f 68ab 853f 5902 793f
00000340: 8f3f 7f3f 9246 773f 4f28 843f 6156 763f
00000350: 79be 823f d8b8 773f 0fd1 843f 326f 823f
00000360: 3d4d 843f d516 7b3f 7097 723f df2f 813f
00000370: 737b 783f af23 823f 25b7 783f fbec 833f
00000380: 2a19 7c3f 0055 7f3f 1bf4 7f3f 3620 793f
00000390: d1fd 7b3f 8099 833f 1f23 6d3f ef5f 743f
000003a0: d8ef 863f a919 7e3f 4e36 843f a255 753f
000003b0: 06b3 7c3f 03ab 833f 676a 853f 713a 823f
000003c0: 4a80 853f 1729 803f 9471 7c3f ee4e 713f
000003d0: b61b 7b3f 4786 803f fa0a 843f ff43 7a3f
000003e0: 6ac7 6f3f a80b 823f 2a2e 743f dfa7 753f
000003f0: aecc 783f 9e0e 7f3f 47d3 793f 7fcf 7a3f

model.1.bias f4 [512]
-0.013876529 -0.065125495 0.0351046 -0.040323447 -0.006717308 -0.041507173 -0.01234325 -0.05550219
0.028583601 -0.024970107 -0.047208097 0.03717584 0.00038290353 -0.03186154 0.0014487907 -0.037626516
-0.03365304 -0.04849725 -0.051007632 -0.0058579305 0.029437112 0.020593472 -0.058023747 -0.051882703
-0.026997443 -0.014094449 -0.013061961 -0.007856952 0.009062678 -0.04564932 -0.04903732 -0.043245364
-0.054587826 -0.042233255 -0.016508248 -0.010542674 -0.00015471753 -0.073871456 -0.028260121 -0.048045665
-0.039919578 -0.0607176 0.02549849 0.019429898 -0.027111879 -0.02083348 -0.013938631 -0.014364459
-0.0273426 -0.007297125 -0.023545783 -0.016179962 -0.013951818 -0.008308611 -0.017522084 -0.02129868
-0.013971385 -0.026784247 -0.0006392434 -0.023339504 0.0009723202 0.011681832 -0.015782984 -0.020126788
-0.024745226 0.054188233 -0.021131335 0.025379729 -0.07241911 -0.0021510918 -0.006181385 -0.016136762
-0.008078281 -0.029402955 -0.012753093 0.011159666 -0.0035333587 -0.005981861 -0.012874422 -0.0064980327
-0.0489657 0.003003617 0.011566888 0.05667061 0.018962162 0.022391694 -0.038729545 -0.033226825
-0.025103496 -0.031422075 0.018737229 -0.017761953 -0.034587007 0.019787984 -0.049686473 -0.03258457
0.023505293 -0.011557666 -0.0056815622 -0.030361116 0.009555313 -0.016316313 -0.04885707 -0.00595678
-0.006658839 -0.028815921 -0.013955012 0.01930349 -0.01201538 -0.05176022 -0.0053346306 0.009512791
-0.013515113 0.0071000336 -0.00033333682 0.0050057354 -0.014402345 -0.05434022 0.042864997 -0.032264195
-0.060188215 -0.0071797287 0.0150772035 -0.071727134 -0.05070363 -0.06176843 -0.003561959 -0.04764927
0.042297464 0.029236011 -0.06552177 0.0134491725 -0.016005473 0.02877124 -0.043209817 0.010420676
-0.011514854 0.0006382827 -0.004243246 0.029315226 -0.020281006 0.0078636985 -0.008838132 0.012106641
0.007658377 0.015870914 -0.006379638 -0.019416414 0.02195195 -0.04414653 -0.057593737 0.05656003
0.060483664 -0.036200628 -0.017376687 -0.041658126 0.0061590085 -0.03213201 -0.014459556 -0.05187202
-0.047599304 0.0019243292 -0.019081613 -0.012006481 -0.011744672 0.009111826 -0.03154176 0.008395765
-0.015746256 -0.037793733 -0.014409121 -0.005626777 -0.04796993 0.030014146 -0.031618003 -0.020467496
0.00073744496 0.045294743 0.024765443 -0.03195806 -0.014573254 -0.019011874 -0.020230824 -0.022474224
-0.016541842 -0.01412271 -0.040047985 -0.0059751356 0.011738372 -0.021012932 -0.06336029 -0.013931239
-0.009602169 -0.017728312 -0.04691944 -0.029812349 -0.0062187226 -0.012949081 -0.05520473 -0.023942197
0.030597784 0.038211454 -0.05786261 0.01321857 -0.037160866 0.007828059 -0.037268214 -0.014281591
-0.012900995 -0.040516105 -0.022873938 -0.02034473 -0.030024556 -0.044046808 0.008419005 0.012782401
-0.0016980048 0.0012565881 -0.06758611 0.05237857 -0.05052524 -0.036879692 -0.03518072 -0.059388757
-0.022279153 -0.034913547 -0.014230018 -0.058175728 0.012002173 -0.028745038 -0.09653238 -0.04432255
0.0060499874 0.006090437 0.00076688384 -0.03947386 -0.03280091 0.016170105 -0.004512669 0.01854074
0.04802005 0.0055356384 -0.013770497 -0.048103876 -0.030943867 -0.0057183676 0.04917586 -0.036551017
-0.059628963 -0.0030570459 -0.023568816 -0.03355122 -0.023685303 -0.02807509 0.0010054491 -0.03544383
00000000: 625a 63bc 8460 85bd d7c9 0f3d 332a 25bd
00000010: dd1c dcbb 6d03 2abd 583b 4abc 4456 63bd
00000020: 2828 ea3c 1c8e ccbc 475d 41bd b245 183d
00000030: 71c0 c839 3f81 02bd 59e5 bd3a 431e 1abd
00000040: c5d7 09bd 0da5 46bd 61ed 50bd e2f3 bfbb
00000050: 1926 f13c a4b3 a83c 4faa 6dbd f582 54bd
00000060: be29 ddbc 67ec 66bc d601 56bc 72ba 00bc
00000070: a07b 143c c8fa 3abd 5bdb 48bd 0d22 31bd
00000080: 7c97 5fbd c7fc 2cbd 4e3c 87bc 2ebb 2cbc
00000090: ac3b 22b9 eb49 97bd c581 e7bc 88cb 44bd
000000a0: b682 23bd 05b3 78bd 36e2 d03c 732b 9f3c
000000b0: bb19 debc f9aa aabc db5e 64bc e858 6bbc
000000c0: 97fd dfbc b91c efbb 16e3 c0bc d78b 84bc
000000d0: 2b96 64bc d720 08bc 798a 8fbc 927a aebc
000000e0: 3ce8 64bc a36a dbbc e692 27ba 7d32 bfbc
000000f0: 4ee3 7e3a 2865 3f3c 514b 81bc efe0 a4bc
00000100: 80b6 cabc 7bf4 5d3d 9f1b adbc 26e9 cf3c
00000110: 7850 94bd 55f9 0cbb 378d cabb 3e31 84bc
00000120: c45a 04bc 77de f0bc 59f2 50bc 08d7 363c
00000130: ec8f 67bb 7d03 c4bb 3def 52bc 73ed d4bb
00000140: 4290 48bd 55d8 443b 0b83 3d3c 711f 683d
00000150: 8956 9b3c c96e b73c dfa2 1ebd da18 08bd
00000160: d9a5 cdbc 6fb4 00bd d17e 993c 8481 91bc
00000170: 1bab 0dbd 691a a23c 0b84 4bbd 6677 05bd
00000180: 2c8e c03c 5d5c 3dbc 662c babb e0b7 f8bc
00000190: e38d 1c3c caa9 85bc 5a1e 48bd 1831 c3bb
000001a0: 6432 dabb 5e0f ecbc 90a3 64bc 5a22 9e3c
000001b0: 28dc 44bc 8602 54bd 20ce aebb 8adb 1b3c
000001c0: 7e6e 5dbc 66a7 e83b b6c3 aeb9 2707 a43b
000001d0: d0f7 6bbc da93 5ebd 3593 2f3d 7627 04bd
000001e0: eb87 76bd ee43 ebbb 6006 773c ade5 92bd
000001f0: 9cae 4fbd e500 7dbd c16f 69bb e22b 43bd
00000200: 1b40 2d3d 5c80 ef3c 4730 86bd eb59 5c3c
00000210: e91d 83bc aab1 eb3c c7fc 30bd 7cbb 2a3c
00000220: cca8 3cbc 6d52 273a ed0a 8bbb 7c26 f03c
00000230: 5a24 a6bc bed6 003c d0cd 10bc ef5a 463c
00000240: 1ff3 fa3b b803 823c 480c d1bb 2c0f 9fbc
00000250: 93d4 b33c fed2 34bd 69e7 6bbd 7dab 673d
00000260: b8bd 773d 1c47 14bd 8e59 8ebc b6a1 2abd
00000270: 82d1 c93b db9c 03bd c6e7 6cbc c177 54bd
00000280: 7df7 42bd c639 fc3a 0b51 9cbc d5b6 44bc
00000290: ba6c 40bc c549 153c ef31 01bd 648e 093c
000002a0: 4bfe 80bc 9acd 1abd 3c14 6cbc d460 b8bb
000002b0: 1e7c 44bd 3ae0 f53c e181 01bd 73ab a7bc
000002c0: 1851 413a fb86 393d e6e0 ca3c 74e6 02bd
000002d0: a8c4 6ebc cabe 9bbc 1dbb a5bc dd1b b8bc
000002e0: c282 87bc f062 67bc 5b09 24bd 12cb c3bb
000002f0: 4d52 403c 5023 acbc 0ac3 81bd da3f 64bc
00000300: 6a52 1dbc f73a 91bc 992e 40bd 0739 f4bc
00000310: 6dc6 cbbb 6228 54bc 5b1e 62bd 6d22 c4bc
00000320: 34a8 fa3c 9d83 1c3d 5801 6dbd b392 583c
00000330: fe35 18bd 4241 003c 8ea6 18bd 56fd 69bc
00000340: b25e 53bc 37f4 25bd 2062 bbbc fea9 a6bc
00000350: 0ff6 f5bc 6d6a 34bd deef 093c 476d 513c
00000360: 968f deba 1ab4 a43a 966a 8abd e98a 563d
00000370: 8ef3 4ebd 290f 17bd a919 10bd a041 73bd
00000380: c582 b6bc 8201 0fbd 0525 69bc ac49 6ebd
00000390: c3a4 443c b77a ebbc c5b2 c5bd 908b 35bd
000003a0: f93e c63b 4a92 c73b b408 493a 58af 21bd
000003b0: 3f5a 06bd 2b77 843c 03df 93bb c0e2 973c
000003c0: acb0 443d 4d64 b53b a79d 61bc 9208 45bd
000003d0: fe7d fdbc 2561 bbbb a06c 493d 85b6 15bd
000003e0: 803d 74bd b858 48bb 6413 c1bc 016d 09bd
000003f0: ae07 c2bc bbfd e5bc 46c9 833a 8d2d 11bd

model.1.running_mean f4 [512]
0.04081098 -0.1468093 -0.047143295 0.030618701 -0.07649395 0.13787408 0.10349891 0.094254225
0.086033255 -0.16889706 -0.14670727 -0.15082185 -0.018829206 0.1760564 -0.07064822 0.16694783
0.17445505 -0.21505556 0.058733955 -0.090614974 -0.194453 0.06170827 -0.059082896 -0.17489344
-0.15538783 0.16367328 -0.10788606 0.21591593 -0.11206493 0.20298856 -0.024103355 0.22992972
0.08916745 -0.16287157 0.10889003 0.109591335 -0.1734339 -0.13949111 -0.012066909 0.12163471
0.15686095 -0.0441062 -0.18687044 0.118885115 -0.010719347 0.025186243 0.091970325 0.06383311
0.19216987 0.16666046 0.06911778 0.12044664 0.057410836 -0.15932553 0.20039298 0.045724094
-0.034665417 0.12051217 0.20597102 -0.15021905 0.08910423 -0.0994315 -0.07596746 0.023675188
-0.07210115 -0.11421073 0.10630997 -0.03282054 0.09399059 0.19912595 0.011527789 0.05553884
0.17120345 -0.09297579 0.04096686 -0.2047772 -0.07150339 -0.038736917 0.12272753 0.073716596
-0.036357462 -0.032447234 0.042011127 -0.10832907 -0.05163204 0.040370084 -0.08760748 0.14223044
0.12622279 0.00091460766 -0.06745969 0.048548542 0.118937805 0.088991 -0.030694827 0.012001846
-0.023075275 -0.13936517 -0.16871428 0.02750883 0.20467092 -0.059404846 0.14461538 -0.061622605
0.13359305 -0.06471053 -0.0462673 0.04120781 0.11672729 -0.19473022 -0.039330866 0.051849544
0.022900201 0.22321841 -0.18629324 0.19050573 0.08413811 -0.19253437 -0.060765002 0.09493283
-0.18917486 0.21037488 -0.11109288 0.045415618 0.01835927 -0.055522356 -0.16479559 0.040584043
-0.12959224 -0.0053953165 -0.022216333 -0.097789004 0.14093128 -0.22185954 -0.10309827 0.09186743
-0.13421345 0.17960006 -0.037293524 0.012502167 0.2267822 -0.022188332 -0.13672023 -0.09293896
0.046761937 0.13974689 0.17102106 -0.10452927 0.014139999 0.17425984 -0.08032285 -0.042769797
-0.12110391 0.06158051 0.17647626 0.19912519 -0.08925179 0.075695306 0.16343509 -0.02011786
0.052682545 -0.21142924 0.12024462 -0.016681388 0.17811976 0.17164922 -0.15132444 -0.110006325
-0.16859221 -0.21159728 -0.19576384 0.03683277 0.099103585 -0.15199971 0.11107034 -0.045217216
0.09550533 0.16725467 0.19988473 -0.12554027 0.025501212 -0.09347206 -0.20120236 0.018834408
-0.03981418 0.08290807 -0.00092345383 0.079866216 0.14606437 -0.16842274 -0.16334385 -0.15292893
0.101338215 0.1735027 -0.12615964 0.016109204 5.0779432e-05 0.053331804 0.07751345 0.011303917
0.1710537 -0.12996618 0.15806347 0.040180095 -0.16491216 0.101558834 0.135995 0.15483141
0.03256491 0.06944701 0.113291174 -0.10409629 0.010658466 -0.010933756 -0.12533745 -0.07591794
-0.05940082 -0.01947147 -0.17285885 0.075524285 -0.02355143 0.15879267 -0.15245019 0.0725113
-0.11836014 0.11313765 -0.11896367 -0.053451687 0.01904667 -0.0998121 0.14067243 0.029369984
0.1470795 -0.075962834 -0.057803176 -0.1890211 0.06656087 0.088401824 0.15159115 0.023442138
-0.04908347 -0.0010902681 0.03293282 0.18028474 0.019510545 -0.17239481 -0.16703917 0.077057995
0.16734146 -0.14312162 0.075249486 0.18163405 0.18968639 0.09690373 -0.14994118 0.2040651
00000000: 6a29 273d 2d55 16be 5419 41bd 12d4 fa3c
00000010: dca8 9cbd dd2e 0d3e 3df7 d33d 5c08 c13d
00000020: 3432 b03d 5af3 2cbe 6e3a 16be 0b71 1abe
00000030: b53f 9abc 2148 343e 04b0 90bd 5ff4 2a3e
00000040: 58a4 323e 8637 5cbe 0493 703d 5894 b9bd
00000050: b01e 47be d0c1 7c3d e800 72bd 4417 33be
00000060: fd1d 1fbe f899 273e 5ef3 dcbd 1119 5d3e
00000070: 4c82 e5bd 3cdc 4f3e 6674 c5bc b272 6b3e
00000080: 6d9d b63d cec7 26be bc01 df3d 6c71 e03d
00000090: a898 31be c2d6 0ebe 49b4 45bc 9e1b f93d
000000a0: 28a0 203e b4a8 34bd f75a 3fbe 0a7a f33d
000000b0: 33a0 2fbc 6153 ce3c f05a bc3d efba 823d
000000c0: 2ec8 443e 0aa9 2a3e 9f8d 8d3d baac f63d
000000d0: a027 6b3d 3b26 23be d133 4d3e 3049 3b3d
000000e0: 53fd 0dbd 16cf f63d 11ea 523e 06d3 19be
000000f0: 477c b63d bea2 cbbd d494 9bbd 78f2 c13c
00000100: c5a9 93bd 51e7 e9bd 0bb9 d93d d56e 06bd
00000110: 237e c03d ace7 4b3e 0ddf 3c3c b27c 633d
00000120: f54f 2f3e 176a bebd decc 273d 1db1 51be
00000130: 5f70 92bd 9aaa 1ebd 9258 fb3d baf8 963d
00000140: 90eb 14bd 64e7 04bd dc13 2c3d a2db ddbd
00000150: 1e7c 53bd 1a5b 253d 8d6b b3bd dba4 113e
00000160: 8c40 013e 48c2 6f3a 4e28 8abd d6da 463d
00000170: aa95 f33d ea40 b63d b873 fbbc 64a3 443c
00000180: 5c08 bdbc beb5 0ebe 70c3 2cbe 335a e13c
00000190: 4195 513e 7f52 73bd 0e16 143e fc67 7cbd
000001a0: 9ecc 083e f486 84bd c882 3dbd 85c9 283d
000001b0: b80e ef3d 5c67 47be 6719 21bd 3060 543d
000001c0: 3499 bb3c 5e93 643e a8c3 3ebe ef13 433e
000001d0: 9a50 ac3d bb27 45be b9e4 78bd 256c c23d
000001e0: 0eb7 41be 836c 573e aa84 e3bd ba05 3a3d
000001f0: 2e66 963c 696b 63bd 2dc0 28be 743b 263d
00000200: d4b3 04be 32cb b0bb 07ff b5bc 9a45 c8bd
00000210: 4a50 103e 262f 63be 3025 d3bd fe24 bc3d
00000220: 406f 09be 14e9 373e 18c1 18bd e4d5 4c3c
00000230: 9839 683e 4ec4 b5bc 6300 0cbe c856 bebd
00000240: 7289 3f3d cf19 0f3e 2520 2f3e 7113 d6bd
00000250: 74ab 673c 2c71 323e 4e80 a4bd 622f 2fbd
00000260: 5405 f8bd d83b 7c3d 31b6 343e 79e7 4b3e
00000270: a4c9 b6bd 2406 9b3d 875b 273e 36ce a4bc
00000280: a7c9 573d e880 58be d042 f63d 68a7 88bc
00000290: 0765 363e d0c4 2f3e cbf4 1abe ff4a e1bd
000002a0: 70a3 2cbe f5ac 58be 5176 48be f5dd 163d
000002b0: d2f6 ca3d d0a5 1bbe d978 e33d b035 39bd
000002c0: 4c98 c33d cf44 2b3e 95ae 4c3e a18d 00be
000002d0: ebe7 d03c 486e bfbd fe07 4ebe 9e4a 9a3c
000002e0: 3214 23bd b5cb a93d f013 72ba e690 a33d
000002f0: e691 153e 0377 2cbe 9c43 27be 6799 1cbe
00000300: 698a cf3d b1aa 313e fe2f 01be 73f7 833c
00000310: 00fc 5438 7372 5a3d 5fbf 9e3d 1034 393c
00000320: b328 2f3e db15 05be 64db 213e e293 243d
00000330: bcde 28be 14fe cf3d 4642 0b3e 208c 1e3e
00000340: c862 053d 3c3a 8e3d 3405 e83d 7030 d5bd
00000350: d9a0 2e3c 7f23 33bc 7658 00be dd7a 9bbd
00000360: 464e 73bd a282 9fbc e901 31be 7aac 9a3d
00000370: eeee c0bc 8c9a 223e e71b 1cbe ce80 943d
00000380: cd66 f2bd b6b4 e73d 3aa3 f3bd 28f0 5abd
00000390: c307 9c3c 496a ccbd 6f0c 103e 5299 f03c
000003a0: 029c 163e 6792 9bbd 06c3 6cbd bf8e 41be
000003b0: 1151 883d 040c b53d b63a 1b3e ba09 c03c
000003c0: c00b 49bd 54e7 8eba 91e4 063d 909c 383e
000003d0: 94d4 9f3c 4488 30be 510c 2bbe 95d0 9d3d
000003e0: 8f5b 2b3e 798e 12be 671c 9a3d 47fe 393e
000003f0: 263d 423e 7675 c63d 2e8a 19be 71f6 503e

model.1.running_var f4 [512]
0.18116081 0.25100356 0.105769835 0.33718485 0.32330695 0.21041486 0.5932652 0.39276335
0.317022 0.10514192 0.30113497 0.28353518 0.188465 0.36384848 0.15322232 0.14383611
0.7489671 0.1367974 0.40758297 0.15994154 0.11443642 0.23143184 0.45444435 0.23412988
0.2566085 0.9091038 0.17750417 0.78782576 0.17025086 0.20806769 0.13406871 0.48697376
0.15552767 0.14367768 0.12802222 0.5999357 0.8071464 0.28554884 0.55050886 0.43600526
0.37684137 0.876456 0.25971752 0.36258805 0.21872954 0.17341627 0.308596 0.24586618
0.40383762 0.68463856 0.2855933 0.12702179 0.17735554 0.23881726 0.4349996 0.24164176
0.35368818 0.069301166 0.30532682 0.4660183 0.25283858 0.17416638 0.22535825 0.1168361
0.17847803 0.30371916 0.2473119 0.12911755 0.29066902 0.2718178 0.16747355 0.21938665
0.2390621 0.33957496 0.13879737 0.32754123 0.20723224 0.15554254 0.19771303 0.26092517
0.20355636 0.12555069 0.3310127 0.29827598 0.17340234 0.10617414 0.3479497 0.22655101
0.36793542 0.27464876 0.28455243 0.2953233 0.46546757 0.5362609 1.0542347 0.16502011
0.2482523 0.17886318 0.12764691 0.27870828 0.4215202 0.20250642 0.2761354 0.30366105
0.1255912 0.5413948 0.2193214 0.19361864 0.39900318 0.29519647 0.14952183 0.120660275
0.6182746 0.1580551 0.13539791 0.4186763 0.21457706 0.24941145 0.25587404 0.45524868
0.36754742 0.23688348 0.25277397 0.14229608 0.34102115 0.29567358 0.22026959 0.6900148
0.13753498 0.3807322 0.26763472 0.100687444 0.42436877 0.24782619 0.28915128 0.16339804
0.17854854 0.24115592 0.65884507 0.22488095 0.25293887 0.25617442 0.43000984 0.2905057
0.5676851 0.1284823 0.21230663 0.06457484 0.47570214 0.33481228 0.2700719 0.24740009
0.1748946 0.25876164 0.2725371 0.3627272 0.33674008 0.40014818 0.20566285 0.19776458
0.41457146 0.31304723 0.21783242 0.21511808 0.21288876 0.38364062 0.20874606 0.14766017
0.6661359 0.16147403 0.4366941 0.5281335 0.1995783 0.37493438 0.16794406 0.27949667
0.24457517 0.3990491 0.31162837 0.13043363 0.15843746 0.21389915 0.21925788 0.5833308
0.2028919 0.47046074 0.22484112 0.19024813 0.09589293 0.23910403 0.78061974 0.2794978
0.12600005 0.3665228 0.211178 0.472177 1.0807024 0.18658228 0.47879994 0.10218118
0.13463616 0.35808504 0.27061465 0.22181624 0.15823244 0.14076164 0.14348726 0.3279119
0.3151926 0.24097884 0.20258254 0.2571488 0.12620305 0.23511583 0.23401935 0.3705419
0.15977962 0.1464492 0.77754617 0.25472677 0.69200075 0.34212995 0.16028625 0.18711033
0.51615226 0.305498 0.26125094 0.46547118 0.40861452 0.34997618 0.46605572 0.4281597
0.24957275 0.11978981 0.24415833 0.8946834 0.41239655 0.16927737 0.3795008 0.35321417
0.20077631 0.12918596 0.30257475 0.24737707 0.2656099 0.14445807 0.15910235 0.40830684
0.45097354 0.1992699 0.85623324 0.11475771 0.23939326 0.25045064 0.2392218 0.8173318
00000000: 3882 393e 8a83 803e db9d d83d 7ea3 ac3e
00000010: 7d88 a53e fe76 573e 3ae0 173f 4718 c93e
00000020: b550 a23e a654 d73d 5d2e 9a3e 862b 913e
00000030: f8fc 403e 594a ba3e 50e6 1c3e c649 133e
00000040: 4fbc 3f3f 9e14 0c3e b7ae d03e b7c7 233e
00000050: a45d ea3d 78fc 6c3e eeac e83e bebf 6f3e
00000060: 3062 833e 07bb 683f a7c3 353e f3ae 493f
00000070: 3e56 2e3e b20f 553e 4f49 093e a054 f93e
00000080: a542 1f3e 3e20 133e 4218 033e 6395 193f
00000090: 25a1 4e3f 7533 923e 26ee 0c3f 153c df3e
000000a0: 5af1 c03e 6c5f 603f b2f9 843e 24a5 b93e
000000b0: a3fa 5f3e 0994 313e 4b00 9e3e 58c4 7b3e
000000c0: cec3 ce3e 7944 2f3f 4939 923e 0012 023e
000000d0: b19c 353e 838c 743e 44b8 de3e f070 773e
000000e0: 9e16 b53e c5ed 8d3d cc53 9c3e f399 ee3e
000000f0: 0f74 813e ac58 323e 50c4 663e c447 ef3d
00000100: f2c2 363e 1481 9b3e 553f 7d3e 6437 043e
00000110: 92d2 943e b42b 8b3e 307e 2b3e e5a6 603e
00000120: b2cc 743e c5dc ad3e e620 0e3e 7cb3 a73e
00000130: b034 543e 8b46 1f3e 4975 4a3e fc97 853e
00000140: 1471 503e 5c90 003e 7f7a a93e a1b7 983e
00000150: 6290 313e d471 d93d 7726 b23e fdfc 673e
00000160: 0862 bc3e c39e 8c3e dbb0 913e 9e34 973e
00000170: c451 ee3e 6548 093f 2af1 863f 08fb 283e
00000180: da35 7e3e e927 373e dfb5 023e dab2 8e3e
00000190: 7fd1 d73e d85d 4f3e 9f61 8d3e 7679 9b3e
000001a0: fb9a 003e da98 0a3f ca95 603e f743 463e
000001b0: 254a cc3e fe23 973e 401c 193e bc1c f73d
000001c0: 3f47 1e3f 32d9 213e c0a5 0a3e bd5c d63e
000001d0: 17ba 5b3e b765 7f3e ec01 833e 5b16 e93e
000001e0: 2d2f bc3e 9591 723e 976b 813e 10b6 113e
000001f0: 539a ae3e 8762 973e 5a8e 613e cfa4 303f
00000200: f8d5 0c3e 55ef c23e 6b07 893e 3835 ce3d
00000210: dd46 d93e 26c6 7d3e a30b 943e d151 273e
00000220: 6ed5 363e 94f1 763e 12aa 283f 3147 663e
00000230: 3481 813e 4b29 833e 402a dc3e 2abd 943e
00000240: d053 113f dd90 033e e966 593e d03f 843d
00000250: 3b8f f33e 846c ab3e dd46 8a3e 7356 7d3e
00000260: 9217 333e 687c 843e fc89 8b3e 61b7 b93e
00000270: 3269 ac3e 39e0 cc3e 4899 523e cc82 4a3e
00000280: b642 d43e ba47 a03e 760f 5f3e ea47 5c3e
00000290: 83ff 593e 8b6c c43e 87c1 553e 3a34 173e
000002a0: e287 2a3f 7359 253e 5e96 df3e c233 073f
000002b0: 415e 4c3e 66f7 bf3e 87f9 2b3e 301a 8f3e
000002c0: ea71 7a3e 2a50 cc3e c18d 9f3e 6590 053e
000002d0: 6e3d 223e 6108 5b3e 2385 603e 2b55 153f
000002e0: e5c2 4f3e 3be0 f03e c03c 663e 68d0 423e
000002f0: 8363 c43d b0d7 743e b2d6 473f 561a 8f3e
00000300: 2806 013e e0a8 bb3e 0c3f 583e 2fc1 f13e
00000310: 7554 8a3f 6d0f 3f3e 4425 f53e 5e44 d13d
00000320: 10de 093e ec56 b73e 018e 8a3e cc23 633e
00000330: af07 223e d223 103e 53ee 123e 12e4 a73e
00000340: ed60 a13e 28c3 763e cc71 4f3e 02a9 833e
00000350: 5f3b 013e 34c2 703e c5a2 6f3e abb7 bd3e
00000360: 459d 233e c7f6 153e 440d 473f 8c6b 823e
00000370: f626 313f a82b af3e 1422 243e da99 3f3e
00000380: 8e22 043f 3c6a 9c3e afc2 853e 3d52 ee3e
00000390: ec35 d13e 1430 b33e db9e ee3e c037 db3e
000003a0: 0090 7f3e 5c54 f53d a404 7a3e f909 653f
000003b0: a425 d33e 0c57 2d3e ee4d c23e 7dd8 b43e
000003c0: 4e98 4d3e 5349 043e 14eb 9a3e 6a50 7d3e
000003d0: 05fe 873e d1ec 133e baeb 223e 980d d13e
000003e0: 01e6 e63e 690d 4c3e 1a32 5b3f 1706 eb3d
000003f0: 8223 753e 113b 803e 8ff6 743e a83c 513f

model.4.weight f4 [256, 512]
0.03733715 -0.011268985 -0.022240736 0.015671963 -0.040392272 -0.014877064 0.004513117 0.02729932
0.04660499 -0.019960873 -0.039366875 -0.038656663 -0.021905255 -0.00476863 -0.021630218 0.016375832
0.0077353497 -0.035909887 -0.0036186296 -0.018884368 0.058524556 -0.013882858 0.06631901 0.0019769869
-0.017930428 0.05985706 0.033726137 -0.017258171 -0.017382264 -0.03913922 0.03768618 0.010221647
0.05275914 -0.04346578 0.0025950004 0.0427373 -0.020296171 0.045512255 0.03412463 0.015081975
-0.01658733 0.03911698 -0.03885841 0.0040725144 0.014132641 0.04607363 0.0047678063 0.0034243683
0.0286004 0.07198957 0.010844755 0.05165813 0.05524781 0.020877607 -0.04636027 0.0181306
0.0061764843 -0.005175448 -0.043310933 -0.005710382 0.0050318204 -0.007270669 -0.0020052644 -0.028432095
-0.00768027 0.056197155 -0.017233882 -0.018279942 0.010787538 -0.02377965 0.044190217 0.0039823866
0.02527673 0.019819869 0.00011714634 -0.013533532 0.046895545 -0.05842664 -0.030438531 0.0002378368
-0.023046656 0.032762542 -0.0017359444 -0.05657764 0.056279752 -0.011858587 0.04846292 -0.011004648
-0.011423029 0.0055389656 -0.04979341 0.02654567 0.067061745 -0.0036081716 -0.021473303 0.04250992
-0.030617781 -0.029624464 -0.013747822 -0.036381375 0.04544181 0.01266938 -0.016526619 0.004172952
-0.033708144 0.04425926 0.0015721784 -0.024974184 -0.001976017 -0.009748838 0.0033689064 0.0006006507
-0.0032003282 0.013066761 -0.053245947 0.028789142 -0.057471998 0.046034347 -0.02549777 -0.009108793
-0.049206056 -0.017966181 0.051627293 0.040565398 -0.045834765 -0.02452171 0.01531 -0.045511585
-0.03248174 -0.023435153 0.039907385 0.033973776 -0.03777707 0.0012187723 0.028493725 0.0175412
-0.044316802 -0.0038065116 -0.0404038 0.021467855 -0.041220956 0.017902762 -0.050059993 -0.025778178
-0.06564127 -0.03174905 -0.03787376 0.088947095 -0.028809918 0.05914331 0.008597892 0.041611068
0.08304715 -0.019323474 0.0015364655 -0.044482525 -0.05036732 -0.01648911 0.0180002 -0.014576908
-0.011183276 0.005341644 0.010586866 -0.06299883 0.0411664 -0.04269189 0.033862207 0.02998477
0.049540523 -0.04972454 0.049850617 -0.038722847 -0.033926837 0.058514666 -0.0034707664 -0.020126875
-0.08649102 0.0055755107 -0.0071180533 -0.051888425 0.020635502 0.010320968 0.025492527 -0.014877155
-0.015930684 -0.028396148 0.03209317 -0.030869573 -0.014781396 -0.04020715 -0.04968385 0.04653435
0.007584698 0.02767812 -0.012376775 -0.019125048 -0.006715828 -0.005149968 0.026315644 0.031883974
-0.048672978 0.044395596 -0.001131531 -0.0070873825 -0.01854424 -0.11884036 0.09161835 0.046391357
0.0248354 -0.061713457 0.067917384 -0.071413614 0.0592178 0.017342942 0.005669193 -0.02301506
0.026413348 -0.05745928 -0.012725285 0.092455074 -0.03756775 -0.0016407706 0.01732585 0.050174598
-0.0043379758 -0.037395366 0.033120837 -0.029729873 0.019057779 0.013302069 -0.03203975 -0.03254766
-0.06462932 -0.022744732 -0.0041881828 -0.036476485 0.004552924 -0.048814226 0.04484148 -0.03573875
0.056765467 -0.02989382 0.05529744 0.027365295 -0.011344133 -0.043498248 0.019246493 0.03886788
-0.009353853 0.041175943 -0.00038156263 -0.014482177 -0.050984293 0.03720251 0.017004073 -0.0020188678
00000000: d7ee 183d 8da1 38bc 3432 b6bc 7d62 803c
00000010: 5e72 25bd eebe 73bc c5e2 933b d3a2 df3c
00000020: e0e4 3e3d fc84 a3bc 293f 21bd 7356 1ebd
00000030: a672 b3bc 2b42 9cbb db31 b1bc 9c26 863c
00000040: d178 fd3b 3f16 13bd 8826 6dbb 64b3 9abc
00000050: 72b7 6f3d ed74 63bc 43d2 873d 5690 013b
00000060: d5e2 92bc ad2c 753d 6b24 0a3d 0261 8dbc
00000070: 4065 8ebc 7250 20bd d35c 1a3d b278 273c
00000080: f819 583d 2c09 32bd e210 2a3b 4f0d 2f3d
00000090: 2844 a6bc 0f6b 3a3d 45c6 0b3d 631a 773c
000000a0: 27e2 87bc 2039 203d ff29 1fbd ba72 853b
000000b0: 988c 673c b4b7 3c3d 423b 9c3b 5e6b 603b
000000c0: 634b ea3c 456f 933d 33ae 313c 7a97 533d
000000d0: 874b 623d 8407 ab3c 44e4 3dbd a086 943c
000000e0: 1b64 ca3b ce96 a9bb ce66 31bd 281e bbbb
000000f0: f8e1 a43b cb3e eebb c16a 03bb 6dea e8bc
00000100: c6aa fbbb fd2e 663d 122e 8dbc d1bf 95bc
00000110: 37be 303c 8acd c2bc cd00 353d ae7e 823b
00000120: 2511 cf3c 475d a23c 76ac f538 bfbb 5dbc
00000130: 8b15 403d c650 6fbd 3a5a f9bc d463 7939
00000140: 57cc bcbc 0432 063d a188 e3ba f5bd 67bd
00000150: 9985 663d 854a 42bc 0e81 463d d74c 34bc
00000160: a827 3bbc 3680 b53b 2df4 4bbd 4e76 d93c
00000170: ab57 893d 1377 6cbb c8e8 afbc e21e 2e3d
00000180: 24d2 fabc 01af f2bc 8b3e 61bc a304 15bd
00000190: 3121 3a3d 3b93 4f3c d562 87bc 42bd 883b
000001a0: 8d11 0abd 3349 353d 8e11 ce3a a996 ccbc
000001b0: 1080 01bb 97b9 1fbc dfc8 5c3b fc74 1d3a
000001c0: 99bc 51bb f815 563c 6c18 5abd 35d7 eb3c
000001d0: c267 6bbd 838e 3c3d b3e0 d0bc 0c3d 15bc
000001e0: 4a8c 49bd d02d 93bc 2477 533d e727 263d
000001f0: 3cbd 3bbd c1e1 c8bc cbd6 7a3c 5b6a 3abd
00000200: 930b 05bd 14fb bfbc ed75 233d 1628 0b3d
00000210: 21bc 1abd 36bf 9f3a ac6b e93c 90b2 8f3c
00000220: 8985 35bd ab76 79bb 747e 25bd 5bdd af3c
00000230: 4ed7 28bd d0a8 923c b50b 4dbd c22c d3bc
00000240: ee6e 86bd 4b0b 02bd 8421 1bbd e529 b63d
00000250: c702 ecbc 4140 723d 2cde 0c3c 5e70 2a3d
00000260: a014 aa3d 434c 9ebc 3a63 c93a 4f33 36bd
00000270: f74d 4ebd 2c14 87bc 2875 933c fcd3 6ebc
00000280: 0f3a 37bc f508 af3b 8974 2d3c 8805 81bd
00000290: 199e 283d b1dd 2ebd 19b3 0a3d 9fa2 f53c
000002a0: 01eb 4a3d f6ab 4bbd 2930 4c3d d99b 1ebd
000002b0: def6 0abd 13ad 6f3d cc75 63bb 1ee1 a4bc
000002c0: 3422 b1bd c6b2 b63b 8f3e e9bb f588 54bd
000002d0: c90b a93c 4719 293c b4d5 d03c 50bf 73bc
000002e0: 1181 82bc 0a9f e8bc 2174 033d 30e2 fcbc
000002f0: ab2d 72bc 41b0 24bd 4b81 4bbd cd9a 3e3d
00000300: 0f89 f83b 3abd e23c f5c7 4abc 22ac 9cbc
00000310: 7310 dcbb 10c1 a8bb e893 d73c c598 023d
00000320: 515d 47bd 28d8 353d e14f 94ba 463d e8bb
00000330: 17ea 97bc 9362 f3bd 67a2 bb3d dd04 3e3d
00000340: 9c73 cb3c 40c7 7cbd 4518 8b3d 4d41 92bd
00000350: 5d8e 723d c912 8e3c a3c4 b93b 148a bcbc
00000360: ce60 d83c 6c5a 6bbd b77d 50bc 1659 bd3d
00000370: a4e0 19bd 200f d7ba f1ee 8d3c e183 4d3d
00000380: 9425 8ebb e22b 19bd b7a9 073d 108c f3bc
00000390: 0f1f 9c3c ecf0 593c 1d3c 03bd b250 05bd
000003a0: 605c 84bd 2953 babc 063d 89bb 5e68 15bd
000003b0: b230 953b 6df1 47bd b3ab 373d cc62 12bd
000003c0: e882 683d e2e3 f4bc 927f 623d 2f2d e03c
000003d0: bedc 39bc 382b 32bd d2aa 9d3c ed33 1f3d
000003e0: e740 19bc 1ba8 283d 780c c8b9 a746 6dbc
000003f0: e8d4 50bd a961 183d 204c 8b3c fb4e 04bb

model.4.bias f4 [256]
0.028520226 0.004135038 0.025815528 0.041808482 -0.012160223 0.037287336 -0.022138117 -0.012961109
0.03871654 -0.032409135 -0.020557966 0.035298984 0.033848442 0.002281056 -0.030521475 0.031099753
0.0035574755 -0.022721129 -0.013374101 -0.0058842297 0.018597417 -0.0032807435 0.03420255 -0.034210917
-0.03108938 -0.024737926 -0.03442216 0.0062420634 -0.023454983 -0.01617904 0.009654496 -0.010828881
-0.0064948536 -0.033188853 0.027065238 0.020876879 -0.027034184 -0.026354993 -0.028525118 -0.019004237
-0.034419175 0.036204882 -0.005257919 -0.042423565 0.037642594 -0.015081048 -0.029944224 0.0057530273
0.021692013 -0.013814252 0.020035125 0.043294813 0.006283707 0.03267479 0.034946088 0.041152693
0.019089973 -0.029861348 0.035138436 -0.013363995 0.024761789 0.040288847 0.03230309 -0.009117412
-0.0300865 -0.022220535 0.008347751 0.030609626 -0.03950838 0.00061443174 -0.012930435 -0.009013225
-0.03145137 -0.016982807 0.020548297 0.023947218 -0.02947989 0.019832013 0.014601147 -0.027379835
0.019031258 0.008944114 -0.029482225 0.041740544 0.00493626 0.018698506 -0.04092232 0.0030018166
0.03885403 -0.029754145 0.0024658127 -0.0072332383 0.04045463 -0.021595223 -0.039412167 -0.017208925
-0.0130962785 -0.01985234 0.015046828 0.03609003 0.043561544 -0.019687222 0.04131133 0.014860801
-0.0014251632 0.04131572 0.024145218 0.037928596 0.013299466 0.0069221575 0.017657394 -0.008019259
-0.011112976 -0.024059553 0.03481111 0.015032911 0.024246251 0.0003013392 0.041181218 0.038489785
0.029364454 -0.011581437 0.039205406 -0.010580662 -0.020472286 0.017304348 0.023803964 -0.040233076
0.015549464 0.042339813 -0.02731825 0.023089113 0.01870609 -0.038440533 0.007847613 -0.041114565
0.041369442 0.0028158475 -0.025440214 -0.018367603 0.029108565 0.029850913 0.027378345 0.0151115665
-0.015398395 0.008226761 -0.031203447 -0.006978651 0.010888416 -0.036623675 -0.008055189 0.020235106
0.01391462 0.02483724 -0.040717427 0.033336725 -0.0012907522 0.016876819 -0.024755033 0.023890885
0.0009615322 0.016910857 0.016652731 -0.027866546 0.039747454 0.038533773 0.029227702 -0.015682472
-0.025778683 0.031547643 -0.029152438 0.025339354 -0.042216767 0.012616589 0.0023241865 -0.039685838
0.04069705 -0.005678833 -0.033175234 -0.038589895 0.019744467 -0.026390113 -0.024951298 0.020319568
-0.00927477 -0.0028359795 -0.041678954 -0.041642174 0.03780047 0.037499756 -0.013398471 -0.016343614
-0.017850902 -0.009901284 0.013891112 -0.014201312 -0.031832237 -0.032755587 0.03953203 -0.0034989025
0.010489526 0.040713847 -0.0044628945 0.02125222 0.037102174 0.03830709 -0.034533292 -0.042513363
0.01217538 -0.006018513 0.0018809108 0.035292346 -0.012609413 -0.019303437 -0.04279351 -0.008426412
-0.02408906 0.0074929423 -0.041686233 -0.0059472155 0.023831114 -0.031498846 0.0397235 -0.016805634
-0.032554843 -0.04272723 -0.02186118 -0.043092865 -0.04289492 0.038351506 0.034181915 0.017402379
0.003080807 -0.014221695 0.0013287212 -0.0022223338 -0.013003435 -0.018734943 0.014569545 -0.03306101
0.022681486 0.027421104 0.012461945 0.02881616 -0.02081982 0.007906105 -0.007590121 -0.03662946
0.02153753 -0.00545293 0.04238367 0.006425281 -0.0068638744 -0.022510381 0.000771193 -0.021327756
00000000: 40a3 e93c 367f 873b 167b d33c 5f3f 2b3d
00000010: ac3b 47bc 9bba 183d ff5a b5bc d55a 54bc
00000020: 3c95 1e3d 71bf 04bd 2e69 a8bc ab95 103d
00000030: aaa4 0a3d c57d 153b 2c08 fabc e9c4 fe3c
00000040: 8924 693b a921 babc 0c1f 5bbc 7fd0 c0bb
00000050: 9c59 983c be01 57bb f917 0c3d bf20 0cbd
00000060: 28af febc 31a7 cabc 40fe 0cbd 398a cc3b
00000070: aa24 c0bc e889 84bc e42d 1e3c 9e6b 31bc
00000080: c8d2 d4bb 09f1 07bd ebb7 dd3c fd05 ab3c
00000090: cb76 ddbc 6de6 d7bc 82ad e9bc c6ae 9bbc
000000a0: 1ffb 0cbd 924b 143d 9f4a acbb 55c4 2dbd
000000b0: 1f2f 1a3d 8016 77bc 974d f5bc e483 bc3b
000000c0: 73b3 b13c 2c55 62bc b420 a43c e755 313d
000000d0: 8ee7 cd3b 00d6 053d a123 0f3d ba8f 283d
000000e0: 9362 9c3c c99f f4bc 52ed 0f3d a8f4 5abc
000000f0: 3cd9 ca3c eb05 253d 3f50 043d 3361 15bc
00000100: f777 f6bc d707 b6bc 01c5 083c 0ac1 fa3c
00000110: 8ad3 21bd d111 213a 2dda 53bc 35ac 13bc
00000120: 27d3 00bd 871f 8bbc e754 a83c f52c c43c
00000130: cf7f f1bc bf76 a23c a639 6f3c ad4b e0bc
00000140: 71e7 9b3c 558a 123c b584 f1bc 22f8 2a3d
00000150: 5ac0 a13b 9c2d 993c 2a9e 27bd 20ba 443b
00000160: 6725 1f3d f7be f3bc 7999 213b cd04 edbb
00000170: c1b3 253d 77e8 b0bc a76e 21bd bbf9 8cbc
00000180: c691 56bc 60a1 a2bc f986 763c 24d3 133d
00000190: 976d 323d 1947 a1bc 1236 293d b87a 733c
000001a0: 8bcc baba ac3a 293d 31cc c53c 045b 1b3d
000001b0: 01e6 593c 44d3 e23b 3da6 903c 3663 03bc
000001c0: 3313 36bc 8a18 c5bc 1896 0e3d 994c 763c
000001d0: 13a0 c63c 10fd 9d39 a3ad 283d 77a7 1d3d
000001e0: b98d f03c 11c0 3dbc d995 203d 835a 2dbc
000001f0: 7fb5 a7bc d9c1 8d3c 8800 c33c 70cb 24bd
00000200: 2ec3 7e3c 836c 2d3d 86ca dfbc 6125 bd3c
00000210: 843d 993c d273 1dbd 4693 003c bf67 28bd
00000220: 0173 293d 158a 383b ff67 d0bc a877 96bc
00000230: 1675 ee3c e789 f43c 8d48 e03c 8196 773c
00000240: 8d49 7cbc 89c9 063c 5f9e ffbc 2bad e4bb
00000250: 5465 323c b502 16bd e9f9 03bc 18c4 a53c
00000260: 25fa 633c 7877 cb3c 51c7 26bd 178c 083d
00000270: 752e a9ba 4141 8a3c 11cb cabc d1b6 c33c
00000280: 550f 7c3a a388 8a3c 4f6b 883c 6248 e4bc
00000290: 3ace 223d 97d5 1d3d ef6e ef3c 8778 80bc
000002a0: d12d d3bc 1a38 013d 18d1 eebc 7a94 cf3c
000002b0: 7deb 2cbd cfb5 4e3c 6151 183b 9e8d 22bd
000002c0: f3b1 263d 8115 babb c1e2 07bd 7010 1ebd
000002d0: 26bf a13c 1430 d8bc aa66 ccbc 3975 a63c
000002e0: 34f5 17bc d7db 39bb 8db7 2abd fc90 2abd
000002f0: aad4 1a3d 5899 193d 4385 5bbc 0be3 85bc
00000300: 0e3c 92bc ff38 22bc 8c97 633c 9fac 68bc
00000310: 8562 02bd b92a 06bd 56ec 213d d84d 65bb
00000320: 43dc 2b3c 90c3 263d 793d 92bb 2319 ae3c
00000330: 73f8 173d e5e7 1c3d c872 0dbd 7e22 2ebd
00000340: 3f7b 473c f236 c5bb e588 f63a b58e 103d
00000350: b697 4ebc 3e22 9ebc 3f48 2fbd ef0e 0abc
00000360: 6c56 c5bc 5b87 f53b 2fbf 2abd dce0 c2bb
00000370: 7839 c33c ef04 01bd 1cb5 223d f8ab 89bc
00000380: 3a58 05bd bf02 2fbd 3816 b3bc 2582 30bd
00000390: 95b2 2fbd 7816 1d3d 5602 0c3d 6f8f 8e3c
000003a0: 5de7 493b 1d02 69bc 7c28 ae3a 93a4 11bb
000003b0: 5c0c 55bc 067a 99bc 1ab5 6e3c fb6a 07bd
000003c0: 86ce b93c 39a2 e03c 302d 4c3c de0f ec3c
000003d0: 548e aabc 9c88 013c 8db6 f8bb c608 16bd
000003e0: 796f b03c 7eae b2bb 809a 2d3d 2a8b d23b
000003f0: 5aea e0bb b167 b8bc e329 4a3a 8cb7 aebc
