best-model-by-loss.pth (torch, 607469 bytes, 15 tensors)

loss_fn.weight f4 [6]
00000000: 0000 0040 0000 803f 0000 4040 0000 8040
00000010: 0000 803f 0000 0040
2.0 1.0 3.0 4.0 1.0 2.0

model.0.weight f4 [512, 27]
00000000: a045 1a3e 28f8 253e 68bf 1dbd a5c2 3b3e
00000010: 9ac2 81bd 796e cf3c c8f6 c0bd 8b1a d53d
00000020: 6dc7 323e 8d45 14be 6cd5 f93d 6ae7 003c
00000030: 456c 2e3e a9b7 20bd cdfa 0d3e ff68 8c3c
00000040: 7063 173e 4505 a03c 0307 f3bd 08cf 313d
00000050: 56af 77bd 6f05 87bd 560f e8bd e49d cd3d
00000060: 2ca5 06be 8069 d1bd 015d d9bc a2b2 ccbd
00000070: a22a 013d f94d 31be 574f 433e 453a 54be
00000080: 8803 e33d 3b16 0b3c 2f93 cebd 6514 f53d
00000090: fd1a 043e 4201 363e 0ec8 5abc 9076 d7bc
000000a0: 3058 903d e940 13bd e30d 283d 197d 313e
000000b0: 5dcb a03d f283 d93b 4d51 1a3e 9ff5 103d
000000c0: 2a64 843d 7b58 fdbd 223d 7abe 0fab ebbd
000000d0: 5e79 afbd f10d 273e 886f e53c e594 523d
000000e0: 1959 1c3d 6957 d5bc 67ae 253e 0214 0abe
000000f0: 4f93 143b 23eb f1bd 0918 0c3d 53f2 0fbd
00000100: fb99 ec3d bb1f cfbb b4dc 003e c612 90bd
00000110: be57 12be 047e babd 9b89 423e 56e8 973d
00000120: 57c8 4c3e ba59 51be d43e 51be 51fb 10be
00000130: 6df5 ecbd e0b6 a13d f06e 6d3d a4ae 3e3e
00000140: c601 5bbd d64d 0bbe 6a8b cc3d e959 59bd
00000150: 4ef0 103e 33fc f6bc d927 0c3e e4c1 f4bd
00000160: a690 b8bd 5da4 353d acb3 41bd 6177 d3bd
00000170: 7691 163e 56bc c93d 04f0 31be 9dac a7bd
00000180: 854e 493e 8d79 67bc e25c 8abd 2d99 3ebe
00000190: 470a f7bd e2ec 003d 20e9 4abc bb6a eabd
000001a0: fd1b 1c3c 277a 20be eccc 6abe 56c8 9dbd
000001b0: 6c97 17be ddb7 d3bd f983 483e 0afc 223d
000001c0: 6b24 6e3d 6298 33be 4233 f7bd b9b9 8fbd
000001d0: 987a a63c 7e8c 1abe 3b30 b5bd 73a9 d6bd
000001e0: 1aa1 21bc cf45 f2bd 6aaf 99bc fb8f 2bbe
000001f0: 806d 07be 3703 f0bd f9e4 9fbd 2002 10be
00000200: 1bfb 303e 13ff 11bc b78e 393e 3f19 b73d
00000210: 8820 19be 1b58 023e b459 3ebd 5686 9ebd
00000220: b1dc 23be e3d7 1cbe 8df0 be3d 5e65 bdbc
00000230: 9b6e d03d 19ab 06be 0c8e 193e 1f95 1ebe
00000240: ae03 70bd 4fe4 893d 28ea b73d 1ee0 283e
00000250: ee84 3b3e 5e31 22be 56df 7c3d 286d 9fbd
00000260: 7135 aebc 22d4 20be 8733 2c3e e377 06be
00000270: 920a 063e faf3 9a3d 5db6 c83d eb63 d2bd
00000280: 9883 183e 8154 4b3d 2170 783d f44a 04be
00000290: c195 973d 74fe 11bd b36f 84bd d42a 3d3e
000002a0: 461e 723d 65cd a7bd 0462 febd 25a0 173d
000002b0: 710a eb3d 3544 7dbd a1f7 c6bd cb56 81bd
000002c0: 892a 2abe 0d66 6e3d 7c0c 293e bb75 17be
000002d0: 6262 533d 0895 c23d e99d 583d d4e8 40bd
000002e0: b42b f73d d9d6 ee3d aa86 a13d ab0d 7bbc
000002f0: 71a3 2cbd bbd0 693d 6002 663b 5892 2bbc
00000300: 14fa 2d3e 9d1d 2c3e 155d 16bc 0b39 dfbc
00000310: ca9b c6bb c642 23bd 405f b53c aa65 873d
00000320: a81c 40be 7f69 6ebd bc92 f53d 28a3 863d
00000330: 100c 24bd 0203 1fbe bb27 ebbd 5b9c 52be
00000340: bf49 33bd b038 9e3d da3d 1c3e d515 8a3d
00000350: b0a8 c8bd 5a24 9dbd 2657 88bd ca39 153e
00000360: 9e04 df3c 6b04 40bd e514 8f3d f318 aabd
00000370: 9ae8 9ebd 5226 4a3e d60b febc b6b0 973c
00000380: 553d 32be 53f5 0f3e 758a 053e 3718 b93d
00000390: 0323 1ebe 716a 7cbe 1223 0cbe c9ad 4f3e
000003a0: ecbb dc3d 0822 503e 2f3e a93d 9465 bdbb
000003b0: 8e0c d7bc 9bc4 d3bd bac9 cfbd 6573 22be
000003c0: df58 253d 5ac5 8cbd 9b03 adba 297a dabd
000003d0: 13b6 07bd d3d5 44be b8e6 3abe dd92 8d3d
000003e0: 4151 85bd 3bd6 ed3d cfce 6bbd 18e2 02be
000003f0: ecb6 0dbe cd72 21be d917 abbd a25a 22be
0.15065622 0.16207945 -0.038512617 0.1833597 -0.063359454 0.025321232 -0.0942207 0.10405453
0.17458887 -0.14479657 0.1219891 0.007867673 0.17033489 -0.039237652 0.13865204 0.01713991
0.14784026 0.019533763 -0.11866572 0.04341033 -0.060469948 -0.06592833 -0.1133105 0.10039881
-0.13148946 -0.10225201 -0.026533606 -0.09995009 0.0315348 -0.173149 0.19073234 -0.20725353
0.11084658 0.008489187 -0.10086667 0.119667806 0.1290092 0.17773917 -0.013353361 -0.026301652
0.070480704 -0.035950575 0.04102887 0.17332877 0.078512885 0.0066380436 0.15070076 0.035390493
0.06464417 -0.12370392 -0.24437383 -0.11507236 -0.08568071 0.16313912 0.028007284 0.05141153
0.038170908 -0.026042657 0.1617981 -0.13484195 0.002267081 -0.11812427 0.03420261 -0.035143208
0.11552807 -0.0063209212 0.12584192 -0.07034831 -0.14291283 -0.09106067 0.18997805 0.074173614
0.19998299 -0.20444384 -0.20434123 -0.1415837 -0.11570249 0.07896209 0.057967126 0.18621308
-0.05346849 -0.13603911 0.099875286 -0.05306426 0.14154169 -0.030149555 0.13687076 -0.11951044
-0.090119645 0.044346202 -0.04729049 -0.10325504 0.14703926 0.09850375 -0.17376715 -0.0818722
0.19658859 -0.014128101 -0.06755997 -0.1861312 -0.12062507 0.03147591 -0.012384683 -0.114461385
0.009528157 -0.15671597 -0.22929734 -0.07704227 -0.14803857 -0.103378035 0.19581594 0.039791144
0.0581402 -0.17538598 -0.120703235 -0.07017846 0.02032213 -0.15092656 -0.0884709 -0.104815386
-0.00986507 -0.11829721 -0.018760402 -0.16754143 -0.13225365 -0.11719363 -0.07807345 -0.1406331
0.17283289 -0.008910912 0.18120848 0.08940362 -0.14953816 0.12728922 -0.046472266 -0.07740466
-0.16002156 -0.15316729 0.09323225 -0.023119625 0.10177346 -0.13151206 0.14995593 -0.15486573
-0.05859726 0.067329995 0.08980209 0.16491744 0.18312427 -0.15839145 0.061736427 -0.07784492
-0.021265717 -0.15705922 0.16816531 -0.1313167 0.1308997 0.07566066 0.09800408 -0.10272964
0.14893949 0.049641136 0.06065381 -0.12919217 0.0740161 -0.035643056 -0.064666174 0.18473369
0.059110902 -0.08193473 -0.12421039 0.03701796 0.11476601 -0.061832625 -0.097152 -0.063153826
-0.16617788 0.058202792 0.16508669 -0.14791004 0.051607497 0.09501082 0.05288497 -0.047097042
0.120688826 0.11662073 0.07887013 -0.015323083 -0.042148057 0.057083827 0.003509663 -0.010471903
0.16989928 0.16808172 -0.009177466 -0.02724888 -0.006061052 -0.039858602 0.022140145 0.06611188
-0.18760931 -0.058206078 0.11990878 0.06574088 -0.040050566 -0.15528491 -0.11482187 -0.20567457
-0.0437715 0.07725656 0.1525797 0.067424454 -0.097977996 -0.07672949 -0.06657247 0.14572826
0.027223881 -0.046879213 0.06986407 -0.0830554 -0.07759209 0.1974118 -0.031011503 0.01851688
-0.17406209 0.14058428 0.13041098 0.09037822 -0.15443043 -0.24649979 -0.13685253 0.20281138
0.10778031 0.20325482 0.08263814 -0.0057799313 -0.026251104 -0.10340234 -0.10145898 -0.15864332
0.040367957 -0.06873579 -0.0013199927 -0.106678315 -0.033132624 -0.19222192 -0.18252075 0.069127776
-0.065096386 0.11613127 -0.057570275 -0.1278156 -0.1383931 -0.1576645 -0.08354158 -0.15854886

model.0.bias f4 [512]
00000000: 5cf5 78bd 77bb 9dbd a019 11be 3438 49be
00000010: 60d7 aa3d 765a fcbd 3aa1 d8bd 81c6 a0bd
00000020: ec57 16be 0307 16be 28b4 febd 2e12 403e
00000030: f000 3c3c 4b22 96bd 3841 84bc 34f4 243e
00000040: 8932 e8bd c3a9 a33d 9d1c 13bd cee5 27be
00000050: 6241 023e 23cd b63d f543 113e 0634 b53d
00000060: 0731 ff3c df58 7e3d 717d 12be d637 3d3e
00000070: d72d febd ce00 0a3e 33c8 f7bd 3ef1 0cbe
00000080: bfc3 a63d a888 013e 515d 50bd 3d85 643d
00000090: 00f5 2bbe 8bbf a7bc 783e 2e3e ce44 393e
000000a0: be8f 7cbd ab74 923d da1f 363e bd97 923d
000000b0: 5c34 133d ee8c 1dbe b172 623d 71cf 553d
000000c0: b9ea dbbd 7a49 c13d 103e 00be 54e0 3b3e
000000d0: 4d33 2fbc 32ba 043e c317 4dbd 913b c8bd
000000e0: 9e7a 0f3e c9af ee3d 7ea0 403e 2718 653d
000000f0: 79bc a4bd 31db e7bd 0109 3cbe 16bb 4c3c
00000100: 9ac9 3a3e 3040 7fbd df55 12bd f9a2 0a3e
00000110: 63f0 2d3e 0c7d 563d 1be9 7e3c 9655 403e
00000120: 9a7f 243e bac5 fbbd f0be 0abe 4fba 35bd
00000130: 2275 993d e9d4 f0bd 3c0b a7bd 014d 783c
00000140: aab6 46bd d04d 043e 07ae f73d 0e2b 063e
00000150: b849 d23d 92dd e3bd 6bdd 17be 979e 03be
00000160: 3f53 bfbc 8c2d 173e 3f8b 2fbd 098c 353e
00000170: ced9 153e dda8 39be 425c b53d 865b a8bd
00000180: bca4 3bbe e2cf 893d 8ce9 87bd 2407 2fbe
00000190: 6ab7 0abe fa3e 133e 54b7 3fbd 108c 193e
000001a0: ea53 84bd 7f0b 3f3e 1487 42bd 7c69 3b3e
000001b0: 25ed 9c3d 8351 14be 7aa0 ac3d 77b1 a13d
000001c0: 1539 25be 2c8d 2abe 7c75 273c 19d7 d43d
000001d0: 25da 263e 41da 52bd 308a 38be c87a af3d
000001e0: d08b 653c 9f61 7b3b 6f88 f73d dc37 bc3c
000001f0: 25b8 2a3e 234d 153e e228 3b3d 9f8f 123e
00000200: e518 743d 96ad 39be 0c98 303e fc8e c63b
00000210: 2f00 bdbc 01be 213e e30d 2d3e 2568 1dbe
00000220: 059e 9a3d 7d3b d8bd 13bb 46bd 3c3f 283d
00000230: 030f 92bd 3b44 b5bd ead4 c23d 9dfe 3bbd
00000240: e2fd 913d b029 3c3e bf01 453d 5a70 333d
00000250: 20cc 2d3e a831 94bd b97a de3a 8e65 37be
00000260: 60ad a3bd e182 83bc e1ee 323e 19d9 de3d
00000270: de1f 12bd a5ed 56bd 9372 3d3d 2371 acbd
00000280: efcd f1bc 11e3 403d b7a8 6ebd bb75 113e
00000290: af45 9c3d 562e 8abc 0154 08bd 451a a13c
000002a0: 4fa3 cd3d 4bdc 593d cf5e 4fbd 38ee 883d
000002b0: 556a 0bbc 7728 10be 0a2c 1bbe cf9c 993a
000002c0: 3471 2a3e 3167 9abd 5df5 f73d 3062 6cbd
000002d0: 9622 ec3d 5734 2dbd b958 9fbd 73b7 663d
000002e0: 5653 d43d ee73 18be 4c8f 6bbc 1189 2c3d
000002f0: 7817 0a3d 5d3d 3f3e e652 2cbe d778 283e
00000300: a9bc cc3d 4285 3abe fc41 96bd cc37 853d
00000310: df6b 12be 9cda 373e 48b0 90bd de20 963d
00000320: c0ca 183d 6faf 99bd 6e80 38be 87eb 6d3c
00000330: db0f 21be 13f6 31bd c2db 1d3d 32c7 8abd
00000340: dfe7 e43d 7aa0 30be c965 1cbe a7f1 d13d
00000350: b942 cebd 3f8f 233e afdc 19bd ef47 09bd
00000360: d041 3c3e 08da b6bc a37d 1fbe d233 a4bd
00000370: abe5 743d 2a25 063e fa84 253e 9449 95bd
00000380: 77c1 ee3c 37d4 0e3e 409e 9dbd 0045 4d3c
00000390: 13c8 bfbd d17c de3c c0c3 3e3e 18f1 263e
000003a0: 45e6 01be 7f35 c13d 589a 383e 71f3 04bd
000003b0: c02a 8e3d 670d 31be 7bac d93d 5382 18bd
000003c0: d604 353e 3be9 093e 1dde e2bd 6d24 afbd
000003d0: c115 1bbe afd1 36be 26ab 34be 6221 c03d
000003e0: 7973 023e 3f3b fabd 5331 093e a911 75bd
000003f0: 6656 6d3d 1146 253e 4d0f 1c3e a251 1dbe
-0.060780868 -0.07701772 -0.14169931 -0.19650346 0.08341861 -0.123219416 -0.105776265 -0.078503616
-0.14681977 -0.14651112 -0.12436706 0.18756935 0.011474833 -0.073307596 -0.01614438 0.16108781
-0.11337764 0.07991364 -0.03591596 -0.16396257 0.12720254 0.089258455 0.1418608 0.08847813
0.031151308 0.062096473 -0.14305665 0.18478331 -0.12411087 0.1347687 -0.12098732 -0.13763902
0.08142804 0.12649786 -0.050870243 0.05579113 -0.16792679 -0.020477077 0.17016017 0.18092653
-0.06166052 0.07151159 0.17785588 0.07157848 0.035938606 -0.15385792 0.05528516 0.052199785
-0.10738129 0.09437843 -0.12523675 0.18347293 -0.010693383 0.12961653 -0.05007149 -0.097769864
0.14011618 0.11654622 0.18811223 0.055931237 -0.08043761 -0.11321104 -0.1836281 0.012495777
0.18240967 -0.062317073 -0.035726424 0.13538732 0.16986232 0.052365348 0.015558506 0.18782648
0.16064301 -0.12293573 -0.135494 -0.04436713 0.074930444 -0.117593594 -0.0815644 0.015155078
-0.048514046 0.12920308 0.1209374 0.13102362 0.10267967 -0.111262456 -0.14830558 -0.12853466
-0.023355125 0.14763469 -0.042857405 0.177292 0.14633867 -0.18130822 0.088554874 -0.08220582
-0.1832456 0.067291036 -0.066363424 -0.17092568 -0.1354653 0.14379492 -0.046805695 0.14994836
-0.06461318 0.18656729 -0.0474921 0.18301958 0.07662419 -0.14484219 0.08429046 0.07895177
-0.16135056 -0.16655415 0.010220882 0.10392589 0.16294153 -0.051477674 -0.18021464 0.085683405
0.014010385 0.0038357747 0.120865695 0.022975855 0.16671808 0.14580207 0.045693286 0.143126
0.059594054 -0.18132624 0.17245501 0.0060595255 -0.023071377 0.15795137 0.16899829 -0.15371759
0.07549671 -0.105582215 -0.04851825 0.04107593 -0.071317695 -0.088509046 0.095132664 -0.045897115
0.071285024 0.18375278 0.04809737 0.04380832 0.16972399 -0.07236034 0.001697383 -0.17909834
-0.07992053 -0.016053619 0.17473938 0.10881252 -0.035674922 -0.05247273 0.046251845 -0.084200166
-0.029517142 0.047091547 -0.058266368 0.14205067 0.076304786 -0.016867798 -0.033283237 0.019665847
0.10040914 0.053188603 -0.050627526 0.066860616 -0.008509238 -0.14077936 -0.15153518 0.0011719706
0.16644746 -0.075392134 0.12107346 -0.057710826 0.11530034 -0.042286243 -0.077805944 0.056327295
0.103674576 -0.14887974 -0.014377426 0.042122904 0.033713788 0.18675752 -0.16828498 0.16452347
0.099969216 -0.18214896 -0.07336804 0.06504783 -0.14298962 0.17954487 -0.07064873 0.07330488
0.037302732 -0.075041644 -0.18017742 0.014521486 -0.15728705 -0.043447565 0.038539656 -0.06776275
0.111770384 -0.17248717 -0.15273203 0.1025117 -0.1007132 0.15972613 -0.037563976 -0.033515867
0.1838448 -0.022320762 -0.1557527 -0.080176964 0.05978934 0.13100114 0.16164008 -0.072894245
0.029144986 0.13948141 -0.076961994 0.012528658 -0.09364333 0.027159126 0.1862936 0.16302907
-0.12685497 0.09434032 0.18027627 -0.032458726 0.06941748 -0.17290269 0.10628601 -0.03723366
0.17677626 0.13467877 -0.11077521 -0.085518695 -0.15145017 -0.17853425 -0.17643413 0.09381367
0.12739362 -0.122183315 0.13397722 -0.059831295 0.057943724 0.1614001 0.15240212 -0.15363172

model.1.weight f4 [512]
00000000: 7566 7e3f 5543 7f3f 4770 793f ca8f 853f
00000010: af4d 803f f6ac 763f 52d2 723f 6d04 823f
00000020: 99da 7a3f 0c4b 803f 8ab3 813f f2d6 813f
00000030: 71a6 753f ff80 7a3f 715b 783f c184 803f
00000040: c1b5 7a3f cb7a 833f a79b 773f cbcc 7f3f
00000050: 18b3 763f 16a2 783f 5ec7 783f 0199 773f
00000060: 8e2f 753f 8692 803f 91dc 7d3f 56c7 7c3f
00000070: 9808 7d3f e715 853f d305 7a3f 7269 843f
00000080: 7dd0 7f3f c73d 813f 3666 783f 4485 813f
00000090: 1229 7d3f 22b1 833f ebb0 803f 9b88 7d3f
000000a0: d7bf 773f 797f 763f 7a73 763f c25f 873f
000000b0: 6a27 713f d574 823f 2c8e 7d3f c442 7e3f
000000c0: 5dda 7a3f 1db7 7f3f 128c 7d3f bbff 813f
000000d0: 9ac4 843f c52b 7f3f 790f 803f 08b3 703f
000000e0: 2c5b 773f 8fcf 773f 12b6 7a3f fe30 7a3f
000000f0: f29b 7c3f 948a 773f 9591 7b3f 3a2b 813f
00000100: 7ce8 813f f341 873f a7d2 853f 653b 833f
00000110: 9f69 823f b34a 773f 3416 853f a51d 803f
00000120: 95af 703f b406 7e3f 25b2 7d3f 2cdb 7e3f
00000130: bfe8 7a3f 0aee 703f 0b2f 733f 08a7 853f
00000140: ca21 7e3f 9348 773f e06e 823f 8011 8a3f
00000150: 27a1 793f 6e97 7d3f 3126 7f3f 8d5c 7a3f
00000160: dae9 823f cb46 7f3f 94d1 833f b4bc 813f
00000170: cd0a 793f b1d3 7b3f f6e9 7e3f ff7a 7d3f
00000180: a4b0 7f3f 18dc 7e3f 6537 783f 3758 803f
00000190: 9e96 853f 3bfd 803f c475 7f3f cea4 773f
000001a0: 39af 843f 7d8d 833f 16dd 773f 2882 793f
000001b0: 0a27 863f 7582 713f 3bca 7c3f 96ad 7e3f
000001c0: 3d96 7a3f 7f04 813f 0b13 813f ff2c 7b3f
000001d0: 9c2f 793f 8b90 813f 7ee5 793f a250 803f
000001e0: 4cc7 803f bbc7 7b3f 44be 753f b781 803f
000001f0: e0c2 7f3f cc6b 833f 2468 873f 5aa9 813f
00000200: 64d8 843f 3051 7a3f 1bcf 7a3f 471d 7a3f
00000210: 25a4 833f 2adb 7d3f 574d 833f 782d 823f
00000220: 4154 773f 55c9 7a3f 4aac 7b3f b227 813f
00000230: 485e 803f 3e1e 873f 9f5f 7d3f e00c 7b3f
00000240: aa13 813f d5ce 7f3f 407c 743f 6fab 813f
00000250: 73b0 803f 51c8 753f e7e5 743f 9e5a 7c3f
00000260: 92b6 883f 046e 853f c6a0 803f 7e98 723f
00000270: 3832 7c3f 2cef 743f 04c2 823f fb1a 763f
00000280: bc1d 853f 1a22 7e3f 44c5 803f d3e5 7b3f
00000290: 3182 783f 0c06 863f 6a62 743f 06bf 813f
000002a0: dbaf 833f a56a 6d3f 4087 7b3f b9af 733f
000002b0: a20c 7a3f 42f7 753f 45f6 763f 9523 803f
000002c0: 030d 783f d9c3 853f ccd3 7c3f 9530 883f
000002d0: 71a2 743f 5b8b 7f3f 1f47 7a3f a05a 723f
000002e0: b85f 803f 97fc 7f3f c0c1 803f b809 813f
000002f0: a1dd 823f 3b7e 863f 4651 813f 208c 7b3f
00000300: 0ae2 813f bbe3 793f 0097 7f3f ecbe 823f
00000310: ed14 823f a886 7a3f af93 803f 5ef8 793f
00000320: ad4d 753f 12a7 7d3f e395 873f debd 7c3f
00000330: abc3 7c3f 7898 7c3f b522 823f 3e94 803f
00000340: 3e06 7f3f ac6d 733f 6d17 823f 5838 7b3f
00000350: 8593 7a3f c6d9 823f 9955 7f3f 1776 753f
00000360: af8b 7d3f 4339 883f 5863 803f 2f31 7a3f
00000370: c9ed 783f 0305 733f 5a2e 723f 7989 823f
00000380: 6b8e 803f d48c 7f3f d62f 823f 9606 7e3f
00000390: 98c9 743f 81ea 793f 2581 803f fd65 793f
000003a0: 2587 7b3f a65b 723f c39c 753f b6c8 853f
000003b0: 3556 7b3f 4fa9 7f3f 1ecf 823f b5cd 7d3f
000003c0: 2b6d 7c3f 762b 7d3f 0229 813f 899c 7e3f
000003d0: 1a13 763f 9f51 7e3f 5325 843f 1f00 823f
000003e0: 6b7a 733f 64ba 773f 0c2a 7c3f 8df4 743f
000003f0: c5dd 7a3f 35d6 7b3f 74dd 863f 8855 6f3f
0.9937509 0.99712116 0.97436947 1.0434506 1.0023707 0.9635767 0.94852173 1.0157601
0.97989804 1.0022902 1.0132916 1.0143721 0.95957094 0.9785308 0.9701453 1.0040513
0.97933584 1.0271848 0.9672188 0.99921864 0.96367025 0.97122324 0.9717921 0.9671784
0.9577569 1.0044715 0.9916468 0.9874166 0.9884124 1.0397309 0.9766514 1.0344679
0.999275 1.0096978 0.9703096 1.0118794 0.98890793 1.0288432 1.0053991 0.9903657
0.967771 0.9628826 0.96269953 1.0576098 0.94200766 1.0191904 0.9904506 0.99320626
0.97989446 0.99888784 0.99041855 1.0156168 1.0372498 0.9967616 1.0004722 0.9402318
0.9662349 0.96801084 0.9793407 0.97731006 0.98675454 0.9669583 0.98269016 1.0091317
1.0149074 1.0567001 1.0454911 1.0252501 1.0188483 0.96598357 1.0397401 1.0009047
0.94017917 0.9922898 0.9909995 0.9955318 0.9801139 0.9411322 0.94993657 1.0441599
0.9927031 0.96595114 1.0190086 1.078659 0.97511524 0.9905919 0.9966765 0.9779747
1.0227616 0.99717396 1.0298333 1.0135713 0.97282106 0.9836989 0.99575746 0.990158
0.9987891 0.99554586 0.96959525 1.0026921 1.043659 1.007728 0.9978907 0.96735847
1.0365974 1.0277554 0.96821725 0.9746423 1.0480664 0.94339687 0.9874608 0.9948362
0.97885495 1.0079497 1.0083936 0.98115534 0.9733827 1.0122236 0.976158 1.0024607
1.006082 0.9835164 0.9599345 1.0039586 0.9990673 1.0267272 1.0578656 1.0129807
1.0378537 0.9778013 0.9797227 0.97700924 1.0284468 0.9916254 1.0257977 1.0170126
0.96612936 0.9796346 0.9830977 1.0090239 1.0028772 1.0556104 0.9897403 0.9806652
1.0084126 0.99924976 0.9550209 1.0130442 1.0053848 0.96008784 0.95663303 0.9857577
1.0680716 1.0424199 1.0049064 0.94763935 0.9851413 0.9567745 1.0215459 0.9613492
1.0399699 0.99270785 1.0060201 0.9839756 0.97073656 1.0470595 0.9546267 1.0136421
1.0288042 0.9274085 0.9825325 0.95190006 0.97675526 0.9608041 0.9646953 1.0010859
0.96894854 1.0450393 0.98760676 1.0639826 0.95560366 0.99822015 0.9776477 0.9466953
1.0029211 0.99994797 1.0059128 1.0081091 1.0223886 1.0507272 1.0102928 0.9826069
1.0147107 0.97613114 0.9983978 1.0214515 1.0162636 0.9786172 1.004507 0.97644603
0.9582165 0.99083054 1.0592617 0.98727214 0.98736066 0.9867015 1.0166842 1.004524
0.996189 0.9508922 1.0163399 0.9813285 0.97881347 1.0222709 0.99739987 0.95883316
0.99041265 1.0642475 1.0030317 0.977313 0.9723783 0.9492952 0.94601977 1.0198203
1.0043463 0.9982426 1.0170848 0.992288 0.9562011 0.9762345 1.0039412 0.97421247
0.9825309 0.94671094 0.95942324 1.0451877 0.98178416 0.9986772 1.0219457 0.9914201
0.9860408 0.9889444 1.009064 0.99457604 0.96122897 0.99343294 1.032389 1.0156287
0.9510867 0.96768785 0.9850166 0.95685655 0.97994643 0.9837373 1.0536332 0.93489885

model.1.bias f4 [512]
00000000: fe89 3bbc 983b 84bb 1042 85bd 2af6 353b
00000010: acb6 8abc 3257 20bd 291d 6abd e81c c33c
00000020: 6f41 72bd 93ab 19bd 8184 87bd 05db 2fbd
00000030: ae7b dcbc 4ce3 5e3c 1334 65bc f9c2 9cba
00000040: 8b48 5fbc 8437 91bc 0a81 0bbd 83e1 d5bb
00000050: 878d 25bd 6b49 cabc ab47 1cbd 4fdf 01bd
00000060: ef16 03bd 547f 79bc 7016 c2bc d6ca 683b
00000070: be94 9dbc eba3 323c 9c2b 3bbd 0a66 373d
00000080: 6ba9 dbbc 4e53 ed3c e929 42bd fa04 17bd
00000090: 021e 14bd 6ae0 c53b b312 f8bc 4300 92bd
000000a0: bf1a 4bbd df9e 83bd 79d0 eebc 7bad 1ebd
000000b0: d05e 8fbd 498a 53bc 5d1b e6bc 91e1 acbc
000000c0: 45bb d3bc 5321 f7bb db53 3cbd 9651 a03c
000000d0: 8e53 0dbd 7c5d fb3b 0034 d1bc c25b 91bd
000000e0: 024f 52bd b04c 0eb9 7a82 28bd 7c1b b0bc
000000f0: 6103 7fbc e591 2abd a0c7 bc3b d11d bebc
00000100: 415b 1cbd fd73 febb cf93 43bd 0c14 c4bc
00000110: de77 b83c 8d29 8ebd 5b84 b03a f42f 053c
00000120: 7f54 d3bc 3df3 a0bc 702d 78bd da23 f63a
00000130: a0d1 04bd 5cb6 25bd cf16 15bd 2110 40b9
00000140: 5cbe 67bc 04e4 37bd b497 823b 12c8 333d
00000150: 1f3a cebc e3c3 a4bd a49b 53bd 1896 4ebd
00000160: 104f b8bc 8c47 36bc c5cb 32bc 8235 953c
00000170: a88f 4cbd 64b5 1cbd 6208 38bd 4c2d abbc
00000180: f99a ca3a 525e c3bb a9c3 27bd 78be 0abd
00000190: 1670 fbbc e3a8 6e3c 1901 05bc e9ec 90bc
000001a0: 1d14 c7bc 782b 123b e044 cebc 46ff 3dbd
000001b0: 7dcb 6cbc 73d9 6dbd bf43 d5bc 83ff b7bc
000001c0: 572c 0ebd 8e87 1abd a824 97bb 3155 afbc
000001d0: ac1e 88bc fb62 6dbc dcbe 1fbc 86bd 7e3b
000001e0: 1d6b 98bc 0a00 b3bb f2b6 70bc 87d2 97bc
000001f0: 8f25 12bd 69e8 8b3c 3c72 1a3a fdc4 9abc
00000200: 47f6 8cbc c432 5fbb a188 74bd 4caf febc
00000210: b206 23bd 4194 b3bc 8097 37bc 6e20 b739
00000220: 7641 bfbc a27e 6dbb 8373 75bd d124 723c
00000230: 0142 183d b3f8 debb 18b1 8abc 0480 5dbd
00000240: 1290 cb3a 4ff2 39bd 9972 3abd b901 0c3d
00000250: 08e0 d73b 60f7 2bbd 061c 5dbd 53dc 03bd
00000260: d703 a83c cc5d 40bb 467d cfbc 4350 f6bc
00000270: b011 b53c ac97 3abd c968 f6bb 875a 10bc
00000280: 2974 193d c1cd bcbc 8fe8 96bc 7b28 a4bc
00000290: 86fc efbc 0067 7b3d 9a32 40bd ec1d 633c
000002a0: 5a96 1bbc b84f 47bd 81a3 c2bb b11f 49bd
000002b0: 54f7 96bc 3953 48bc 08a7 efbc 1cf6 aa3b
000002c0: 9c54 19bb a147 babc 0811 1bbd f3a2 eb3c
000002d0: 3eb3 ddbc 7fae bfbc e6ff 1cbd e38f 74bd
000002e0: 31c4 9cbc f5d7 a3bb 8974 ddbc a442 6dbd
000002f0: be1c 81bc 9dc7 ab3c e46c 60bd 9b28 7d3c
00000300: c3e6 9a3c 795f 3abd 3cd1 bbbc 6bd0 883c
00000310: d8b2 0abd b3b1 b8bc 9d47 5dbb 3d48 59bd
00000320: 4d8a 72bd 7798 18bd 1cbb 213d 34fd 4e3c
00000330: 746d bebc 47f5 97bc a26c 313b 605a a7bc
00000340: 7335 c93b 69a0 45bd 7d4b babb 3496 34bd
00000350: 6a9f 2ebc f613 0b3d 77f9 763c 6646 67bc
00000360: 2402 5cbd 8872 9e3c 3859 493c 567f c33c
00000370: c1d7 88bc 535a 32bd 4163 f3bc 47c8 ca3c
00000380: f81b 15bd b422 2cbc 52aa f7bc d495 933b
00000390: cdf9 51bd 27b2 a1bd 7995 0f3b 2630 be3b
000003a0: 0a77 423c ea5f e2bb 6aae 3cbd 453e 573c
000003b0: b84c 3dbc 7dfc 92bc 9b35 0abd 8230 55bc
000003c0: d09b 16bd 3f23 1fbd 281a 8fba dcf1 5bbc
000003d0: 6fd0 48bd 3e41 86bb 5214 fdbb 37a2 afbb
000003e0: d569 5abd d480 42bd 836c c3bc 85f2 62bd
000003f0: e0da dfbc 1c11 6fbb a41f 4cbc 9267 31bd
-0.011446474 -0.0040354244 -0.06506741 0.0027765133 -0.016932808 -0.039145656 -0.057156716 0.023817495
-0.059144434 -0.03751714 -0.0661707 -0.042933483 -0.026914444 0.0136039965 -0.013989466 -0.0011959962
-0.013628135 -0.017726667 -0.034058608 -0.006527127 -0.040418174 -0.024693212 -0.038154285 -0.031707104
-0.032004293 -0.015228111 -0.02369234 0.003552129 -0.019235965 0.010903339 -0.045695886 0.044775046
-0.026814183 0.028970387 -0.04740325 -0.03686998 -0.03616143 0.006038715 -0.030282354 -0.07128956
-0.049586054 -0.06426787 -0.029152142 -0.038739663 -0.07000506 -0.012911388 -0.02808922 -0.021103652
-0.025846133 -0.0075418144 -0.04597841 0.019570153 -0.034503512 0.0076710563 -0.02553749 -0.070975795
-0.05134488 -0.00013570744 -0.041140057 -0.02149748 -0.01556477 -0.041643042 0.005761102 -0.023207577
-0.038172964 -0.0077652917 -0.047748383 -0.02393534 0.022518095 -0.06941519 0.0013467179 0.008129109
-0.025797127 -0.019647235 -0.060590208 0.0018778995 -0.032426476 -0.040457115 -0.036398705 -0.00018316555
-0.014144506 -0.044895187 0.0039853696 0.043891974 -0.025174199 -0.08045175 -0.051662102 -0.05043611
-0.022498637 -0.011125457 -0.01091284 0.018213991 -0.04994169 -0.038258925 -0.04492987 -0.020895623
0.0015457562 -0.0059621716 -0.04095808 -0.03387305 -0.030693095 0.014566633 -0.0081179375 -0.017691093
-0.024301583 0.0022303741 -0.025179327 -0.046386026 -0.014452812 -0.058068704 -0.02603328 -0.022460705
-0.034710255 -0.03772693 -0.004612524 -0.021402927 -0.016616188 -0.014488931 -0.009750094 0.003887029
-0.018605763 -0.005462651 -0.014692055 -0.018533004 -0.03568035 0.017078595 0.0005891656 -0.01889276
-0.017207278 -0.0034057358 -0.059700612 -0.031089447 -0.039801307 -0.021921279 -0.011205554 0.00034928642
-0.023346644 -0.003623881 -0.059924614 0.0147792855 0.03717232 -0.0068045496 -0.016930148 -0.054077163
0.0015530607 -0.0453971 -0.045519445 0.03418133 0.006587986 -0.041983962 -0.053981803 -0.03219254
0.020509643 -0.0029352782 -0.02532829 -0.030067569 0.02210316 -0.0455548 -0.0075198156 -0.008810646
0.037464295 -0.02304733 -0.01842144 -0.020038834 -0.029295217 0.061377525 -0.046923257 0.013862114
-0.009496296 -0.04866001 -0.0059399013 -0.04910249 -0.018428482 -0.012226873 -0.029254451 0.005217327
-0.0023396378 -0.022739233 -0.03785804 0.028764224 -0.027063008 -0.023398636 -0.03832998 -0.059707534
-0.01913652 -0.0050001093 -0.027033107 -0.05792488 -0.015760776 0.020969206 -0.054791346 0.015451576
0.018908864 -0.045501206 -0.02292692 0.016700944 -0.033861965 -0.022545671 -0.0033764609 -0.053047407
-0.059213925 -0.037254777 0.039485082 0.0126336105 -0.02324555 -0.018549575 0.0027072807 -0.020428836
0.006140405 -0.048248682 -0.0056852684 -0.044088557 -0.010658124 0.033954583 0.0150741255 -0.014115905
-0.05371298 0.019341722 0.012289338 0.02386443 -0.016704442 -0.04354317 -0.029710414 0.024753703
-0.036403626 -0.010506321 -0.030232582 0.004503945 -0.05126362 -0.07895308 0.002190916 0.0058040796
0.011869201 -0.0069084065 -0.04606477 0.013137405 -0.011553936 -0.017942661 -0.03374253 -0.013012053
-0.036769688 -0.038851973 -0.0010917829 -0.013424363 -0.049026903 -0.004097133 -0.0077233696 -0.0053599137
-0.053323586 -0.04748614 -0.023855453 -0.055407066 -0.027326047 -0.0036478704 -0.012458716 -0.043311663

model.1.running_mean f4 [512]
00000000: ba70 ce3d 1064 413e 971b f7bd 77bb 14bf
00000010: dfa9 95be e92f 1abd 04ed 7b3d 6784 7dbe
00000020: 1bce 64be ae1e 0bbf 4691 0ebf d85f 023f
00000030: 51c1 20bf 2d8b 64bc f029 45be 575f 1e3e
00000040: 39d2 043e dd1c 763e 8be4 0c3e 9799 35be
00000050: 52da 643e bec9 cdbc fbee e83b 9440 61be
00000060: 4893 ae3d 0ce0 0a3f 0c31 6cbe 365c 373e
00000070: cbd8 cabe 732b 563c a32f c3bd 879a 7d3e
00000080: 52f8 0c3f c0e8 8a3e 9038 a0be 820a 563c
00000090: a96c 0cbe 5e70 98be b00b 6f3e d49d 073f
000000a0: 87b1 b1bc de17 053e bc09 393e ae56 11bc
000000b0: 37e8 863e a757 633e b318 1b3e 2d03 af3e
000000c0: 3513 083c 2992 a13d ad03 143e fcb5 e6bd
000000d0: 8e9d d1be c402 d93d 90bf f43d 77a8 18be
000000e0: ee8c e83e 505f d2bd eced 6e3e 6218 303e
000000f0: 7e19 07be 360f 71be 37bb 0ebe f0e5 193e
00000100: 22a7 163f ba69 0ebb 09d2 d5be 6c75 9a3d
00000110: 6867 863e 9cd6 7e3e 99e7 7cbe 4ec8 e53e
00000120: fc49 cdbc b007 c1bd aaec 8fbe 5c8f 93be
00000130: 3f65 883e a5f4 85be 8f10 0e3f c277 723e
00000140: 24d0 9bbd 1b14 803e 9386 2cbe 989d eebe
00000150: 7408 8abd cef1 11bf 460c 82bd 73b8 333d
00000160: 42c0 ecbe 9d96 ad3e da0d 3ebd 4bd5 073e
00000170: 6466 8bbe 967b 273e 5a91 fa3d 5e41 83be
00000180: a621 4c3e 2604 753d 03b7 21bf adde 25be
00000190: b938 003e 6948 f43e 1b1a 32bf 4837 373e
000001a0: 864a 63bd ac88 353e c121 4fbe ef00 a03e
000001b0: 085b 31be 354b 8abe de54 47bb a988 0b3e
000001c0: 257e a1be 787c 08bd 08c0 2a3e 8398 7d3e
000001d0: cb8b ec3d 6f91 98bd 2285 ac3e 51f7 d83d
000001e0: 5639 3abe 2faf 9f3e 31af b33d 5970 83be
000001f0: 8e32 9c3d b3a2 e53c e43c 1c3e 49d1 abbe
00000200: a9ad f93b 0fc6 d2be 2ef7 dbbc 40b9 24be
00000210: f6d4 333c c80d b2bb 95f4 da3e b87c c7be
00000220: 18b3 98bc 7966 783d 3f27 85bd d7fd 1b3e
00000230: 78db 1ebd 5c79 9c3e 1a24 423e e284 803d
00000240: 33e1 26be ba36 ef3e d061 0b3e 0ad1 403e
00000250: 8d91 863e c880 483e 3f48 143f 6c87 bbbe
00000260: c985 8dbe 4474 2bbe 84bc ee3d 6fbd 37be
00000270: 0c54 8d3c 2350 3a3e 6143 813e b9e8 35be
00000280: 6ce2 63bd 05d6 50be 35a4 e93c afdb c0be
00000290: 0fb4 43be 0b1a f8be 69ac 89be 6d1a c23d
000002a0: 262a 003d 5b67 29bd ada1 89be 5c86 953e
000002b0: 6276 39bc 5bfd 6a3d b4d1 213e 47bf 68be
000002c0: ae71 06be d2f7 58be 62b7 7b3e 4288 4f3e
000002d0: a199 8abd 533c 803e 1599 a6be b8ea e53e
000002e0: d0b4 1ebe 0449 f73e dc9d 7d3e 5f53 063d
000002f0: bb30 d83d 009e 713d f184 a73e 5f59 e13e
00000300: 9235 a93d c4a1 b6be e0d8 6bbd 6a1c 313e
00000310: 1aa5 a7be a36a b83a 4f88 863e 9382 993e
00000320: 0da9 84bd e2df a1be 4722 63be b958 063d
00000330: 54f9 05bc b7d1 5c3e fa09 023f 2be3 123e
00000340: 2a77 c43d d4a2 01be cd39 aabe 279a de3d
00000350: 89b7 e2bc f9a7 d63e 88d2 5cbe 001d a43e
00000360: 6e66 b13e 8fca 483f aff4 73bd 5ae5 eebd
00000370: 9263 53be 79fa 503e 0c11 703e ee83 18bf
00000380: 2f11 b03e cd1c 0ebe a646 85bd 396b 01be
00000390: 4237 443e 142f 0fbe 7647 34be 8c33 cbbd
000003a0: d922 513d 0595 40bc 42fc 423f db99 d6be
000003b0: 5575 473e 834b a0be 89b4 153e ccd9 f53c
000003c0: 38da fe3e e4e4 033f 38df 15bf 418c 5c3e
000003d0: 9a3e 70be 301e 31bd b605 a13e 3464 33bb
000003e0: a3b2 f73e 9164 043e 5210 2c3d 2efe 3fbd
000003f0: 6b9d d03d e2bb bc3e 3a36 95be 75a8 62be
0.10080095 0.18885827 -0.12065809 -0.5809855 -0.29231164 -0.037643347 0.061505333 -0.24757539
-0.22344248 -0.5434369 -0.5569042 0.50927496 -0.6279498 -0.013949198 -0.19254279 0.15466057
0.12970819 0.24034448 0.13759057 -0.17734371 0.22348908 -0.025120612 0.007108567 -0.21997291
0.085241854 0.5424812 -0.23065585 0.1790627 -0.39618525 0.013071883 -0.0953057 0.24765979
0.55066407 0.271307 -0.31293154 0.013064029 -0.13713326 -0.2977323 0.23344302 0.529752
-0.021691097 0.12997386 0.1807012 -0.008870764 0.2634904 0.22201405 0.15146141 0.3418211
0.008305361 0.07889206 0.14454527 -0.112651795 -0.40940517 0.105962306 0.119506 -0.14908014
0.4542002 -0.10272086 0.23332947 0.17196801 -0.13193318 -0.23540959 -0.13938604 0.1502912
0.58848774 -0.0021730498 -0.41761807 0.07541928 0.26250768 0.24886554 -0.24697722 0.44879383
-0.025059693 -0.094252944 -0.28110248 -0.28820312 0.26639745 -0.2616321 0.55494016 0.23678496
-0.07608059 0.2501534 -0.16848211 -0.4660461 -0.067398936 -0.5700959 -0.06349997 0.043877076
-0.4624043 0.3390397 -0.04639993 0.13264959 -0.27226555 0.16355738 0.12234755 -0.2563581
0.19934711 0.05981841 -0.6316988 -0.16198225 0.12521638 0.47711495 -0.69571084 0.17892182
-0.055490993 0.17727917 -0.2022772 0.31250712 -0.17319882 -0.27010503 -0.0030415575 0.1362635
-0.31541553 -0.033321828 0.16674817 0.2476521 0.11550101 -0.07449614 0.33695322 0.10594047
-0.18185934 0.31188342 0.087736495 -0.25671652 0.0762683 0.028031683 0.15257603 -0.3355811
0.007619579 -0.41166732 -0.026851263 -0.16086292 0.010976067 -0.0054337718 0.42764726 -0.3896234
-0.018640086 0.0606446 -0.06501626 0.15233551 -0.03878352 0.3056134 0.18959084 0.062753454
-0.16296844 0.4672144 0.13611531 0.18829742 0.2628292 0.19580376 0.5792274 -0.36626756
-0.27641132 -0.1674357 0.1165705 -0.17943357 0.01725199 0.18194632 0.2524672 -0.17764558
-0.055635855 -0.20394142 0.028520683 -0.37667605 -0.19111656 -0.4845737 -0.2688935 0.094776966
0.031290196 -0.041358333 -0.2688116 0.2920407 -0.011319729 0.057370525 0.15802652 -0.22729217
-0.13129303 -0.21188286 0.24581674 0.20266822 -0.06767584 0.25046024 -0.32538667 0.4490564
-0.15498662 0.48297894 0.2476725 0.032794353 0.105561696 0.05898857 0.32718614 0.44013497
0.08262171 -0.35670292 -0.057579875 0.17295995 -0.3274315 0.0014069866 0.2627587 0.29982433
-0.064775564 -0.31616122 -0.22181045 0.032799456 -0.00817712 0.21564375 0.50796473 0.1434447
0.09593041 -0.1265977 -0.33247223 0.10869246 -0.027675407 0.41925028 -0.21564686 0.32053375
0.3464846 0.7843408 -0.05955952 -0.11664839 -0.20643452 0.20408048 0.23444003 -0.5957631
0.3438811 -0.13878174 -0.06507616 -0.12638558 0.19161704 -0.13982803 -0.17605385 -0.09921941
0.051058624 -0.011754279 0.76166165 -0.41914257 0.19478352 -0.3130761 0.1461965 0.03001108
0.49775863 0.51521134 -0.5854373 0.21537878 -0.2346138 -0.04324168 0.3144967 -0.0027372958
0.48378477 0.12928988 0.04200775 -0.046873264 0.10186275 0.36862093 -0.29142934 -0.22134574

model.1.running_var f4 [512]
00000000: c566 9f3c f2c9 af3b ddfd df3c 0447 fe3b
00000010: baef b83c 5dcd 023d 8329 063c 8e6a d33c
00000020: 4251 db3c 8f9a 4d3c 6223 933c 3de9 133c
00000030: 4b64 453d e903 a73c 932f 3f3c 7886 d53c
00000040: 3ca0 073d 1ea8 fd3b c7ae 063d 75bb 033d
00000050: 82f2 d83c b149 8e3c 2deb 2f3c 7621 b83c
00000060: 7e6e 1d3d aa4e 4d3c 1af7 133d 71a7 933c
00000070: e7ef 1d3c 13ef 103d 029e 1f3d e46c 053c
00000080: 6013 823c 49bd 7f3c 20c6 7d3c 94ef 4a3c
00000090: 0ea0 023d 2146 af3c 63aa d63b a67a 823c
000000a0: 7c30 b63c 4e30 f93c 5b30 793c 5c19 d13b
000000b0: ef9a 2a3c bafe 113c 4124 1a3c 02b6 173d
000000c0: 1966 b33c cddb 8a3c 9290 1e3c 94ed 5a3c
000000d0: c69e 5e3c 53ba cf3c a595 063c 35cf 2e3d
000000e0: 707a 333d a221 b23c 0e05 c23b 513c 903c
000000f0: feb7 943c d1d1 693c 9130 6c3d 0e34 243d
00000100: 80f0 213c b3a3 4f3c dfbc 803c 2609 843c
00000110: ccd7 373c d51a ae3c d974 993c 7a6a 753c
00000120: 2296 533c 8576 613b 537b 133c ac7b 3f3c
00000130: 5045 e53c 3bd7 8c3c 406e 013d 4bc4 863c
00000140: 013e e53c 17d8 d13c 0620 b43b 5ed9 883b
00000150: 82ed ec3c 9de1 ec3c 0e48 9d3c f4a3 9a3c
00000160: 16cd 823c 27e6 743c a6a9 373c 668d 243d
00000170: fc9f 7a3c 8496 fb3c cfe8 633c 8c6d 4b3c
00000180: 1a22 173d 3edd 4c3c 7c3f e03c 4248 e23c
00000190: 7b28 613c b5f3 8d3c fc86 8b3c 11f2 983c
000001a0: b90c f93b 39b5 343d c42e b93c 90ba 063c
000001b0: 5b1f e43b dd54 f33c 77b5 493c d196 743c
000001c0: a1ce 7d3c ae01 b63c 4d55 ac3c dedf 093d
000001d0: ddd9 bf3c 766c 0c3c 5f7f 263d b3c4 9e3c
000001e0: 1569 0c3c bf04 9e3c 8474 443c d8dd b73b
000001f0: 945d d93c 1533 d93b d17a 0d3c 4cc2 1c3d
00000200: aae0 2e3c 566e 5b3c 5cd6 0d3d 6fa0 963c
00000210: 7c73 843c 8ddb e13c 4a24 473c 696a 313c
00000220: 9226 d93c cff3 183d 8e94 ec3b 08a1 803c
00000230: b6ca 013d d1c6 0d3c 555d eb3c 0c78 3e3d
00000240: 1f3c 103d 4708 203c 5d69 913c dea6 f43b
00000250: d0d9 ff3b 6478 8e3c 771a 653c 3268 073d
00000260: 381b 1d3c 3250 af3c 88c4 6d3c e118 cc3c
00000270: 7876 953c 481a 4a3c b51d c53c ac0b f53c
00000280: 0205 393c b989 913b 8206 b03c 12ae 933c
00000290: 10da 743d 363f aa3c 671c ea3c 145e 9e3c
000002a0: e295 883c 0839 833c c809 a93c b1f8 3d3d
000002b0: 739b ca3b e568 733c 6177 fe3c ac41 8a3c
000002c0: 7a5b b63c 8841 3e3c d23c 843c a88b 003c
000002d0: 68a1 103c b47c 103c 5d18 743c ec89 e83c
000002e0: e0dd 9b3c d6d9 a73c 3bc3 f93c 6a5b 9b3c
000002f0: b556 903c e8ba 1f3c f359 fb3c a41a 873d
00000300: e16d 113c 4190 8e3c 96dd aa3c 6b55 f33b
00000310: 28e1 fc3b e9d3 a23c bf0d b93c d11e c93c
00000320: fa9f c93c db11 883d 333d 153c ab1e ce3c
00000330: 5959 4a3c 08d2 243c 8ea4 4d3c 4479 9e3c
00000340: 3a1a 1c3c 9580 f13c f3fa 093c 193a 803c
00000350: 68df 653c dc88 613c 1210 4d3c e2ff 1a3d
00000360: 9b37 cb3c 95c2 053c 5c8e 003c ada9 9b3c
00000370: ad61 c53c db16 193d 63d9 813d 765d 9d3c
00000380: fe53 493c 6cda 403c 522e 5a3c d38b e23c
00000390: f668 7e3c 1f0b 693c 2625 583c 4df8 723c
000003a0: 4dd0 bd3c d95c a33c e7db e63c d738 823c
000003b0: 7073 c83c 9732 2b3c 9b04 453c 560b fc3b
000003c0: 6e46 c53c 7964 2f3c cdb5 953c e4f7 a33c
000003d0: cbe8 533d 9387 893c 9b96 9a3c 0602 033c
000003e0: 2495 053d c1d5 ef3c ecf7 d53c 5256 253c
000003f0: 9dae e93c 2f5a 963c 0003 3c3c b26e d53c
0.019458184 0.00536465 0.027342731 0.0077599306 0.022575248 0.03193413 0.008188608 0.025807645
0.026772145 0.012549057 0.017961208 0.009027776 0.04819135 0.020387607 0.011669057 0.026065096
0.033111796 0.0077409884 0.032881524 0.032161195 0.026482824 0.017369123 0.010737223 0.022476893
0.03843545 0.012530962 0.036124326 0.018024178 0.009639717 0.03538425 0.038969047 0.008143637
0.01587838 0.015609094 0.015489131 0.012386221 0.03189092 0.021395745 0.0065510734 0.015927624
0.022239916 0.030418541 0.015209283 0.006381197 0.010412916 0.008910829 0.009408058 0.03703881
0.02189927 0.016950512 0.009678023 0.013362307 0.013587659 0.025357401 0.008214389 0.042678077
0.043817937 0.021744553 0.0059210127 0.017606886 0.01815414 0.014271216 0.057663504 0.040088706
0.009884 0.012673306 0.01571506 0.016117644 0.011220884 0.021253029 0.018732475 0.014978999
0.012914212 0.0034402919 0.009001571 0.0116872005 0.027987152 0.017192474 0.031599283 0.016451022
0.027983667 0.025615735 0.0054969816 0.004176303 0.028921846 0.028916175 0.019199397 0.018877007
0.015966933 0.014947451 0.011209881 0.04017391 0.015296932 0.03071142 0.013910486 0.012416255
0.036897756 0.01250392 0.027374022 0.027622346 0.013742561 0.017328123 0.017032139 0.018670114
0.0076003936 0.04411814 0.022605307 0.008223191 0.0069617457 0.029703552 0.012311331 0.014928536
0.015491159 0.022217598 0.021036768 0.033660762 0.023419315 0.008570781 0.040648814 0.019380903
0.008569975 0.019289372 0.01199067 0.0056111626 0.02653388 0.006628404 0.008635239 0.038271233
0.010673681 0.013393005 0.034628257 0.018387048 0.016168348 0.02757051 0.012154648 0.010828593
0.02650765 0.03734189 0.0072198575 0.015701786 0.03168746 0.008653359 0.028731028 0.046501204
0.035213586 0.0097675985 0.017750436 0.007466181 0.0078079477 0.017391391 0.0139833605 0.033058353
0.009589009 0.021400545 0.014512189 0.024914207 0.018244967 0.0123353675 0.024062017 0.029912792
0.011292698 0.0044414666 0.021487478 0.01802734 0.059778273 0.020782094 0.028577996 0.01933197
0.016673032 0.016018406 0.020634547 0.04637975 0.006183082 0.014856552 0.031062784 0.016877018
0.022260416 0.011612304 0.016142283 0.007845797 0.008827545 0.008818794 0.014898387 0.028386079
0.019026697 0.020489614 0.030488601 0.018964488 0.01761947 0.009749152 0.03068254 0.06596878
0.008876295 0.01740277 0.020857614 0.007425954 0.0077172704 0.019876437 0.022589562 0.024550827
0.024612416 0.06644031 0.009108829 0.025161108 0.012350404 0.010059841 0.01255144 0.019344933
0.009527737 0.029480258 0.008421647 0.015652703 0.014030315 0.01376554 0.0125160385 0.037841685
0.024806788 0.008164068 0.007846441 0.019001806 0.024094427 0.037375312 0.06340291 0.019209605
0.012288092 0.011770826 0.013316708 0.027654564 0.015527954 0.014223843 0.013192451 0.014829707
0.023170615 0.019941734 0.02818103 0.015896244 0.024469107 0.010449073 0.012025024 0.007691781
0.024081435 0.010705107 0.018275166 0.020015664 0.05173568 0.01678828 0.018870642 0.007996088
0.032612935 0.02927673 0.026119195 0.010091381 0.028525645 0.01835355 0.011475325 0.02605376

model.3.weight f4 [256, 512]
00000000: 6dbd c3bc c537 323d c4c3 943c d675 e5bc
00000010: 1d50 9abb 83ef d6bb 116b 98bc 57a3 6f3c
00000020: 2409 463d c136 453b c6aa d73b 4d26 093d
00000030: 6924 c33c 2ac5 3a3d a820 2f3d e423 e3bc
00000040: 3157 e03c a5b2 37bb 1de9 abbc 2004 213d
00000050: dbdd 3c3d fdc8 7c3d 745c 18bd d788 4abd
00000060: 20e1 203d 17b0 7cba c1aa 223d 68e2 223c
00000070: 106a 243c 5a53 103c bd7c 7e3c dd3e e3bc
00000080: 8f20 e7bc eb56 9a3c ee3d 22bd f636 c83c
00000090: 4ce8 b23c c9d8 44bd 3e07 a43b eb3f 5cbd
000000a0: c369 db3c 6911 29bc 9021 fd3c d005 7dbc
000000b0: 9a8c dfbb 157c 7f3d 6a32 163a d5cb 0a3d
000000c0: 4f5c f6bc 7666 593d 0c03 8bbc 85b8 02bc
000000d0: 82ef 6dbd 668f 053d a15a 403d 24e0 d5bc
000000e0: b7fd bd3c 3ec9 e5bb e3b3 0cbd 2a83 f3bc
000000f0: aabf d23c 31c4 063d 5f0b b83c c3cc 853d
00000100: 4061 dabc fe85 103d f06b d9bc b0dc 453d
00000110: d546 083d 253b 31bd 93be 3f3d 36a0 f9bc
00000120: 13b9 18bd ee4d 4bbc 01e4 0c3d 6bec e53b
00000130: 3e33 443c d990 65bc 96ea 82bc d214 7b3c
00000140: 01db cbbc 15b0 003d e6ab 8cb8 b34c 1cbc
00000150: 6456 d23b 0f18 dfbc ec50 e93c b3d2 80bb
00000160: c8bb 1d3c 2e3c 14bd 52fe 07bd 050b c53c
00000170: 0116 a13c fc6d 6fbd 0f19 21bb ccfc 00bc
00000180: da7b 633d 97a8 623c 8dee d73c 893a 9c3c
00000190: f752 38bd b2b8 b43d d94a 6bbc 39e0 053b
000001a0: 2b77 50bc d371 9fbc ba6b d43c 48b8 4cbd
000001b0: 410f 773c ef2c 91bb e5d0 35bb eefd 2b3d
000001c0: 498d 2ebd 6f36 11bd 5072 963c 039c f93b
000001d0: f5a5 183d da71 5b3d 3114 e1bc e59e d73c
000001e0: 6850 c83b 947d ca3c 2fd7 03bc 6f47 8f3c
000001f0: c05b 6cbc a9be 5ebd d508 87bc 3427 b23c
00000200: c4da 143d 5ed6 313d 0982 bebc 4f91 96bc
00000210: 2cb3 0d3c ede4 f4bc 13e4 cdbc cedd b13c
00000220: acf1 543d c52e 3bbd 4fef 7cbc cafb 8cbb
00000230: fde5 0e3b 6982 433c b63f dabc 63db 603c
00000240: 154e 993c 9032 9c3b 50ad 313c 8e4c 293d
00000250: 8af2 ef3c 4b15 50bc 2e5d 8fbb bdd9 58bd
00000260: 96e7 643c a725 1dbc 2187 7ebd 486e 02ba
00000270: 3a1b cebc 6d7e 543d 9a98 053d d366 f9bc
00000280: b05e 283d fea5 98bc 51dc 053d 484b e0bb
00000290: 2ac2 4a3c 9bb8 0c3d b0c6 34bc f3dc a1bc
000002a0: 023f 563d 4da0 273d 2f72 f13b 5f53 463d
000002b0: a300 40bd 2f1c 03bd 9020 d0bc f346 6fbd
000002c0: c363 013d c027 b03b d7e2 01bc 3325 063d
000002d0: 65cd bdbb 7a5b 943d 1d75 143d 413f 4cbd
000002e0: 22e7 993c 044d 7bbc fa2f 0d3d ab69 61bd
000002f0: 29a8 ee3c a852 093d 7498 1dbd 1c28 eb3c
00000300: 25bb 37ba 2c35 dd3c 0ad1 64bb 6d56 f63c
00000310: 319c 1ebd e6dc 293b 766a 353d 56e6 ac3c
00000320: 931a 44bd 59db 12bd 11cd 883c 70a9 2fbc
00000330: d691 0bbd cc78 c5bc ebe2 443d 95b1 f03b
00000340: 86bc 02bd b015 ba3b 6c41 883d cfaf f23c
00000350: a30a d3bc 18ba 04bc 26c4 66bc 689d 3f3d
00000360: 09b9 0cbc 0038 993a 4857 cabb 711c a53c
00000370: 90f8 50bd ca1a dfbc 13fb 24bd f430 153b
00000380: e1fe 6fbd 0092 523c 7aac c33c 961a 903c
00000390: 8766 833c be11 07bd a619 d6bc f8b0 e2bc
000003a0: 778c ebbb b145 babc 67a7 18bd dfd7 5dbc
000003b0: 8c00 ee37 a80d 853c 1c45 743b 382f 0dbc
000003c0: c985 3c3d 0a56 3bbd d4ec 85bc bfa3 4abc
000003d0: fe6a f43c 5548 2abc 6d9c 0d3d 1cd5 3ebd
000003e0: db8e 09bc 27e2 2c3c 8bc8 13bd ab02 a9bb
000003f0: 2172 43bd ed3f 66bc c1c2 17bc 8cf5 6d3b
-0.023894036 0.043510217 0.018159755 -0.02801029 -0.0047092573 -0.0065593137 -0.01860574 0.014626346
0.04834856 0.003009245 0.006581637 0.033483792 0.023821073 0.045598187 0.042755753 -0.027727075
0.027385326 -0.0028030064 -0.02098518 0.039310575 0.046110015 0.061715115 -0.037197545 -0.049446907
0.039277196 -0.00096392765 0.039713625 0.009941675 0.010035053 0.008808935 0.01553267 -0.027739936
-0.028213767 0.018840274 -0.039609842 0.02444027 0.021839283 -0.048058305 0.005005746 -0.053771894
0.02678383 -0.010319092 0.030899793 -0.01544328 -0.006822181 0.062374193 0.0005729558 0.033885796
-0.030073313 0.05307623 -0.016969226 -0.007978563 -0.05808974 0.03260746 0.04696143 -0.026107855
0.02319227 -0.0070125153 -0.03435124 -0.02972563 0.025726158 0.032901946 0.02246636 0.06533196
-0.0266577 0.035284035 -0.026540726 0.048306167 0.033270676 -0.043269295 0.046812605 -0.030471902
-0.037285876 -0.012408717 0.03439713 0.0070167086 0.011975108 -0.014011585 -0.015981 0.015324788
-0.024884703 0.031417925 -6.707739e-05 -0.009539771 0.00641899 -0.027233152 0.02848097 -0.0039313673
0.00962729 -0.036190204 -0.033201523 0.024053106 0.019663813 -0.0584545 -0.0024581586 -0.0078727715
0.055538036 0.01383414 0.026358867 0.01907088 -0.045000996 0.0882429 -0.014361107 0.0020427837
-0.012723724 -0.019463455 0.025930274 -0.04998043 0.01507932 -0.0044304053 -0.002774292 0.041990213
-0.04261521 -0.035452303 0.018365055 0.007617475 0.037267644 0.053575374 -0.027475448 0.026320884
0.006113101 0.024718083 -0.008046909 0.017490117 -0.014426172 -0.054381046 -0.016483704 0.02174721
0.036341444 0.043417327 -0.023255365 -0.018379835 0.008648675 -0.029894317 -0.025133168 0.02171221
0.05198829 -0.0456989 -0.015437915 -0.0043024765 0.0021804564 0.011932948 -0.026641708 0.013724181
0.01871399 0.0047667697 0.010844544 0.041332774 0.029290456 -0.012700389 -0.0043751216 -0.052942026
0.01397123 -0.009591497 -0.062140588 -0.00049755396 -0.025159467 0.05187838 0.032616235 -0.030444538
0.041105926 -0.018633839 0.032680813 -0.0068449117 0.012375394 0.03435574 -0.011033699 -0.019758677
0.052306183 0.04092436 0.007368348 0.048419353 -0.046875607 -0.0320093 -0.025406152 -0.05841727
0.03158928 0.0053758323 -0.007927618 0.03275032 -0.005792307 0.0724401 0.0362445 -0.04986501
0.01878697 -0.015338186 0.034469582 -0.055032413 0.02913292 0.033526093 -0.03847547 0.02870565
-0.00070087827 0.027002893 -0.0034914636 0.030070508 -0.038723174 0.002591902 0.044290982 0.021105926
-0.047876906 -0.035853717 0.016699346 -0.010721549 -0.034074627 -0.024105452 0.04806797 0.007345388
-0.03191807 0.005678855 0.06653103 0.029624848 -0.025761908 -0.008101009 -0.014084851 0.046780974
-0.008589038 0.0011689663 -0.0061749555 0.020155163 -0.051018298 -0.027234454 -0.040278506 0.0022764774
-0.05859268 0.012852192 0.023885954 0.017590802 0.0160401 -0.032975905 -0.026135277 -0.027672276
-0.0071883756 -0.02273831 -0.037269022 -0.013540237 2.8372066e-05 0.016241863 0.0037272638 -0.008617215
0.046026025 -0.04573635 -0.01634828 -0.012368142 0.029836174 -0.010393222 0.034573007 -0.046589956
-0.008395876 0.010551966 -0.036079925 -0.0051577887 -0.047716264 -0.014053327 -0.009262742 0.0036309687

model.3.bias f4 [256]
00000000: 8439 3e3c 484d 91bc f344 2e3b 286e 4a3c
00000010: 5081 2d3d 0123 28ba 31d5 c43c c3d5 1b3c
00000020: 678f 5e3c b0a6 3f3c dd0d 143c b673 873c
00000030: 716a 06bd 5811 583c 233c 933c 7c43 c03c
00000040: f8fc 0bbd ba68 143d 3590 b9bc 6cbf 05bc
00000050: 6e6f ac3a 2bf9 693b 8835 cc3c f480 ea3c
00000060: f0a2 343d c468 303c 5c33 673b fd13 a43a
00000070: 4c07 123c 96de 88bc 1eaa 5fbc 08a0 2c3d
00000080: b669 143d 3cb5 023b e8c2 cbbc 6692 acbc
00000090: 90e4 e7bc bb10 88bc d8b1 a4bc a7b5 1f3d
000000a0: ae0c c7bc add1 ce3c e281 02bd 4631 19bc
000000b0: e1ca 55bc 52ce d3bc 4c18 123b 9ee0 fc3c
000000c0: 3450 f63c 5b90 f73c d3b0 b33b cca5 30bd
000000d0: c34f a0bc cbb0 0c3d 05b6 b7bc 880a ad3c
000000e0: bdaa 3fbc 9e28 bfbc 80f8 823b 0c9a e9bc
000000f0: 5128 1a3d e8a5 f2bc 8215 9bbc b19a 903c
00000100: d092 b2bc c90f 29bd dc64 a1bc a134 9438
00000110: 3c51 143d 7789 3dbc 47a3 c8bc dfac 29bd
00000120: 0c89 debc 1024 06bd 6bb0 d0bc 1a16 ecbb
00000130: c48a ed3c 0e07 873b 6039 d33c b658 2a3d
00000140: 261b 44bc 20f5 173d 34b5 b4bc 8deb 4fbc
00000150: 5282 1e3d d501 05bd dad2 a9bc 11b2 103d
00000160: 68d3 0c3d ab1e 183b d3e2 febc c156 013d
00000170: 290c 853b fbaf b7bc 19f9 56bc 4cee bbbb
00000180: 8c47 9b3c 40cc 53bb 532a 0c3d 25b2 0abd
00000190: e0ab 01bd eb7d ccbc ab0e 0dbd 6c3d bd3b
000001a0: 8662 b8bc 33d9 86bc f300 263c b40a 3abc
000001b0: 2409 dabb b21c 06bd d9ea dc3c 3dda a93c
000001c0: b69e dcbc 58a5 d5bc 5b6b eabc 575c 98bc
000001d0: 5f18 0dbd f5d4 143d 02ed a1bb f984 2dbd
000001e0: 72d3 183d aa9d 78bc ae42 f5bc 2b09 c63b
000001f0: 2560 b03c 8947 62bc 0700 a33c 959a 323d
00000200: a1cf 013c bfda 043d 0bf8 0e3d 3bd4 283d
00000210: 32a2 9e3c 19d5 f4bc 634b 0c3d 2d6f 56bc
00000220: df56 c53c 673c 253d e7da 043d e379 13bc
00000230: f61a fabc efc5 b7bc c510 033c 4b2a f83c
00000240: 8217 24bd 93d8 693a 9925 5abc d1b8 09bc
00000250: e536 01bd 5d45 8abc 468b a93c 7c3d c33c
00000260: c280 f2bc 3eb4 a43c d25d 723c 4259 e5bc
00000270: 9918 9c3c d58f 173c 5244 f4bc 368e 293d
00000280: ecfb a13b 59b9 9a3c fb17 29bd b172 473b
00000290: 8eae 1f3d a334 f6bc c1c9 423b 3ac9 04bc
000002a0: befd 263d edcf b3bc 5a15 21bd 2373 8dbc
000002b0: c589 51bc 17c1 a1bc 7e5b 703c b8a0 143d
000002c0: 6916 353d 4a72 a0bc 1a67 253d acc7 7d3c
000002d0: 2f79 8bba ce8f 2a3d 1234 c33c d42f 1a3d
000002e0: 3c3c 613c a07f e23b 3e07 8d3c 1dd4 05bc
000002f0: dc5a 39bc cd30 c9bc 11eb 0b3d 3747 803c
00000300: b124 c33c b1e7 7f39 a17a 2a3d 82af 1f3d
00000310: 3a65 ef3c 006b 3cbc c379 203d fabc 2cbc
00000320: c9a8 a9bc fdd6 8e3c 4bbd c53c 21cd 25bd
00000330: df37 7c3c c1ca 2f3d 68cc e2bc b23b bc3c
00000340: d089 9d3c 6bd4 1dbd bf06 043c b80a 28bd
00000350: 9314 2a3d 49f3 383b f78f ccbc 1220 92bc
00000360: 4657 f03c 585f f33c dcc7 e13c 91c1 6e3c
00000370: 7040 7bbc 91d0 063c 14a7 00bd 7a36 edbb
00000380: fdb5 313c d955 16bd a84c 02bc 5fb9 9f3c
00000390: d5dd 5f3c 13d8 c83c 6eda 26bd b480 083d
000003a0: 3889 a9ba 2e99 893c 2c50 c8bc 8799 c63c
000003b0: 80b8 e03a cefe 8a3c 349b 853c 7297 e6bc
000003c0: 2448 233d 7254 1c3d c211 f33c 33cd 85bc
000003d0: 0a2f d7bc bb07 023d 0d89 eebc c605 d43c
000003e0: 6cbb 2cbd 4801 4e3c bd7b 193b 6aef 23bd
000003f0: 25e7 273d 4942 b8bb 4811 09bd 51f2 1dbd
0.0116103925 -0.017737046 0.002659139 0.012355365 0.04235965 -0.00064139074 0.024027439 0.009511414
0.0135839945 0.011697456 0.009036508 0.016534667 -0.032816354 0.013187729 0.017973011 0.023469679
-0.034176797 0.036232688 -0.022651771 -0.008163314 0.0013155767 0.0035701494 0.02492787 0.028625943
0.0441007 0.010767166 0.0035278415 0.0012518164 0.0089128725 -0.0167077 -0.013651399 0.042144805
0.036233626 0.001994445 -0.024873212 -0.021065902 -0.02830723 -0.01660954 -0.020104334 0.038991597
-0.024298038 0.025246466 -0.031862147 -0.009350127 -0.013048858 -0.025855217 0.0022292314 0.030868825
0.03006754 0.030220201 0.0054837256 -0.043126866 -0.019569283 0.03434829 -0.02242566 0.021123186
-0.011698422 -0.023334797 0.0039969087 -0.028515838 0.037636105 -0.029620126 -0.018931154 0.017651888
-0.021798521 -0.04127482 -0.019701414 7.066993e-05 0.036210284 -0.011568419 -0.02449192 -0.04142463
-0.027164958 -0.032749236 -0.025474748 -0.007204783 0.028996833 0.004120714 0.025784194 0.041588508
-0.011969363 0.037099004 -0.02205906 -0.012690437 0.038698502 -0.03247245 -0.020730425 0.035326067
0.0343813 0.002321164 -0.031114018 0.031576876 0.0040602875 -0.022422781 -0.013120913 -0.0057351943
0.018955015 -0.0032317787 0.03422005 -0.033861298 -0.031658053 -0.024962386 -0.034437817 0.0057751443
-0.022507917 -0.01646099 0.010132062 -0.011355091 -0.0066539217 -0.03274221 0.026967453 0.020733947
-0.026931148 -0.026079819 -0.028615644 -0.018598719 -0.03444707 0.036335904 -0.0049415836 -0.04236314
0.037311025 -0.015174309 -0.029939022 0.0060435734 0.02153022 -0.013811001 0.019897474 0.043604452
0.007923038 0.032435175 0.03490452 0.041218024 0.01936445 -0.02988677 0.034251582 -0.01308803
0.024089275 0.040340807 0.032435324 -0.009001228 -0.030530434 -0.02243325 0.007999604 0.030293604
-0.04006148 0.00089205167 -0.013314628 -0.00840588 -0.031546492 -0.016878778 0.020696294 0.023833029
-0.029602412 0.020105477 0.014792876 -0.027996663 0.019054698 0.009250601 -0.029817734 0.04139539
0.0049433615 0.018887209 -0.041282635 0.0030433352 0.038984828 -0.030054396 0.0029722305 -0.008104617
0.04076933 -0.021949733 -0.039327003 -0.017266816 -0.0127891945 -0.019745393 0.014670251 0.036286086
0.044210825 -0.019585747 0.04038153 0.0154895 -0.0010640974 0.04164105 0.02382854 0.03764327
0.013747271 0.0069121867 0.017215367 -0.0081682475 -0.0113131665 -0.024559403 0.034159724 0.015658958
0.023821207 0.00024405007 0.041620854 0.038985737 0.029223073 -0.01150012 0.03917862 -0.010543102
-0.020710366 0.017436499 0.024138113 -0.04047883 0.01539418 0.04291797 -0.02768536 0.022977684
0.019230753 -0.038532656 0.008058249 -0.041025847 0.041523527 0.002822118 -0.024970992 -0.017837558
0.02933849 0.02970855 0.02756112 0.014572517 -0.015335187 0.008228437 -0.031409338 -0.00723916
0.010846612 -0.036702964 -0.007952847 0.019497572 0.013663729 0.024517095 -0.040735655 0.033325866
-0.0012934571 0.016796675 -0.024452291 0.02424313 0.0017144829 0.016967203 0.016309358 -0.028148387
0.03986372 0.03816647 0.029671554 -0.016333198 -0.026267547 0.031745654 -0.029118085 0.02588166
-0.042170927 0.012573548 0.00234197 -0.040023245 0.04099192 -0.005623136 -0.033463746 -0.03856117
