best-model-binary.pth (torch, 578765 bytes, 5 tensors)

model.0.weight f4 [512, 23]
0.16351166 -0.10420587 0.18447721 0.050610326 0.05937163 0.19417648 -0.24638736 -0.12662981
0.20062515 -0.08574725 -0.18976381 -0.11315206 -0.061360534 -0.011040266 -0.14838982 0.07019278
-0.15511183 0.058608405 0.11338254 0.091053516 0.041348398 0.05551626 -0.048653938 0.012953131
-0.037227705 -0.14661008 -0.11894766 0.18995455 -0.040543962 0.035440315 0.115302116 -0.026500827
-0.058312047 -0.1951401 -0.11274931 0.07657306 -0.18085216 -0.024765529 0.09672167 0.1687775
0.05309112 0.03155071 0.1317644 0.098186634 0.031772718 -0.076205745 -0.19590761 -0.07000692
-0.008069087 0.029270185 -0.008080669 0.107801184 0.11904912 -0.06548335 -0.18016629 -0.055890176
-0.15085942 0.106651194 -0.19679914 0.01678762 0.003008563 -0.10637499 0.13296895 -0.06989989
0.023994373 -0.15779802 -0.004933615 0.019397493 -0.032887466 -0.048754986 0.088762835 -0.05878074
-0.12812603 -0.16292988 -0.047810327 -0.25935805 0.14873762 -0.0934263 -0.06865463 0.0015173168
0.04074612 -0.004364388 0.11716586 -0.05291532 0.15871249 -0.015584922 -0.19143611 -0.13431808
0.03358294 0.02291545 0.12247223 0.112261236 -0.008547949 0.01646843 -0.045599062 -0.16458908
-0.06465196 -0.17933612 0.020356644 0.16827063 0.04352879 -0.121799715 -0.18538134 -0.07048099
0.041568168 -0.012649795 0.088699214 0.2493153 0.094329245 0.038710263 -0.09002874 0.095117725
0.09538666 -0.2066043 -0.14504138 -0.033454407 0.043921545 0.15620553 -0.053974047 -0.15529448
0.04266083 -0.025290413 0.065306574 -0.040384665 0.18102776 -0.007700645 0.18854935 -0.18050455
0.14863104 0.025770565 -0.18223579 0.11429597 -0.17668954 0.25152287 -0.0010681177 0.007897592
0.07741966 0.015189638 0.07989832 0.12031202 -0.15932257 0.11973276 -0.037815213 -0.048576757
-0.010629865 0.16787395 -0.130193 -0.12107547 0.109956734 -0.060400363 0.06274093 -0.062328182
0.085673384 0.2158629 -0.09681762 -0.10235314 0.068611935 0.02070756 -0.01045084 -0.20660064
0.15556072 0.021922568 -0.011739096 -0.09161375 -0.045978483 0.082712546 -0.008951365 0.176013
-0.014717747 -0.032172687 0.16001461 -0.047713798 -0.083378345 0.025982685 0.15735063 0.05065519
0.14651074 0.12479475 0.02053957 0.05332018 0.03244034 0.017562108 0.16179219 0.14732774
0.04545998 -0.04038379 0.18008788 -0.17844518 0.11487635 0.105518326 0.14799102 -0.029307486
-0.17857662 0.17371309 -0.11614569 -0.0005793171 0.14592579 -0.1891601 -0.0013330261 -0.051564407
0.15968703 -0.1785352 0.09602921 0.10120454 0.14466853 0.1942835 0.0006655036 -0.15294531
0.18067229 0.0135063995 -0.017678024 -0.15631458 -0.06034423 -0.18541507 0.14868215 0.21090902
0.20287226 0.09547542 -0.12167176 -0.08477917 -0.13956535 -0.043683395 0.23752135 0.08819088
0.2357503 -0.063565664 -0.10233765 -0.026225952 0.094485335 0.14872707 0.09019273 -0.035190877
-0.16513942 -0.10221429 0.11957369 -0.06369874 0.06012703 0.034458246 -0.10476048 0.14866154
-0.08866267 0.0037527021 -0.043180346 -0.19784735 0.059979655 0.12969075 -0.07388189 0.1453057
-0.21705213 -0.18209478 -0.116099276 -0.096968845 -0.027405147 -0.038261216 0.09700301 -0.16507296
00000000: 9a6f 273e e369 d5bd 98e7 3c3e c64c 4f3d
00000010: ab2f 733d 33d6 463e f84c 7cbe 3fab 01be
00000020: ae70 4d3e 419c afbd 7251 42be 44bc e7bd
00000030: 2f55 7bbd 3be2 34bc 80f3 17be 3bc1 8f3d
00000040: a3d5 1ebe 5e0f 703d 1b35 e83d 447a ba3d
00000050: f05c 293d 0565 633d 5a49 47bd 5f39 543c
00000060: 147c 18bd f420 16be d59a f3bd 7283 423e
00000070: 6d11 26bd dd29 113d 8423 ec3d 4318 d9bc
00000080: 9dd8 6ebd ced2 47be 1ce9 e6bd 56d2 9c3d
00000090: 4f31 39be 14e1 cabc 0316 c63d 02d4 2c3e
000000a0: 1376 593d 513b 013d 3fed 063e 1316 c93d
000000b0: 1c24 023d c211 9cbd 019c 48be ca5f 8fbd
000000c0: 3434 04bc 07c8 ef3c c864 04bc dec6 dc3d
000000d0: 06d0 f33d 221c 86bd 837d 38be 19ed 64bd
000000e0: e47a 1abe f16b da3d b785 49be 3186 893c
000000f0: 502b 453b 21db d9bd 0329 083e ac27 8fbd
00000100: d98f c43c ce95 21be 2aaa a1bb 7ee7 9e3c
00000110: 02b5 06bd 4fb3 47bd 4ac9 b53d 13c4 70bd
00000120: 7833 03be 17d7 26be c3d4 43bd 94ca 84be
00000130: ad4e 183e 4a56 bfbd cc9a 8cbd b4e0 c63a
00000140: 67e5 263d 2403 8fbb a8f4 ef3d bcbd 58bd
00000150: 8785 223e e757 7fbc d407 44be ae8a 09be
00000160: 448e 093d 2fb9 bb3c b8d2 fa3d 38e9 e53d
00000170: b20c 0cbc cde8 863c 15c6 3abd 0a8a 28be
00000180: 3f68 84bd e3a3 37be fac2 a63c 234f 2c3e
00000190: 3f4b 323d 2172 f9bd 9bd4 3dbe 5658 90bd
000001a0: 6243 2a3d 1641 4fbc efa7 b53d 834c 7f3e
000001b0: b12f c13d a78e 1e3d fd60 b8bd 15cd c23d
000001c0: 155a c33d 1490 53be ba85 14be 7d07 09bd
000001d0: 14e7 333d 58f4 1f3e e413 5dbd 8405 1fbe
000001e0: 1fbd 2e3d d72d cfbc 74bf 853d 646a 25bd
000001f0: 575f 393e b155 fcbb 1513 413e 2fd6 38be
00000200: bc32 183e cb1c d33c 059c 3abe 0114 ea3d
00000210: 1aee 34be 9bc7 803e 1500 8cba e764 013c
00000220: 338e 9e3d f6dd 783c bba1 a33d 2666 f63d
00000230: 7525 23be 7336 f53d 20e4 1abd 6cf8 46bd
00000240: e328 2ebc 26e7 2b3e 5051 05be 6af6 f7bd
00000250: ff30 e13d 5f66 77bd 517e 803d d64b 7fbd
00000260: 8775 af3d 2a0b 5d3e 5148 c6bd 869e d1bd
00000270: 6a84 8c3d e7a2 a93c 003a 2bbc 1e8f 53be
00000280: 4f4b 1f3e f596 b33c 5655 40bc fd9f bbbd
00000290: ef53 3cbd 3265 a93d bfa8 12bc c03c 343e
000002a0: b522 71bc 82c7 03bd dfda 233e 8b6f 43bd
000002b0: 44c2 aabd a4d9 d43c 8620 213e d17b 4f3d
000002c0: e906 163e 6494 ff3d 9a42 a83c 4366 5a3d
000002d0: 29e0 043d 69de 8f3c daac 253e 15dd 163e
000002e0: 3e34 3a3d 7969 25bd f568 383e 55ba 36be
000002f0: 4b44 eb3d fe19 d83d f58a 173e 4116 f0bc
00000300: cadc 36be d8e1 313e cbdd edbd 50dd 17ba
00000310: 926d 153e 2fb3 41be efb8 aeba 3335 53bd
00000320: ff84 233e eed1 36be f6aa c43d 5344 cf3d
00000330: fd23 143e 41f2 463e 3175 2e3a b29d 1cbe
00000340: 2802 393e f249 5d3c 81d1 90bc ee10 20be
00000350: 832b 77bd 73dd 3dbe 2240 183e 89f8 573e
00000360: bfbd 4f3e 9e88 c33d 0b2f f9bd b4a0 adbd
00000370: 38ea 0ebe 5ced 32bd cc38 733e 6c9d b43d
00000380: 8768 713e b72e 82bd 6796 d1bd cfd7 d6bc
00000390: 8781 c13d e94b 183e f7b6 b83d 4f24 10bd
000003a0: 4f1a 29be ba55 d1bd 0de3 f43d 7c74 82bd
000003b0: c347 763d 1724 0d3d aa8c d6bd bb3a 183e
000003c0: c694 b5bd e5ef 753b e0dd 30bd 7f98 4abe
000003d0: 3aad 753d a7cd 043e 634f 97bd 04cb 143e
000003e0: ea42 5ebe 0e77 3abe 75c5 edbd 9a97 c6bd
000003f0: c280 e0bc cbb7 1cbd 84a9 c63d e308 29be

model.0.bias f4 [512]
0.10342909 -0.17958218 -0.10934699 0.10599903 -0.03279739 0.09776768 0.099841855 -0.037714995
-0.1306111 0.041080587 0.1379364 0.13444732 -0.12062907 -0.03573584 0.037915472 -0.20834376
0.018886194 0.06815292 0.16264664 0.01743126 0.16965556 0.20469339 -0.08506093 0.03440684
0.065249644 -0.01967898 -0.13505025 -0.0093300445 0.0883145 -0.16665573 -0.12829119 -0.23474859
-0.17758073 0.20366564 -0.067158945 -0.03089947 -0.014210422 -0.16694339 0.16872641 -0.03576347
0.11405093 -0.111652434 0.2231452 0.03942267 -0.03851064 0.0016751988 0.12118081 -0.16245683
-0.08042892 -0.20734958 -0.18003419 0.09368908 -0.0049026376 -0.11128418 0.019760694 0.091663755
0.19211376 -0.13694464 0.10917392 0.024789026 -0.125536 0.10528323 -0.006086126 0.09659786
0.15706116 0.09188314 0.019759873 -0.22190095 -0.15505694 0.05327723 -0.12403474 0.006392916
0.17005423 0.0827796 -0.073564306 0.03180863 0.017485125 -0.021189803 0.12191491 -0.14759421
0.17137605 0.031268664 0.1651384 -0.12271027 0.13628945 -0.06934259 -0.16454834 0.104808524
0.022615 0.19618411 0.05889697 -0.1188474 -0.18285611 0.17836353 -0.02809613 -0.11157475
-0.15745972 -0.17943768 -0.13380116 -0.18841992 0.21015948 0.020906111 0.05950033 -0.12442823
0.022744143 0.10098541 -0.092802115 0.14441888 -0.026834356 -0.12803236 -0.1668219 -0.22017537
0.053518474 -0.119250886 -0.07410309 -0.024668656 -0.13674253 -0.16598853 -0.13251173 0.22909692
0.0051402845 -0.110964544 -0.030577404 0.11983671 -0.11464369 0.076006055 -0.033333294 -0.20219578
0.12340717 0.11670188 0.11659491 0.085812464 0.010346391 0.045689624 -0.18460083 0.15848239
-0.16347054 0.12173954 -0.18956539 -0.16947074 0.063941635 0.12006837 -0.06027936 0.046375733
-0.23505561 0.015152392 0.17499176 0.16142751 -0.03438924 0.06268522 0.15972544 0.041055966
0.07512902 -0.12614991 0.098796576 0.032940693 -0.12368375 0.070813045 -0.18540186 0.14815392
-0.053406868 0.12700969 -0.07971854 -0.15838154 0.1252509 0.15363741 0.18683249 0.072734356
-0.09037577 -0.13707575 -0.18731777 0.0047032246 0.18991616 -0.06404138 -0.04918088 0.15580559
0.16342814 0.0052462025 -0.035393987 0.20419963 0.20077421 -0.18996756 -0.18123008 -0.03884053
0.08096799 -0.12702596 -0.07423829 -0.0072353375 -0.074380614 0.12250518 0.10429412 0.12940761
0.09114621 -0.09505281 -0.15989946 -0.18536058 -0.023001831 0.08165242 -0.06114675 0.16344851
0.10627156 -0.18738976 0.10168565 -0.07369442 -0.22014725 0.09470238 -0.07919603 -0.17408958
-0.1561092 0.12779939 -0.04730599 0.1824434 -0.12778513 0.16882086 -0.085139245 0.14394769
0.051134415 -0.20611879 0.07500157 0.057702374 -0.16947106 -0.23518434 0.036230493 0.06694579
0.2277734 -0.063731976 -0.17319441 0.06676989 -0.032118592 -0.045589767 0.08473983 -0.0016077647
0.14220512 0.15126595 0.039882246 0.121586144 0.06333456 -0.21206212 0.14786457 0.014646402
-0.06279898 0.184803 0.18598947 -0.122254096 0.022220183 -0.13514152 -0.052935924 0.06995402
-0.05515004 -0.09260128 0.105518274 -0.08292427 0.08943119 0.209623 0.04080802 0.021020958
00000000: a1d2 d33d 64e4 37be 51f1 dfbd 0516 d93d
00000010: 8e56 06bd 6c3a c83d e379 cc3d 0a7b 1abd
00000020: ebbe 05be 1e44 283d 333f 0d3e 8fac 093e
00000030: 600c f7bd bf5f 12bd 414d 1b3d 1158 55be
00000040: 38b7 9a3c c293 8b3d d78c 263e 00cc 8e3c
00000050: 30ba 2d3e 259b 513e 6d34 aebd 30ee 0c3d
00000060: 9ba1 853d d035 a1bc 9d4a 0abe 0bdd 18bc
00000070: 3cde b43d cda7 2abe c45e 03be ef61 70be
00000080: b9d7 35be ba8d 503e a18a 89bd e320 fdbc
00000090: d4d2 68bc 35f3 2abe 9ec6 2c3e b77c 12bd
000000a0: 8993 e93d 08aa e4bd 2d80 643e aa79 213d
000000b0: 55bd 1dbd 5892 db3a a52d f83d 155b 26be
000000c0: ebb7 a4bd 7353 54be e25a 38be 0fe0 bf3d
000000d0: 4ea6 a0bb f6e8 e3bd 2ee1 a13c 35ba bb3d
000000e0: 78b9 443e 373b 0cbe 9396 df3d 5b12 cb3c
000000f0: 828c 00be bc9e d73d 206e c7bb 19d5 c53d
00000100: a4d4 203e 3a2d bc3d 75df a13c 013a 63be
00000110: 3fc7 1ebe 3a39 5a3d ed05 febd ab7b d13b
00000120: b222 2e3e 5a88 a93d e2a8 96bd c449 023d
00000130: f73c 8f3c 3d96 adbc 86ae f93d f022 17be
00000140: 347d 2f3e 9213 003d 0a1a 293e 864f fbbd
00000150: 768f 0b3e 7d03 8ebd 5c7f 28be daa5 d63d
00000160: 1843 b93c 7de4 483e f33d 713d 4466 f3bd
00000170: a23e 3bbe eea4 363e db29 e6bc 4d81 e4bd
00000180: 1f3d 21be 83be 37be 2c03 09be 27f1 40be
00000190: 0c34 573e 4b43 ab3c 9eb6 733d 3ad4 febd
000001a0: ed51 ba3c 70d1 ce3d 090f bebd 8be2 133e
000001b0: b9d3 dbbc ea1a 03be 5cd3 2abe a775 61be
000001c0: 3036 5b3d cf39 f4bd 5cc3 97bd ec15 cabc
000001d0: 3c06 0cbe e6f8 29be 28b1 07be 6298 6a3e
000001e0: d56f a83b 6141 e3bd 777d fabc f36c f53d
000001f0: 50ca eabd 10a9 9b3d 7e88 08bd 690c 4fbe
00000200: e6bc fc3d 6501 ef3d 50c9 ee3d 72be af3d
00000210: e983 293c 0b25 3b3d 0008 3dbe 3549 223e
00000220: d264 27be 9452 f93d 6e1d 42be bd89 2dbe
00000230: d5f3 823d 68e6 f53d 7de7 76bd 7bf4 3d3d
00000240: 6bb2 70be bd41 783c 0a31 333e 414d 253e
00000250: bbdb 0cbd 1c61 803d 118f 233e 4d2a 283d
00000260: 3edd 993d 712d 01be dc55 ca3d d2ec 063d
00000270: e84d fdbd 6e06 913d fcd9 3dbe a9b5 173e
00000280: 29c1 5abd d40e 023e 7943 a3bd c52e 22be
00000290: c641 003e 2053 1d3e 0451 3f3e c0f5 943d
000002a0: ef16 b9bd 965d 0cbe 3bd0 3fbe 821d 9a3b
000002b0: 6279 423e 2128 83bd e471 49bd 808b 1f3e
000002c0: b559 273e 56e8 ab3b 49f9 10bd b519 513e
000002d0: c197 4d3e db86 42be 6194 39be 3f17 1fbd
000002e0: 8cd2 a53d 1813 02be 3f0a 98bd 6916 edbb
000002f0: dd54 98bd ffe3 fa3d 2898 d53d 6e83 043e
00000300: ddaa ba3d 0cab c2bd afbc 23be 2acf 3dbe
00000310: 566e bcbc 6239 a73d 0475 7abd 0c5f 273e
00000320: e7a4 d93d 1ae3 3fbe 9140 d03d 1aed 96bd
00000330: 486e 61be 52f3 c13d 8731 a2bd 8a44 32be
00000340: 17db 1fbe d8dd 023e edc3 41bd 71d2 3a3e
00000350: 1bda 02be 60df 2c3e 7c5d aebd 0667 133e
00000360: 5272 513d ce10 53be 6c9a 993d 5359 6c3d
00000370: d289 2dbe 2ad4 70be 6d66 143d e01a 893d
00000380: 6e3d 693e e985 82bd e059 31be a7be 883d
00000390: c98e 03bd 56bc 3abd 138c ad3d a2bb d2ba
000003a0: 389e 113e 76e5 1a3e 915b 233d 2802 f93d
000003b0: 8db5 813d d026 59be cf69 173e 76f7 6f3c
000003c0: c09c 80bd ff3c 3d3e 0674 3e3e 5b60 fabd
000003d0: 1a07 b63c 8a62 0abe 57d3 58bd 0e44 8f3d
000003e0: 02e5 61bd bda5 bdbd f719 d83d 33d4 a9bd
000003f0: b327 b73d 69a7 563e 4f26 273d 2534 ac3c

model.2.weight f4 [256, 512]
0.015715891 0.019982485 -0.022581147 0.015049319 0.051096354 -0.015279545 0.031934693 0.031164775
-0.007342667 0.011908666 0.01774878 0.04404405 -0.022090252 0.04719718 -0.0035021545 0.012317617
0.03173351 0.06395641 -0.04839343 0.022258617 0.103469245 -0.011575858 -0.0471367 -0.002187658
-0.034869086 0.058478434 -0.03049479 0.00678105 -0.017321162 -0.07862211 0.09605083 -0.016215555
0.012972267 0.012799883 0.07513474 0.003365843 0.07745842 0.035391856 0.04179752 0.07336726
-0.018720385 -0.012788945 -0.011225099 0.08225781 0.00078488805 0.02230515 0.01231302 0.0031342618
-0.05454299 0.008784915 -0.08662241 -0.016340937 0.0036867168 0.05277651 0.057237364 -0.0041637924
0.016778275 -0.08418125 0.03362732 0.050754793 0.015609131 0.053851824 -0.03518178 0.006930001
0.06715684 -0.025459554 -0.059864737 -0.048112452 0.029079929 0.016338982 -0.0039248164 -0.0020149422
-0.08728782 0.037123896 0.035497222 -0.0022848756 0.0022612854 0.02141021 0.038680453 -0.06272267
-0.05931525 0.0055145235 0.014244037 -0.006331336 -0.03043929 0.029057154 -0.042521313 -0.020766338
0.0045347153 0.02628675 -0.0039634053 -0.00809841 0.026320202 0.040798414 -0.003122246 0.04474792
-0.045940924 -0.006066366 -0.039600372 -0.003884564 -0.07709659 0.022150688 -0.0005992694 0.06163512
-0.008670064 0.032617006 0.022719717 0.0064449273 0.022865456 -0.002291171 0.062115613 0.04696385
0.022184256 0.032905128 -0.11834557 0.061498173 0.087616585 0.002100495 0.03822569 0.017093493
0.010926014 0.059513886 0.010587153 0.0035677706 0.0682595 -0.036894612 0.0003785955 0.02770041
0.077009104 -0.008988835 -0.012011525 -0.0367732 0.039494313 -0.027359286 0.05426801 -0.0027645556
0.029555405 0.017589577 0.0068610115 -0.0331891 -0.03660063 -0.0042466847 -0.053972334 0.010002722
0.039321825 -0.08002349 0.0026276533 -0.025546683 -0.009625623 -0.0066952156 0.035343867 -0.02998247
-0.010337028 0.08635552 0.050050914 0.06535982 -0.016591378 0.035247907 0.014917177 0.0040615243
-0.08211481 0.0761576 0.027501523 -0.0019337706 0.014947602 0.029102957 -0.004644638 -0.027692042
0.026285578 0.05593333 0.027771471 0.024786511 -0.016604457 0.0576222 -0.014384451 0.04529578
0.024899198 -0.021729728 0.043910164 -0.02215887 -0.03802678 -0.042887136 0.07658622 0.039715093
0.03200971 0.0017259673 0.03012776 0.029654415 -0.05290746 0.039326277 0.011158538 0.0013462238
0.032731142 -0.0017389313 0.06853856 -0.024744434 -0.017702406 -0.014710982 -0.0005995283 0.02096841
0.0317967 -0.062017374 0.02230378 0.037910283 0.032898102 -0.028327603 0.048618875 0.042695556
-0.08370568 0.04880103 -0.016797908 -0.0062812297 0.00018979482 -0.049501862 -0.035422463 -0.017624522
0.012744415 0.0069872867 -0.0128114335 0.017535003 -0.0066832714 -0.01174642 0.037137225 0.013593986
0.08291652 0.050241426 -0.038549956 0.013611835 0.026189787 0.044929948 -0.00019684355 0.03943466
-0.013808661 0.05352585 -0.015533357 0.020949267 0.013764181 0.035406798 -0.037010428 -0.0021600546
0.026835358 -0.019647088 -0.0055378354 -0.06848423 0.07672214 -0.019869072 -0.008575817 -0.0022352447
0.00056199206 0.0691894 -0.027244948 0.047615223 0.057934377 0.053709578 0.07726844 0.042589214
00000000: 9dbe 803c 4fb2 a33c 19fc b8bc 6b91 763c
00000010: 694a 513d 0f57 7abc f4cd 023d 454d ff3c
00000020: c19a f0bb 911c 433c e465 913c 8967 343d
00000030: 9ef6 b4bc d551 413d 6784 65bb d5cf 493c
00000040: fffa 013d 94fb 823d 3038 46bd b457 b63c
00000050: afe7 d33d aba8 3dbc 6a12 41bd d05e 0fbb
00000060: e3d2 0ebd 1587 6f3d 36d0 f9bc 9233 de3b
00000070: 1ce5 8dbc a104 a1bd 4cb6 c43d 7cd6 84bc
00000080: a289 543c 9ab6 513c 3ee0 993d 7a95 5c3b
00000090: 85a2 9e3d 0df7 103d e033 2b3d 9341 963d
000000a0: 7e5b 99bc b988 51bc 7ae9 37bc c876 a83d
000000b0: f2c0 4d3a 4ab9 b63c 8dbc 493c 3068 4d3b
000000c0: 7868 5fbd 9bee 0f3c 1767 b1bd 6edd 85bc
000000d0: d89c 713b 2f2c 583d ba71 6a3d 6c70 88bb
000000e0: 9872 893c 3867 acbd cdbc 093d 42e4 4f3d
000000f0: 71bd 7f3c bb93 5c3d c51a 10bd 1015 e33b
00000100: 8689 893d 8e90 d0bc ba34 75bd 9011 45bd
00000110: 0839 ee3c 54d9 853c bf9b 80bb 1f0d 04bb
00000120: f5c3 b2bd 3a0f 183d 8965 113d dabd 15bb
00000130: 1332 143b 7764 af3c 656f 1e3d be74 80bd
00000140: 8cf4 72bd 2db3 b43b d25f 693c 1977 cfbb
00000150: d15b f9bc 4509 ee3c d42a 2ebd 2b1e aabc
00000160: f397 943b 4f57 d73c 74df 81bb 32af 04bc
00000170: 779d d73c 3d1c 273d 989e 4cbb 9849 373d
00000180: 8d2c 3cbd 5ec8 c6bb 0034 22bd 2b94 7ebb
00000190: d1e4 9dbd 5c75 b53c 4a18 1dba 1c75 7c3d
000001a0: e20c 0ebc 6999 053d b31e ba3c f82f d33b
000001b0: 5650 bb3c 7927 16bb f16c 7e3d 2a5d 403d
000001c0: c2bb b53c 87c7 063d 2a5f f2bd 82e5 7b3d
000001d0: 5370 b33d 75a8 093b 8b92 1c3d a707 8c3c
000001e0: 0603 333c d5c4 733d bd75 2d3c 42d1 693b
000001f0: a3cb 8b3d ce1e 17bd 3a7e c639 f8eb e23c
00000200: f3b6 9d3d e845 13bc fdcb 44bc 7f9f 16bd
00000210: cac4 213d 9520 e0bc 2248 5e3d 8c2d 35bb
00000220: 2d1e f23c 0418 903c 56d2 e03b 4bf1 07bd
00000230: 8bea 15bd c627 8bbb 1812 5dbd 75e2 233c
00000240: ec0f 213d 5be3 a3bd b534 2c3b 4747 d1bc
00000250: cab4 1dbc 8a63 dbbb bbc4 103d cc9d f5bc
00000260: a35c 29bc 2adb b03d 3002 4d3d 5fdb 853d
00000270: a4ea 87bc 1c60 103d 2d67 743c 8916 853b
00000280: cf2b a8bd 84f8 9b3d e04a e13c 9376 fdba
00000290: c9e6 743c 5369 ee3c 0c32 98bb 6cda e2bc
000002a0: da54 d73c 591a 653d ff80 e33c 150d cb3c
000002b0: 1206 88bc 4205 6c3d c3ac 6bbc 1188 393d
000002c0: 67f9 cb3c 8b02 b2bc 25db 333d 8586 b5bc
000002d0: f8c1 1bbd 6caa 2fbd 3cd9 9c3d 4bac 223d
000002e0: 9d1c 033d da39 e23a 7ece f63c d1ed f23c
000002f0: 7eb5 58bd 9714 213d 4dd2 363c c673 b03a
00000300: 1711 063d daec e3ba f25d 8c3d d7b4 cabc
00000310: a304 91bc 5506 71bc aa29 1dba f1c5 ab3c
00000320: 423d 023d ee05 7ebd 6bb6 b63c d047 1b3d
00000330: 29c0 063d 4a0f e8bc 9624 473d 89e1 2e3d
00000340: e26d abbd 97e3 473d c49b 89bc c6d2 cdbb
00000350: a903 4739 77c2 4abd 2517 11bd 4d61 90bc
00000360: f3cd 503c 9cf5 e43b 0ce7 51bc 91a5 8f3c
00000370: 58ff dabb 0e74 40bc 341d 183d 4fb9 5e3c
00000380: 23d0 a93d f4c9 4d3d 8fe6 1dbd 2d04 5f3c
00000390: f78b d63c 7708 383d ca67 4eb9 3d86 213d
000003a0: b93d 62bc ec3d 5b3d 9f7f 7ebc cc9d ab3c
000003b0: 2983 613c b806 113d 3f98 17bd b48f 0dbb
000003c0: d3d5 db3c eef2 a0bc bb76 b5bb 7641 8cbd
000003d0: 7f20 9d3d 77c4 a2bc 9581 0cbc 2f7d 12bb
000003e0: a652 133a 2cb3 8d3d cc30 dfbc 2e08 433d
000003f0: 994c 6d3d 93fe 5b3d ea3e 9e3d 0772 2e3d

model.2.bias f4 [256]
0.045207486 0.034932688 0.012827584 -0.03389034 -0.009433518 0.032244842 -0.012958825 0.012677044
0.017959135 0.027666684 -0.016033715 -0.019912954 -0.0061110966 0.02766631 0.054279868 0.005929899
0.047192317 -0.01719155 0.03172817 0.030857032 -0.05141421 0.0015062736 0.029399985 -0.014416246
0.05206367 0.020425629 -0.020559853 -0.042421486 0.059861463 -0.012615429 0.009421681 0.04722545
-0.02246625 -0.03567222 -0.054689266 0.012741579 -0.0060311123 0.024617448 0.001680247 0.013865721
0.033761937 0.035037633 0.012813419 0.0017209909 0.00035912503 0.047624327 -0.032353465 0.0058772275
-0.024559423 0.004541953 -0.028359937 0.02847327 -0.027740119 0.031483393 -0.052370343 -0.014976413
-0.04450424 0.03389263 0.054846983 -0.033175305 -0.028047122 -8.1116435e-05 -0.026322762 0.053060003
-0.029966768 0.006330798 0.057914805 0.047542848 -0.036107678 -0.01909033 0.0069689406 0.021284984
-0.026188515 -0.051757656 0.026761472 0.02439796 -0.0012198134 0.006018371 0.05567226 0.012796923
0.040433045 -0.030892799 -0.010295297 0.0031061906 -0.0049310364 -0.03196298 0.015670773 0.015485412
0.02110303 -0.010052316 -0.049027562 -0.00088711455 -0.051055927 -0.02104834 -0.034789518 -0.010058774
0.008033197 0.005343024 -0.01098784 -0.0011855862 -0.012458356 0.011185078 0.029928267 0.052407607
-0.0041308403 0.052131705 0.007036975 0.022614678 0.0026825943 -0.0013010569 0.012151315 0.035962034
0.060086258 0.014571728 0.03691668 0.020486448 0.0038065577 0.003537114 0.026550915 0.033060502
-0.017763212 0.023093875 0.009543215 0.044683814 -0.023261445 0.051109597 -0.031597834 0.008964259
-0.008321323 -0.0058465973 0.04500312 0.013238102 0.03386243 0.01586288 0.017857153 0.010062315
-0.0015880142 0.009786202 -0.008140907 0.03312941 0.049856484 0.01968538 -0.013077308 0.003149135
-0.015028452 -0.02494986 -0.006395675 0.053806208 -0.030492995 0.036869634 -0.04152945 0.005827945
-0.00034662502 -0.0044186832 0.01447441 0.037421543 0.042237103 0.02814331 0.022012563 -0.050612684
-0.029104516 0.04991509 -0.03324056 0.015232433 -0.0050780526 -0.010431132 -0.0067379614 -0.016008092
0.045251474 -0.049607936 -0.04534272 0.008265432 -0.004849 -0.050327152 0.0032001147 0.012874694
0.04243051 0.0017837553 -0.034131132 -0.02284272 -0.013422234 -0.01641231 0.011883428 0.012013442
0.043732237 0.016867938 0.039562717 0.05676972 -0.022815153 0.031239098 -0.006885664 0.0028178035
0.054016735 -0.018931502 0.003701235 0.04104494 0.026108688 0.021130031 -0.039441276 0.022851197
-0.0036422992 -0.035307467 -0.010375903 0.009286158 0.033963714 0.012516739 0.0427325 -0.022025766
0.0018896543 -0.031349186 -0.020691086 0.00074667507 -0.0320089 -0.016426943 -0.0002906875 -0.0014349659
-0.017269664 -0.04260534 0.03804938 0.01179921 -0.009532598 -0.009926886 -0.045968585 -0.0007499184
-0.054544695 0.026180904 -0.014401055 -0.050672356 0.056252338 -0.00051780493 -0.015526082 0.026150085
0.032642942 -0.0032269866 0.03502367 0.054214932 0.025811113 0.04586955 0.05294969 0.051565617
0.030397572 -0.036484774 0.05015458 -0.0019055863 0.013642182 0.057053924 0.042276375 0.0066631357
-0.014790287 -0.0317152 0.02121708 0.039666932 -0.024661973 0.021059759 0.009218255 -0.014767678
00000000: 7c2b 393d 9415 0f3d c92a 523c 99d0 0abd
00000010: 0b8f 1abc 2b13 043d 4051 54bc 60b3 4f3c
00000020: 091f 933c 3ea5 e23c 2359 83bc 7e20 a3bc
00000030: 983f c8bb 75a4 e23c 9154 5e3d 994f c23b
00000040: bb4c 413d 4bd5 8cbc 66f5 013d e3c7 fc3c
00000050: b597 52bd 286e c53a 3dd8 f03c 1e32 6cbc
00000060: b740 553d a653 a73c 236d a8bc 27c2 2dbd
00000070: 4b31 753d f2b0 4ebc 655d 1a3c 796f 413d
00000080: 240b b8bc 091d 12bd da01 60bd 0ec2 503c
00000090: a3a0 c5bb 88aa c93c bc3b dc3a 0d2d 633c
000000a0: f549 0a3d 9f83 0f3d 60ef 513c df92 e13a
000000b0: f248 bc39 ba11 433d 1185 04bd c295 c03b
000000c0: d830 c9bc aad4 943b 1953 e8bc c640 e93c
000000d0: 3f3f e3bc bbf4 003d 4982 56bd a15f 75bc
000000e0: 144a 36bd 00d3 0a3d 3ba7 603d d4e2 07bd
000000f0: 14c3 e5bc 0e1d aab8 d5a2 d7bc 7255 593d
00000100: de7c f5bc 9572 cf3b 1338 6d3d 4abc 423d
00000110: a5e5 13bd 5363 9cbc b65b e43b d95d ae3c
00000120: 4c89 d6bc d6ff 53bd e03a db3c 3bde c73c
00000130: 25e2 9fba c135 c53b 9808 643d 2faa 513c
00000140: 1f9d 253d e512 fdbc 9bad 28bc 3b91 4b3b
00000150: 8894 a1bb 9deb 02bd fe5f 803c 87b6 7d3c
00000160: 43e0 ac3c 78b2 24bc 20d1 48bd 408d 68ba
00000170: 0520 51bd 916d acbc 747f 0ebd 8ecd 24bc
00000180: ac9d 033c 8914 af3b 5706 34bc ac65 9bba
00000190: 221e 4cbc 9e41 373c 202c f53c 5ca9 563d
000001a0: 005c 87bb 0e88 553d 6d96 e63b 6b42 b93c
000001b0: 77ce 2f3b 3a88 aaba 4f16 473c ed4c 133d
000001c0: 021d 763d 42be 6e3c f235 173d 32d3 a73c
000001d0: 7177 793b edce 673b 4e81 d93c 736a 073d
000001e0: 2884 91bc 5e2f bd3c 255b 1c3c 6006 373d
000001f0: c98e bebc 4c58 513d bb6c 01bd d4de 123c
00000200: 2956 08bc d094 bfbb 3155 383d a0e4 583c
00000210: 55b3 0a3d dff2 813c 2a49 923c 68dc 243c
00000220: ea24 d0ba 4e56 203c 7061 05bc b4b2 073d
00000230: 5036 4c3d 3c43 a13c 3542 56bc b861 4e3b
00000240: e539 76bc a663 ccbc cf92 d1bb e663 5c3d
00000250: 72cc f9bc 9d04 173d c91a 2abd 59f8 be3b
00000260: 39bb b5b9 9aca 90bb 1326 6d3c 5547 193d
00000270: d000 2d3d cd8c e63c b153 b43c 3f4f 4fbd
00000280: 986c eebc c473 4c3d 4127 08bd 7491 793c
00000290: cb65 a6bb 57e7 2abc 1eca dcbb 6723 83bc
000002a0: 9c59 393d b131 4bbd 4ab9 39bd bc6b 073c
000002b0: 5ce4 9ebb d823 4ebd 04b9 513b 61f0 523c
000002c0: 9dcb 2d3d e5cc e93a 16cd 0bbd a820 bbbc
000002d0: eee8 5bbc 1c73 86bc b6b2 423c 07d4 443c
000002e0: 9320 333d a12e 8a3c 840c 223d 5e87 683d
000002f0: d8e6 babc 23e9 ff3c 23a1 e1bb e6aa 383b
00000300: a740 5d3d 3d16 9bbc 6b90 723b bd1e 283d
00000310: e3e1 d53c e318 ad3c 2d8d 21bd 6f32 bb3c
00000320: a4b3 6ebb 909e 10bd b1ff 29bc f824 183c
00000330: 891d 0b3d 0213 4d3c 4608 2f3d 616f b4bc
00000340: 47ae f73a 0168 00bd 5a80 a9bc 84bc 433a
00000350: c41b 03bd cc91 86bc 6a67 98b9 7715 bcba
00000360: 1c79 8dbc f082 2ebd abd9 1b3d 7951 413c
00000370: 9d2e 1cbc 61a4 22bc 8e49 3cbd 2c96 44ba
00000380: 426a 5fbd 5679 d63c 67f2 6bbc d18d 4fbd
00000390: da68 663d 4dbd 07ba 1c61 7ebc b438 d63c
000003a0: 9bb4 053d da7b 53bb fb74 0f3d 7a10 5e3d
000003b0: d471 d33c b6e1 3b3d c6e1 583d 7836 533d
000003c0: 5404 f93c 0f71 15bd e46e 4d3d dec4 f9ba
000003d0: 7583 5f3c 60b1 693d fe29 2d3d 6f56 da3b
000003e0: f652 72bc cce7 01bd 71cf ad3c cb79 223d
000003f0: e807 cabc 8485 ac3c 2a08 173c 22f4 71bc

model.4.weight f4 [1, 256]
-0.09841684 -0.10355842 0.016738066 0.024752421 -0.089054845 0.018387245 0.015139163 -0.08456881
0.09894458 0.0046291864 -0.1134827 0.050693505 -0.0017863286 0.017851762 -0.10032502 -0.0052304277
0.10170566 -0.11307104 -0.0037604338 -0.050670385 0.048372258 -0.07157372 -0.08842333 -0.09898968
-0.056702822 -0.062780134 0.035753764 0.04381935 0.14505704 -0.07738259 0.13393198 0.10437983
-0.05742866 0.050355073 0.10489494 0.043288052 0.011566062 0.0013007385 0.015484756 -0.08130171
-0.060951263 -0.07596903 0.03990406 0.010823633 0.09737579 -0.06792177 0.050080586 0.1423271
0.033284057 -0.06841847 0.046176918 -0.044801693 -0.073682055 0.090519816 0.024937632 -0.09840118
0.012534551 0.05252258 -0.086140975 0.024563473 0.017185064 -0.04857128 0.08379001 -0.09683967
0.037903443 -0.06397805 -0.08082304 -0.06724332 0.033863228 0.035201203 0.10110306 0.015465457
-0.078135766 0.00085427024 -0.13449796 -0.04183322 0.006225747 -0.0878837 -0.055531755 0.018595813
0.08104489 0.107671246 -0.120104134 0.12670015 -0.057735477 0.016703838 -0.07578911 0.025015216
-0.0067875595 0.020013934 0.012602926 -0.09407898 0.049373183 0.049041484 0.038022246 -0.055090476
-0.087241545 0.035458412 -0.085971 0.106137976 -0.11521199 0.008442722 -0.0065057185 -0.100615785
0.098368354 -0.05869733 -0.07713655 -0.10229106 0.019533303 -0.114173524 -0.085693724 0.16443631
-0.06379151 -0.046468846 -0.10210508 -0.10788779 0.043668438 0.044936482 -0.061643995 -0.07656569
-0.08899572 -0.04810525 0.012114671 -0.08921259 -0.07598234 -0.08906647 0.04754658 -0.0891053
0.0064467858 0.05085076 -0.06150704 0.010011833 0.04398716 0.11457141 -0.084641404 -0.10829321
0.007701827 -0.10327037 0.04392786 0.043538447 -0.05612522 -0.08592851 -0.0971054 -0.08836104
-0.08265146 0.0021899582 -0.10596272 -0.06343559 0.0281068 -0.089925945 0.0481033 -0.10820205
-0.08396009 -0.12062786 -0.09098738 -0.11631912 -0.09615184 0.08404078 0.096657336 0.01853125
-0.0042579863 -0.08218819 -0.0061390297 0.0026782192 -0.064156085 -0.10653638 0.011802612 -0.122941546
0.09580392 0.07591564 0.090111956 0.03304828 -0.08857614 0.002692651 -0.07608953 -0.08669495
0.09717985 -0.06404006 0.050204564 0.06565409 -0.041719858 -0.08211586 0.07529211 -0.10027688
-0.061444025 -0.09238756 -0.12506525 0.11609313 0.04682472 -0.0152674 -0.09288285 -0.077807605
-0.12861758 -0.07672478 -0.15146583 0.085038945 0.0015259441 -0.07474539 0.01871419 0.021538323
0.044299852 -0.02968636 0.0726873 -0.0641615 -0.101195104 -0.084805354 -0.048904832 -0.08235527
-0.06861836 0.03708722 -0.08415767 0.05384292 0.020439712 0.08516028 -0.0018378389 0.06911457
-0.003841621 0.020005671 -0.07069424 0.013462876 -0.090173334 -0.08801453 -0.0006767656 -0.10523105
0.03362289 0.02099475 0.039230566 0.029179743 -0.07338032 -0.12009979 -0.05333269 -0.13199157
-0.08155002 -0.113050625 -0.07108078 -0.05517854 -0.09213184 -0.08872302 -0.05868819 0.12022433
-0.09803219 0.029543068 -0.10348852 -0.081819475 0.044833478 -0.076444514 -0.058971588 -0.050573062
-0.07593459 -0.0010713983 -0.071546726 0.074007094 0.09940841 -0.09519975 0.08452256 0.049916845
00000000: c58e c9bd 7016 d4bd 451e 893c 97c5 ca3c
00000010: 6362 b6bd d9a0 963c 400a 783c 6a32 adbd
00000020: 75a3 ca3d 6eb0 973b 9e69 e8bd fea3 4f3d
00000030: 3e23 eaba dc3d 923c 3477 cdbd 0264 abbb
00000040: 0f4b d03d ca91 e7bd 9c71 76bb c08b 4fbd
00000050: fd21 463d 3e95 92bd 4a17 b5bd 1abb cabd
00000060: 3841 68bd df92 80bd 8a72 123d eb7b 333d
00000070: d589 143e c37a 9ebd 7725 093e 18c5 d53d
00000080: 513a 6bbd 1f41 4e3d 29d3 d63d d04e 313d
00000090: 957f 3d3c 8b7d aa3a c6b3 7d3c 8381 a6bd
000000a0: 08a8 79bd a795 9bbd 7172 233d 9b55 313c
000000b0: f56c c73d 921a 8bbd 4d21 4d3d 32be 113e
000000c0: dd54 083d fc1e 8cbd 0224 3d3d fb81 37bd
000000d0: 9ee6 96bd 7462 b93d 014a cc3c 8f86 c9bd
000000e0: b85d 4d3c eb21 573d ae6a b0bd 5639 c93c
000000f0: b1c7 8c3c aef2 46bd 199a ab3d e053 c6bd
00000100: a440 1b3d ed06 83bd 8d86 a5bd deb6 89bd
00000110: 2bb4 0a3d 232f 103d 1f0f cf3d d462 7d3c
00000120: a505 a0bd 1bf1 5f3a d5b9 09be 4f59 2bbd
00000130: 5a01 cc3b 5ffc b3bd 4475 63bd 3f56 983c
00000140: ddfa a53d be82 dc3d 28f9 f5bd afbd 013e
00000150: 097c 6cbd 7dd6 883c 5237 9bbd b6ec cc3c
00000160: 2d6a debb 43f4 a33c 817c 4e3c 7bac c0bd
00000170: 893b 4a3d b9df 483d 37bd 1b3d 8da6 61bd
00000180: b2ab b2bd d73c 113d 9011 b0bd de5e d93d
00000190: 44f4 ebbd 5853 0a3c ec2d d5bb a60f cebd
000001a0: 5975 c93d 9d6c 70bd c4f9 9dbd fa7d d1bd
000001b0: 4e04 a03c cfd3 e9bd 3180 afbd fe61 283e
000001c0: 20a5 82bd 1e56 3ebd 781c d1bd 46f4 dcbd
000001d0: addd 323d 510f 383d 6a7e 7cbd 79ce 9cbd
000001e0: 6343 b6bd 030a 45bd 9d7c 463c 17b5 b6bd
000001f0: a19c 9bbd 7b68 b6bd 34c0 423d d77c b6bd
00000200: 8f3f d33b e348 503d ceee 7bbd ac08 243c
00000210: e12b 343d 6aa4 ea3d 7958 adbd d5c8 ddbd
00000220: 9c5f fc3b 6a7f d3bd b3ed 333d 5f55 323d
00000230: 8fe3 65bd 49fb afbd 32df c6bd a2f6 b4bd
00000240: 2b45 a9bd 6785 0f3b fc02 d9bd 85ea 81bd
00000250: 3b40 e63c 182b b8bd f707 453d 0999 ddbd
00000260: 45f3 abbd bd0b f7bd 9757 babd b838 eebd
00000270: 42eb c4bd 931d ac3d 48f4 c53d d9ce 973c
00000280: 9486 8bbb 4852 a8bd ea29 c9bb 1085 2f3b
00000290: 4464 83bd bf2f dabd be5f 413c c7c8 fbbd
000002a0: d834 c43d a979 9b3d 9e8c b83d a25d 073d
000002b0: 6867 b5bd 3077 303b d4d4 9bbd 1f8d b1bd
000002c0: 3b06 c73d 6f27 83bd 4da3 4d3d a775 863d
000002d0: 71e2 2abd 5c2c a8bd c032 9a3d f75d cdbd
000002e0: bbac 7bbd b035 bdbd 1b11 00be 3cc2 ed3d
000002f0: 47cb 3f3d 1e24 7abc 5d39 bebd 9859 9fbd
00000300: 54b4 03be e221 9dbd dc19 1bbe e628 ae3d
00000310: 3002 c83a 1c14 99bd 804e 993c 2371 b03c
00000320: c373 353d cf30 f3bc 14dd 943d 1b67 83bd
00000330: 613f cfbd 6eae adbd 6f50 48bd e1a9 a8bd
00000340: c887 8cbd c5e8 173d db5a acbd 658a 5c3d
00000350: 2f71 a73c 8368 ae3d a4e3 f0ba f18b 8d3d
00000360: b5c3 7bbb efe2 a33c 24c8 90bd 6593 5c3c
00000370: ccac b8bd f640 b4bd f868 31ba 6083 d7bd
00000380: 28b8 093d 2ffd ab3c 3bb0 203d 5b0a ef3c
00000390: 6c48 96bd e1f6 f5bd 6173 5abd cc28 07be
000003a0: b203 a7bd 1687 e7bd cd92 91bd e502 62bd
000003b0: 9eaf bcbd 6ab4 b5bd 0763 70bd 2c38 f63d
000003c0: 1ac5 c8bd 4e04 f23c caf1 d3bd f890 a7bd
000003d0: 4fa3 373d f18e 9cbd 318c 71bd b325 4fbd
000003e0: 9883 9bbd 296e 8cba 1787 92bd 0891 973d
000003f0: a396 cb3d 16f8 c2bd 2a1a ad3d 9b75 4c3d
