best-model-by-loss.pth (torch, 607469 bytes, 15 tensors)

loss_fn.weight f4 [6]
00000000: 0000 0040 0000 803f 0000 4040 0000 8040
00000010: 0000 803f 0000 0040
2.0 1.0 3.0 4.0 1.0 2.0

model.0.weight f4 [512, 27]
00000000: 9dc4 1d3e 6269 273e 5654 81bd 7587 223e
00000010: 290c e8bd b6e0 debc f330 09be 2fdd 783d
00000020: 686c 3e3e e783 e9bd c861 113e 9c11 683c
00000030: a8f9 273e d35e 46bd fbb1 2b3e 69c6 133c
00000040: dc7a 203e d75f 40bc 0561 0ebe 9589 2a3d
00000050: 88d5 83bd d82d 89bd 51e2 edbd 4538 d13d
00000060: cc09 04be eba6 e9bd 6302 60bc 30d4 b5bd
00000070: ca81 313d 9019 22be 0283 523e 3933 5bbe
00000080: 3afc bd3d 6154 91bc 68a9 cfbd e7bc 813d
00000090: e4ca 063e a0c1 3d3e 1828 b3bc 7eb2 91bc
000000a0: 0410 8a3d eea8 f2bc 5533 503d 79c7 363e
000000b0: 6501 b23d 648a e03c 95fc 2e3e c1e3 2a3d
000000c0: 7ed0 a73d 30b1 dcbd 5294 68be a52b e6bd
000000d0: 2c4e ffbd 86ef 3c3e e8e6 ad3c 0683 333d
000000e0: ef98 143d 24d8 e4bc 0de6 2d3e 52bf 09be
000000f0: dc24 60bb e4d8 e3bd efb7 c03b 05a5 2ebd
00000100: 20e1 c83d c45e 3a3a ad52 f33d ed15 58bd
00000110: 487c 3cbe 7f03 eabd 8bdc 2f3e 746e 923d
00000120: 280c 563e b6d1 61be dc70 53be 58f1 10be
00000130: 5dbb f0bd 9f65 8e3d 2b1f 7b3d ce91 3d3e
00000140: c5e0 18bd f5a4 06be 986e d73d f0ae 6ebd
00000150: 5ba1 0b3e 418c d4bc 7ea1 2f3e 3d48 b4bd
00000160: 07e2 b4bd 7bda 9c3d 62d2 a9bd 500c 2cbe
00000170: c128 1b3e d28d c03d 0689 f2bd f0c0 84bd
00000180: 2a0a 4e3e 88e7 aabc 5963 80bd 5eba 55be
00000190: 0904 e6bd f927 143d fec1 a3bb 61cb efbd
000001a0: 92ac c53c 4365 10be 55ac 7ebe fe8f 8dbd
000001b0: b30f e1bd 4055 89bd 5514 513e a53d 453d
000001c0: d56f 903d 2067 39be dcfe edbd 5718 6fbd
000001d0: f539 b43c 3f24 0dbe 5879 edbd 6653 01be
000001e0: 8249 3e3c d877 02be a02a 06bc 5813 32be
000001f0: df04 05be f329 ffbd fccd b5bd 425b 01be
00000200: b562 393e bde3 99bb 5c6d 3e3e 1d83 ba3d
00000210: 82d0 17be d5ce 053e ccd9 4fbd f7b2 92bd
00000220: 0a36 1fbe d44e 07be 1c04 ea3d cea1 26bd
00000230: d2ad dc3d 0544 02be 1f17 ff3d 2e44 16be
00000240: 3f0a 67bd e723 713d 7fe6 a23d f161 333e
00000250: 22f5 603e aebc 0bbe f2e4 ab3d f217 a2bd
00000260: 4323 d5bc dc19 46be 9c86 323e 8a18 cdbd
00000270: f1b4 193e a103 a23d 122c fc3d dc98 98bd
00000280: e574 0f3e 6d63 843d cbd2 663d 409d 08be
00000290: 3ed4 893d b384 2dbd 8db9 63bd 293b 343e
000002a0: 1611 3b3d 0eb1 92bd 497f 44be dfce 923d
000002b0: 7c84 a83d 5733 b2bd 6566 93bd ad55 98bd
000002c0: 047a 47be 37e4 013d 1abc 213e 557c 0bbe
000002d0: 7aef b33d 33ba f53d de72 3a3d 54db 45bd
000002e0: d5d3 ea3d bc90 e63d c58f a03d c7de 44bd
000002f0: 1559 1cbd 29b1 8b3d ea16 883c 0ccf f3b9
00000300: 8d38 383e 4bab 203e 2d24 57bc ff97 39bd
00000310: 668a 8cbc fb80 1bbd 6886 4cbb fd30 a73d
00000320: c3ba 37be 89f8 87bd ac1b aa3d bb0e 993d
00000330: cfcc 13bd 26ab 2abe 87bd d5bd c31f 6bbe
00000340: 797d 95bd eb99 3c3d a2f2 403e d67e b83d
00000350: 0038 96bd d356 bfbd 19d0 afbd df2a ff3d
00000360: 735d fb38 b68c 90bd cf37 863d 9af5 b2bd
00000370: 69b5 17bd e7b3 6c3e 90eb 11bb 86d1 7d3d
00000380: 48e2 5fbe 7c6b 103e 76da 1e3e 1371 543d
00000390: 6166 edbd b2cd a8be 1778 e7bd a1da 493e
000003a0: 8b38 a33d 8a0b 7e3e f784 a83d 4694 27bd
000003b0: 367e 2fbd a509 98bd a7b3 9cbd 93e0 0cbe
000003c0: e420 e93c 2a0b a6bd a455 f6bb 5ed2 c5bd
000003d0: f0ac c3bc c492 49be b6a9 3fbe 1dee 893d
000003e0: ec1c bdbd 5c0a b53d dd39 6bbd 2ca4 e7bd
000003f0: e2bf 5bbe 8f56 25be 521e debd 69d7 08be
0.15407033 0.16348794 -0.06314914 0.15871985 -0.11330444 -0.02720676 -0.13397579 0.060757812
0.18596041 -0.114021115 0.14197457 0.014164355 0.1640383 -0.048430275 0.16767113 0.009019473
0.15671867 -0.0117416 -0.13904198 0.041635115 -0.06437212 -0.06698197 -0.11615432 0.10215811
-0.12894362 -0.1140879 -0.013672444 -0.08878362 0.043336667 -0.15830064 0.20557788 -0.21406259
0.09276624 -0.01774043 -0.101397336 0.063348584 0.13163334 0.18530893 -0.021869704 -0.017785307
0.06741336 -0.029621568 0.050830204 0.1784953 0.08691672 0.02740974 0.1708854 0.04172111
0.081940636 -0.10775983 -0.2271283 -0.11238793 -0.12466082 0.18450746 0.021228269 0.043826126
0.03627866 -0.027935095 0.16982289 -0.13451889 -0.0034201657 -0.11125353 0.0058813016 -0.042637844
0.09808564 0.0007109458 0.118810035 -0.052755285 -0.18406785 -0.11426448 0.17173974 0.071499735
0.20903075 -0.22052655 -0.20648521 -0.14154565 -0.11754487 0.069529764 0.06130902 0.18512651
-0.037323732 -0.13148864 0.10519141 -0.058272302 0.13635771 -0.025945785 0.17151448 -0.08802841
-0.08832174 0.07658859 -0.082920805 -0.16801572 0.15152265 0.0940205 -0.118425414 -0.064821124
0.20121065 -0.020862356 -0.06268949 -0.20871875 -0.112312384 0.036170933 -0.004997491 -0.11708713
0.02413014 -0.14101128 -0.24870427 -0.0691223 -0.109893225 -0.06705713 0.20417912 0.048154492
0.0705258 -0.18105745 -0.11620876 -0.05837282 0.022000292 -0.13783358 -0.1159541 -0.1262947
0.011614205 -0.1274103 -0.0081888735 -0.17390192 -0.1299014 -0.12459173 -0.08877179 -0.12632468
0.1810406 -0.004696338 0.18596405 0.09107039 -0.14825633 0.13067181 -0.050744817 -0.07163041
-0.15547958 -0.13213664 0.11426565 -0.040681653 0.10775341 -0.1272126 0.12455582 -0.14674446
-0.056406256 0.05887213 0.0795412 0.1751783 0.21968511 -0.13646194 0.08393277 -0.079147235
-0.02601779 -0.19345802 0.17434162 -0.10014446 0.1501043 0.079108484 0.12313093 -0.074510306
0.14009435 0.064642765 0.05635337 -0.13341236 0.06729935 -0.04236288 -0.055596877 0.17600693
0.04567059 -0.07162677 -0.1918918 0.07168364 0.082283944 -0.087011985 -0.071972646 -0.07438216
-0.19480139 0.031711783 0.15794411 -0.13621648 0.08785911 0.11998405 0.045519702 -0.04830487
0.11466185 0.11258075 0.07839922 -0.04806402 -0.038170893 0.068209 0.016612489 -0.00046502834
0.17990322 0.15690343 -0.013131184 -0.04531097 -0.017155837 -0.037964802 -0.0031208042 0.08163641
-0.17942338 -0.06639201 0.08306059 0.07473513 -0.036083993 -0.1666685 -0.1043654 -0.22961335
-0.07299323 0.046045225 0.18842557 0.09008567 -0.073349 -0.09342732 -0.08584613 0.12459349
0.00011986019 -0.070580885 0.065536134 -0.08738251 -0.03703824 0.23115502 -0.002226565 0.061967395
-0.21863663 0.14103502 0.15513024 0.05186565 -0.11591793 -0.32969433 -0.11302202 0.19712307
0.07969769 0.2480909 0.08228486 -0.04091289 -0.042844974 -0.074237145 -0.076514535 -0.13757543
0.028458066 -0.08107598 -0.0075175334 -0.09659265 -0.023886174 -0.19684893 -0.18717083 0.0673487
-0.09234032 0.088398665 -0.05742823 -0.1131061 -0.21459916 -0.161463 -0.10845627 -0.13363422

model.0.bias f4 [512]
00000000: d571 71bd 6bc5 8fbd 63f3 11be 4cd8 4cbe
00000010: 2794 ab3d cdc5 fbbd a9e1 d5bd 2ce3 a2bd
00000020: 23f9 17be 79a1 12be 41c6 f6bd 0b41 353e
00000030: d857 4b3c f8f7 96bd 359e 9ebc c795 233e
00000040: c439 e8bd 77e1 a13d e5c0 13bd 3525 27be
00000050: 5a0b 023e 0603 b43d 461e 123e ab7b b33d
00000060: 6529 fc3c 8b37 793d c6d7 12be c548 3e3e
00000070: 7d08 ffbd dcaa 073e 7b64 f6bd f4f2 09be
00000080: c5e8 ae3d 2c57 033e a3a3 4bbd a697 653d
00000090: 6a8b 2cbe e5fa 98bc fec2 2e3e 7ce9 3a3e
000000a0: d79e 79bd 3c27 923d 5966 353e 8738 943d
000000b0: 8f56 123d af31 1fbe 6cde 5b3d 91dc 573d
000000c0: cf2a d9bd 5644 c03d ff08 fdbd f57d 3f3e
000000d0: 641b 5ebc a9ec 063e 64ea 57bd ac09 c9bd
000000e0: 5fff 103e bb30 ed3d e0ce 403e a53a 673d
000000f0: e3f4 a4bd e64f eabd 7404 3cbe 160e 493c
00000100: 82a8 3e3e 1b6c 89bd dc9d 20bd da53 0a3e
00000110: 15e6 2b3e 9179 523d 313f 5a3c 31e7 3f3e
00000120: a14e 243e e2af fcbd 24f8 0bbe 23e1 32bd
00000130: 29cb 983d b9b3 f2bd 18cf a7bd ca19 923c
00000140: a733 44bd 92c3 033e 2ff4 ef3d 0edb 063e
00000150: 1eda d23d 9cfc e3bd 48e2 16be ab2a 03be
00000160: b40c b4bc 6f3e 1a3e 0615 3abd 67f9 363e
00000170: 52b5 153e b5c4 39be e779 b13d d415 a1bd
00000180: 17d5 3bbe c3be 883d 542d 8cbd d071 2fbe
00000190: 70f4 09be 05f1 113e 9629 39bd f30c 193e
000001a0: 4afb 8fbd 1e66 3f3e 40ca 47bd ae54 3c3e
000001b0: b95d 973d 6dd1 14be 4471 ac3d ad99 9b3d
000001c0: a297 24be 4ad3 2abe 6d4e 203c c8d6 d33d
000001d0: d190 273e 65d9 57bd 2ae4 37be ef32 ab3d
000001e0: 7eef 693c 2819 433b 0a4b f53d 8559 cd3c
000001f0: 54fb 293e 162e 153e 50ce 403d ce77 123e
00000200: 9698 783d bfd1 38be 0613 313e 5945 b63b
00000210: b685 a7bc 9b02 223e f784 2f3e ea03 1cbe
00000220: baa0 9a3d a41b d9bd 33f9 43bd 65a6 373d
00000230: 6b46 90bd b8aa a9bd f91e c23d 5c19 3bbd
00000240: 26e1 913d 3f78 3a3e 89a4 463d f21d 2d3d
00000250: b669 2c3e a052 93bd d964 e63a 8313 38be
00000260: db69 a8bd 1de0 4fbc b084 323e c0cb de3d
00000270: 7fd6 10bd ce02 5cbd 2d8f 333d d219 adbd
00000280: 38d9 eebc bf12 333d dad2 6cbd 57ae 0d3e
00000290: 5a4e 9b3d 4288 a7bc 4dee 0cbd 7ae5 993c
000002a0: abe1 cf3d fcba 583d 7017 4dbd af37 883d
000002b0: 37f3 1abc 282a 10be 07a5 1bbe 9326 dc39
000002c0: 4740 2a3e f661 99bd 13b5 f63d fee3 67bd
000002d0: 3487 ed3d b503 34bd e4a1 9ebd 9efa 663d
000002e0: 9828 d23d c7e7 17be 4ab0 6abc 36ef 383d
000002f0: 23d8 0a3d 6f7b 3f3e 8ecc 2abe 1697 283e
00000300: 1e84 cd3d 63d5 38be 351f 93bd 10e2 8b3d
00000310: ce1d 14be 3f16 383e bf20 90bd 3ffc 953d
00000320: 144e 163d 4f91 98bd 346d 32be 3384 803c
00000330: 24e0 1fbe fc21 29bd 81af 103d 3130 89bd
00000340: b8c6 de3d 7c30 30be 2a15 1dbe 4d25 cd3d
00000350: 2b57 ccbd 06a7 223e 6037 09bd 34ba 06bd
00000360: 3e94 3c3e e2c4 83bc 05f0 22be 74c6 a4bd
00000370: ca0d 703d c9fa 043e a356 253e d8a4 96bd
00000380: 13c6 fd3c 91d3 0e3e b650 9cbd 28df 2b3c
00000390: 2ff2 bebd aa4c de3c 2380 3b3e 7e50 263e
000003a0: 704b 01be 5836 c33d ba47 383e 3ddb 07bd
000003b0: f86f 8f3d aa6f 33be 03c7 d13d 8090 1dbd
000003c0: 7c22 333e 7da4 093e a538 e2bd 5b4f afbd
000003d0: 663d 1bbe aa06 38be 4603 31be 0d2e c13d
000003e0: 0c17 033e 1584 fcbd 8fcf 093e 1e6a 77bd
000003f0: a10e 703d f8f7 243e 53ab 1e3e 2729 1dbe
-0.05894645 -0.07020076 -0.14253001 -0.20004386 0.08377867 -0.12293587 -0.10443432 -0.07953486
-0.14841132 -0.1431941 -0.12049533 0.17700593 0.01241108 -0.07371515 -0.019362548 0.15975104
-0.11339143 0.07904332 -0.03607263 -0.16322787 0.12699643 0.08789639 0.14269361 0.08763822
0.030781457 0.060843986 -0.14340124 0.18582447 -0.12452791 0.13248771 -0.12030884 -0.13471586
0.08540491 0.12826222 -0.049716603 0.056052826 -0.16850057 -0.018674323 0.17066571 0.1825313
-0.060942497 0.071363896 0.17714824 0.07237344 0.03572708 -0.15546297 0.053678915 0.052700583
-0.10603868 0.09388034 -0.123552315 0.18700393 -0.013556335 0.13176216 -0.052713767 -0.09816298
0.14159916 0.1158156 0.18828917 0.056452412 -0.08054521 -0.11441021 -0.18361074 0.012271425
0.18618968 -0.067100726 -0.039213046 0.1350855 0.16786988 0.051385466 0.01332073 0.18740536
0.1604562 -0.123382345 -0.13668877 -0.04367174 0.07460625 -0.118506856 -0.08193797 0.017834563
-0.047900822 0.12867573 0.11716496 0.131695 0.10295509 -0.11132166 -0.14734757 -0.12809245
-0.021978714 0.15062879 -0.045430206 0.17868577 0.1461995 -0.18141444 0.08665829 -0.078654915
-0.18343006 0.0667701 -0.06844583 -0.1713326 -0.13472152 0.14252098 -0.045205675 0.14946346
-0.070303515 0.18691298 -0.048776865 0.18391678 0.07390923 -0.14533015 0.08420041 0.07597671
-0.16073468 -0.16682163 0.009784323 0.10343701 0.16363837 -0.052697558 -0.17958131 0.08359324
0.014278291 0.0029769633 0.11977203 0.0250671 0.1659978 0.14568362 0.047071755 0.14303514
0.060692392 -0.18048762 0.17292413 0.005562466 -0.0204495 0.15821306 0.17140566 -0.15235868
0.075501874 -0.10600975 -0.047845077 0.04483642 -0.07044681 -0.08284515 0.09478564 -0.04567848
0.07123022 0.18209933 0.048496757 0.042264886 0.168372 -0.07193494 0.0017577662 -0.17976193
-0.08223315 -0.01268771 0.17433429 0.10878706 -0.03536081 -0.053713612 0.043837715 -0.084521905
-0.029156312 0.04371905 -0.05781827 0.13836037 0.07583304 -0.020450715 -0.03440695 0.01878618
0.101504646 0.052912697 -0.05007118 0.06651246 -0.009457401 -0.14078581 -0.15199672 0.0004199041
0.16626082 -0.07489388 0.12046256 -0.056613915 0.115980536 -0.043948848 -0.07745722 0.05639135
0.10261649 -0.1483451 -0.014324257 0.045150004 0.03389753 0.1869943 -0.16679594 0.16463885
0.10034965 -0.1805015 -0.07183687 0.068302274 -0.14464495 0.17977236 -0.07037496 0.07323503
0.036695555 -0.074495904 -0.1742447 0.015688037 -0.15612847 -0.041292176 0.035323624 -0.06698645
0.10877746 -0.17205995 -0.15340105 0.1001688 -0.099775635 0.15884027 -0.033500075 -0.03289242
0.18415925 -0.016085092 -0.15911873 -0.080456644 0.0586069 0.12986292 0.1614633 -0.0735566
0.030978238 0.13947894 -0.07632582 0.010490216 -0.093235366 0.027136166 0.18310599 0.16241643
-0.12626433 0.095318496 0.17996112 -0.033168066 0.07003778 -0.17523065 0.102430366 -0.038467884
0.17493623 0.13441654 -0.1104596 -0.08560058 -0.1516014 -0.17971292 -0.17286405 0.094326116
0.1280176 -0.1232988 0.13458084 -0.060403936 0.0586077 0.16110218 0.15495043 -0.1534773

model.1.weight f4 [512]
00000000: 8ca2 7e3f 80be 7c3f f61e 793f 75d7 893f
00000010: 14bb 7c3f 1289 6f3f 8035 6f3f a7fc 7f3f
00000020: 70b9 7c3f f946 803f a986 813f 420d 863f
00000030: 2ff1 6f3f d01f 783f 39d3 7c3f 0d32 7f3f
00000040: 81a9 713f deda 863f 4d78 6a3f df99 7a3f
00000050: 6f83 743f 7503 763f cd8a 783f 24fe 733f
00000060: 5a70 6b3f 0314 823f eac1 773f 20e6 793f
00000070: 5d94 7c3f 27e3 863f 2b73 743f 1976 833f
00000080: 8ca8 7c3f 6bb3 823f 1f0d 773f 6865 823f
00000090: a676 773f e96d 853f ab6a 833f dd8b 763f
000000a0: 1ae8 713f ad0f 673f 723d 6f3f 8a76 873f
000000b0: 1019 663f 561c 853f 1dad 783f 0f9d 7a3f
000000c0: b608 723f bea1 7c3f 3c63 823f 66bc 823f
000000d0: 49ad 863f bffe 7b3f c71b 843f 0961 643f
000000e0: 62ff 6b3f 1f11 803f ba54 793f 3266 733f
000000f0: 7026 793f f126 773f 1142 773f 9b6c 803f
00000100: 6ba6 893f 9d9b 8b3f ddd2 863f 9d5c 843f
00000110: 7282 833f ad31 6b3f ffb2 873f b411 783f
00000120: 9e06 6a3f bf04 853f 37fb 7b3f 3adc 7b3f
00000130: 6477 6f3f 372a 693f b2cd 623f 6bd9 883f
00000140: f788 7c3f ec9f 733f 17f1 823f c0e1 8d3f
00000150: e4ad 7a3f f354 783f 6153 7b3f dbc7 793f
00000160: d1f1 863f baf3 7f3f 934a 873f 28be 813f
00000170: 4581 743f 8fe1 783f 2e97 7f3f b1b7 7c3f
00000180: 09a7 703f 8933 7f3f 2980 773f 9676 7e3f
00000190: ba2f 873f a9ba 813f b484 7b3f 365a 6f3f
000001a0: 1481 883f 5914 833f 0937 6f3f 0165 723f
000001b0: 3e8d 883f 9bcf 683f f05b 783f 0f80 7f3f
000001c0: 40c0 783f 04a8 803f 33a8 7c3f c120 713f
000001d0: 4f9b 7a3f c9d6 813f 73a5 703f f56b 803f
000001e0: 89a7 803f 2217 793f 5e04 673f e0cb 803f
000001f0: 23ee 803f 2193 853f bdef 893f c3c0 823f
00000200: b77e 873f 32f3 703f 5eba 793f b84b 6f3f
00000210: b693 863f dc07 783f 4f54 843f fff1 7d3f
00000220: 5daf 6c3f 99af 743f 089f 743f c10a 823f
00000230: a09d 803f 1e0e 883f 6503 743f 8a7b 733f
00000240: 56d0 803f 8a1c 813f 79f7 6a3f c85b 823f
00000250: 4105 863f 1d8b 603f b53c 663f dae3 753f
00000260: a5f8 8b3f 483d 873f d3a6 803f c7c6 703f
00000270: 06aa 783f 3cdb 693f 5f9e 823f 8863 6e3f
00000280: cc3d 873f 1612 7d3f 1f07 813f b8a4 7c3f
00000290: 260f 6d3f 1add 873f 5913 6d3f e9e2 813f
000002a0: 51b9 843f 4126 613f 306d 793f c9fa 693f
000002b0: 590c 763f 59d3 6e3f 6233 753f 95d8 833f
000002c0: bf10 6f3f bd90 8a3f 9361 783f 5da6 883f
000002d0: 228d 773f b2dd 813f 73c2 773f db2d 633f
000002e0: 099a 7a3f b74a 7d3f 3264 7c3f b22d 813f
000002f0: df1d 823f 3e97 893f 2a55 7e3f f795 793f
00000300: 2861 863f a9ec 733f e9e8 7c3f 8611 843f
00000310: 0691 823f 3990 763f e779 7f3f 40b6 723f
00000320: 0b9c 663f cd92 763f d3aa 8a3f d179 753f
00000330: ebe1 7d3f b665 793f 92d6 7f3f fd84 7e3f
00000340: af5a 7f3f 2580 733f 5500 833f 0f20 7e3f
00000350: dc6e 7a3f dd32 843f 9cd9 813f af05 723f
00000360: 2893 723f 0894 8c3f b6b3 853f 1a45 743f
00000370: b478 6f3f 3d2c 673f 83df 6c3f f6db 823f
00000380: 997d 833f 61b0 813f 5de6 813f 9ad0 803f
00000390: deee 6f3f 4591 783f 6a51 843f 5401 713f
000003a0: 9cd5 763f 5d78 703f 2740 6b3f 4179 883f
000003b0: a6c4 723f 2942 803f 2e77 843f 60fe 7e3f
000003c0: 1767 793f 8780 7a3f b419 833f 0286 7e3f
000003d0: 1d8d 693f aa1d 7d3f 86b5 833f 2ab9 7e3f
000003e0: 29b7 663f 6b41 723f 851b 7b3f 602e 743f
000003f0: c2cd 723f d0c5 7b3f 96cc 883f b8b9 5e3f
0.99466777 0.9872818 0.9731287 1.0768877 0.9872296 0.9356853 0.9344101 0.9999489
0.98720455 1.0021659 1.011922 1.0472796 0.9372739 0.9692354 0.987598 0.99685746
0.9439927 1.0535543 0.91589814 0.9789104 0.9551305 0.96099025 0.97086793 0.9530966
0.9196831 1.0162357 0.96780264 0.9761677 0.98663884 1.0538071 0.9548823 1.0270416
0.9869468 1.0211004 0.96504396 1.0187197 0.9666542 1.0424167 1.0266927 0.96307164
0.94494784 0.90258294 0.93453133 1.058305 0.8988199 1.0399272 0.9713915 0.978959
0.9454454 0.986843 1.0186534 1.0213745 1.0521632 0.98435587 1.0320977 0.89210564
0.9218656 1.0005225 0.9739491 0.9507781 0.97324276 0.96543795 0.96585184 1.0033144
1.0753912 1.0906864 1.05331 1.0340763 1.0274184 0.91872674 1.06015 0.9690201
0.9141635 1.0392073 0.984302 0.98382914 0.9354155 0.9108004 0.88595116 1.0691351
0.9864649 0.95165896 1.0229825 1.1084518 0.97921586 0.9700462 0.981741 0.9757058
1.0542547 0.9998127 1.0569633 1.0136156 0.9550975 0.97219175 0.99840057 0.9871779
0.94004875 0.9968801 0.9667993 0.993997 1.056144 1.0135089 0.98249364 0.93497026
1.0664392 1.0240585 0.9344335 0.9468537 1.0668104 0.9094178 0.97015285 0.99804777
0.9716835 1.0051274 0.9869415 0.94190603 0.9789323 1.0143672 0.94002455 1.0032946
1.0051128 0.9730092 0.9024104 1.0062218 1.0072674 1.0435525 1.0776287 1.0215076
1.0585545 0.94121087 0.9755 0.9347491 1.0513828 0.9688699 1.0338229 0.9919738
0.92455083 0.9558044 0.9555516 1.0159532 1.0048103 1.0629308 0.9531768 0.9511038
1.0063579 1.0086834 0.91783863 1.018426 1.0470353 0.8771227 0.8993638 0.960508
1.0935255 1.0565577 1.0050911 0.9405331 0.97134435 0.9135015 1.0204581 0.9312062
1.0565734 0.9885572 1.0080298 0.9868884 0.9260124 1.061435 0.9260765 1.0147372
1.0369054 0.87948996 0.9743223 0.9139829 0.9611259 0.9329124 0.9578153 1.030047
0.9338493 1.0825421 0.97023886 1.067577 0.96699727 1.0145781 0.9678108 0.88741845
0.9789129 0.9894213 0.98590386 1.009207 1.0165366 1.074928 0.993487 0.97494453
1.04984 0.9528299 0.9879289 1.0317848 1.0200508 0.96313816 0.99795383 0.9480934
0.9008185 0.9631775 1.0833381 0.95889 0.9917285 0.97420824 0.99936783 0.99421674
0.9974775 0.9511741 1.0234476 0.9926767 0.9782541 1.0328022 1.0144534 0.9453992
0.9475579 1.0982676 1.0445468 0.9541794 0.93543553 0.9030188 0.9252855 1.0223377
1.0272704 1.0131952 1.0148426 1.006366 0.9372386 0.97096664 1.0337346 0.9414265
0.9641969 0.9393366 0.91894764 1.0662004 0.9483131 1.002019 1.0348871 0.99606895
0.9742293 0.9785237 1.0242219 0.9942323 0.91230947 0.9887339 1.0289772 0.9950129
0.9012323 0.9463107 0.98088866 0.9538326 0.9484521 0.9834871 1.0687435 0.87002134

model.1.bias f4 [512]
00000000: 0454 76bd be62 f0bc 0d6f c1bd 38cb eabc
00000010: f67a 46bd 19cd 82bd 67b9 e1bd c417 913c
00000020: c0a3 03be 40ab 69bd eda4 f2bd 24e6 82bd
00000030: 343e 9fbd 90a0 10ba 472b 1bbd aa7a 81bc
00000040: 871c 42bd dc7b f9bc c74d b5bd fc95 9dbc
00000050: b3e0 f1bd f615 96bd 957b c5bd 69d8 84bd
00000060: 39c4 9ebd 6450 17bd feee 81bd b534 14bd
00000070: 70da 5abd 557b 5d3d e8f8 e3bd 8289 563d
00000080: 898f 4abd 4189 8e3c b72a 5ebd 38dd e2bd
00000090: d3e4 93bd 9d1b 56bb 0d55 f6bc 5800 f0bd
000000a0: f48c 99bd f525 01be 4e2f 4cbd 4b8f 91bd
000000b0: 46e0 03be a6e0 37bd 933e a2bd a941 7ebd
000000c0: 52bc 9cbd 0163 fabc 92e1 e1bd 7a1f adbb
000000d0: bbd2 36bd dfaf a83b 4819 45bd 7478 fbbd
000000e0: 60ea f0bd 2cc9 90bb 00f7 00be 78ae 58bd
000000f0: fad5 d9bc cf98 82bd 1f23 48bc 0f69 4cbd
00000100: fe4d c2bd 8cd7 03bc d8eb 9abd 621b 56bd
00000110: a8ea 8f3c 48d3 18be 2bef bcbc caa7 1dbd
00000120: 229f a4bc 939a 7abc 5a1c c6bd ee55 4cbc
00000130: 4410 a5bd 7f45 93bd 23f5 d0bd 1657 62bd
00000140: 8e4e 3bbd 4d3f 22bd 9811 be3b 27ee 863d
00000150: ddd7 98bc 6913 0dbe f4b7 f5bd 69ee a2bd
00000160: 9df9 8bbd 2fb9 7b3c 2c08 2abd 18e4 babb
00000170: 4a28 d4bd d8ad b5bd 66c3 79bd a223 43bd
00000180: 8b72 37bc 9bad 46bd 6201 91bd 0a6a 9abd
00000190: 3308 64bd b880 03bc eba6 15bd 1a98 b7bd
000001a0: 3949 53bd 0ca6 e63b bf18 a3bd 872b 74bd
000001b0: 1f0b 3dbd 8cb4 eabd bd0f 6dbd ccc7 c5bc
000001c0: 4f71 ecbc d7f8 41bd 594c f0bc 6ddc 87bd
000001d0: 8432 eabc 90dd 21bd 80ac 53bd 82de 963c
000001e0: 4304 37bd 1410 b9bc 5b1a 82bd 2338 72bd
000001f0: 7df3 32bd 69d0 2a3d a58e 7d3b d7e7 4abd
00000200: 0975 46bd 21c7 15bc 5da2 e5bd 8120 a1bd
00000210: efbc f5bd 32e8 6bbd 4d41 9fbd 66ed b4bc
00000220: 3882 97bd 4cb2 853b 9c38 e9bd 9a4d 743c
00000230: 261c b33c 8e11 e4bc 635b 8abd 6f44 ccbd
00000240: 3736 09bc d7c6 aebd 4c46 cabd aed1 88bc
00000250: 7f62 a7bc 7b94 91bd 1595 c5bd 54be 96bd
00000260: 0c77 1cbc 38c7 45bc 01de a6bd fc80 bebd
00000270: 2632 59bc f33c f4bd 44a6 8abc 74ef 3dbd
00000280: 559e 06bc da3c 58bd 74ff 30bd 6ffd 03bd
00000290: dc2a 97bd 2f46 7e3d ff31 9bbd 310f 003c
000002a0: 7623 0cbd e524 acbd 8f6b 21bd 5e96 96bd
000002b0: 2960 42bd f4f7 dcbc 0f82 4abd c5dd b339
000002c0: d0a7 67bc 3985 8dbd 3fa4 aebd 94bb 8d3c
000002d0: 061e d4bb 2184 44bd 2ba4 4bbd 1994 09be
000002e0: d569 b2bc c612 51bd 2127 09bd f5d6 c1bd
000002f0: 2ce8 80bd 49a2 bfbc 160b c2bd 54d6 61bb
00000300: 903e 133d cf63 c4bd 80be 68bd 34fd da3c
00000310: 8438 14bd 2f6f 35bd 86fb 04bd 3aa6 bbbd
00000320: 885e f9bd 26af 73bd 32e0 483d 3a3c 5b3c
00000330: 91e7 39bd 7c15 6ebd 3267 063c 8ca9 b4bd
00000340: 7239 43bc 75bc b7bd bac0 923b 4ba7 49bd
00000350: 4226 33bc 21cb 493d a971 b6bc 1e77 a2bd
00000360: cbea f5bd 0840 3b3c 83c0 fe3c 9b94 b03b
00000370: 5035 52bd 57b3 a9bd 2640 8fbd a951 e43c
00000380: 07bc 1cbd d61d 0dbc 7ffe 72bd 8bc0 b63c
00000390: c8e1 94bd 46c4 08be 2aa8 8fbb 69a0 b63c
000003a0: 5da4 973b 2a05 66bc 2309 f0bd 6904 d93c
000003b0: 001c 81bd 204e 33bd 2e11 51bd 47e8 aebc
000003c0: c282 a1bd 6c9d b7bd 9640 41bd 685b 793b
000003d0: 585d b4bd 9546 52bd 9bfb c8bc 822b 31bb
000003e0: e42d e6bd 57d8 9abd e019 8cbd ec97 bdbd
000003f0: 38a8 95bd 8f3e 57bd 947a f8bc 8a15 1dbe
-0.060138717 -0.029343959 -0.094450094 -0.028661355 -0.04845711 -0.063867755 -0.11021691 0.017711528
-0.12855434 -0.057048082 -0.11847863 -0.06391552 -0.07775536 -0.000551709 -0.03788307 -0.015805561
-0.047390487 -0.030454569 -0.088527255 -0.019236557 -0.11810436 -0.073284075 -0.09642712 -0.064865895
-0.0775227 -0.0369419 -0.06344412 -0.036183078 -0.053430974 0.054072697 -0.111314595 0.05237723
-0.049453292 0.017399432 -0.054239955 -0.110773504 -0.07221379 -0.0032670267 -0.030069852 -0.117188156
-0.07497588 -0.12612136 -0.0498498 -0.07107409 -0.12878522 -0.044891976 -0.07922091 -0.062074337
-0.07653107 -0.030564787 -0.11029352 -0.0052832933 -0.044634562 0.0051479186 -0.048119813 -0.12278834
-0.117634535 -0.004418513 -0.12594223 -0.05290076 -0.02659129 -0.06376802 -0.012215405 -0.04990488
-0.09487532 -0.008046996 -0.07564515 -0.052272208 0.017567948 -0.14924347 -0.023063263 -0.038490094
-0.020095412 -0.015295642 -0.096733764 -0.012471659 -0.08059743 -0.0719099 -0.10203006 -0.055258833
-0.045729212 -0.03961115 0.005800437 0.06588393 -0.01865762 -0.13776936 -0.11997977 -0.079556294
-0.06834719 0.015363975 -0.0415117 -0.0057034604 -0.10359247 -0.08871049 -0.060977362 -0.047641404
-0.011196743 -0.048505407 -0.07080342 -0.075397566 -0.055671882 -0.008026294 -0.03653614 -0.08964558
-0.051583502 0.0070388373 -0.07963704 -0.059611823 -0.046153184 -0.11460218 -0.057876337 -0.024143122
-0.028862623 -0.047356453 -0.02933328 -0.0663384 -0.02858854 -0.03951794 -0.05167818 0.018416647
-0.0446818 -0.022590674 -0.06352683 -0.059135567 -0.04368924 0.04170266 0.003868976 -0.049537506
-0.048451457 -0.009141714 -0.11212609 -0.07867528 -0.11998927 -0.057594486 -0.07776127 -0.022085857
-0.07397884 0.0040800925 -0.113877505 0.01491108 0.021864008 -0.027840402 -0.06755712 -0.0997399
-0.008374742 -0.085340194 -0.09876689 -0.016701546 -0.020432709 -0.071083985 -0.09647576 -0.07360521
-0.009549867 -0.012071423 -0.08147813 -0.093019456 -0.013256585 -0.11925688 -0.016924985 -0.04637094
-0.00821646 -0.052792408 -0.04321237 -0.032224115 -0.07381222 0.06207865 -0.075778954 0.007816122
-0.034213506 -0.084054746 -0.039409216 -0.07352899 -0.047454987 -0.026973702 -0.04944044 0.00034306772
-0.014139131 -0.06910176 -0.08527421 0.017301358 -0.0064733056 -0.04797757 -0.04971711 -0.13435401
-0.02177898 -0.051043294 -0.03348458 -0.09464828 -0.06294283 -0.023392813 -0.09474771 -0.0034460025
0.035948336 -0.095893495 -0.0568223 0.026732065 -0.03618671 -0.044295486 -0.032466434 -0.091625646
-0.121762335 -0.059493206 0.049041934 0.013381058 -0.045386855 -0.058125958 0.008203315 -0.08821401
-0.0119155515 -0.08971492 0.004478541 -0.04923181 -0.010934414 0.049265984 -0.022270994 -0.07932876
-0.12007674 0.01142884 0.031097656 0.005388809 -0.051320374 -0.082861595 -0.06994657 0.02787097
-0.038265254 -0.0086130705 -0.059324738 0.022308609 -0.07269627 -0.13356122 -0.0043840604 0.022293286
0.004627748 -0.014039317 -0.11720493 0.02649136 -0.06304169 -0.043775678 -0.051041774 -0.021350993
-0.07886268 -0.08965573 -0.047180735 0.0038048867 -0.088068664 -0.051336844 -0.024534037 -0.002703399
-0.11239222 -0.07560795 -0.06840873 -0.092574924 -0.07307476 -0.052549895 -0.030331887 -0.15340248

model.1.running_mean f4 [512]
00000000: 897d fe3d 4e31 803e c143 3ebe 6f98 16bf
00000010: 9f87 82be aead 083d 7c2c ff3c 5240 99be
00000020: 2efd 8cbe 1db4 11bf 9938 1abf a11b f83e
00000030: 1ce8 1bbf 9adc eebc 4e62 91be fbe6 403e
00000040: 2702 183e 3ddd 893e 9198 bb3d a680 86be
00000050: 2c00 9d3e 8e6b 48bd 7355 27bd 501c 68be
00000060: 4aa8 303e ec20 f83e b143 80be b057 583e
00000070: 8748 ecbe 14c9 c4bd 4c5a febd 310c 733e
00000080: 9616 113f 8daf 553e 7dca 9ebe f5ce 023d
00000090: fd1d e8bd 7376 a8be 6656 3e3e a11c 003f
000000a0: bbbc 623c bc30 1e3e 31e9 423e ccc5 8fbc
000000b0: 3b87 803e 2b67 483e 6b34 3b3e e582 b73e
000000c0: 04cf e7bb efdf 463c be31 703e 42fd 59be
000000d0: c932 e7be e577 383e 047d 523e c20c 19be
000000e0: fa41 e73e ed9c edbd ff4d 6a3e 20a7 393e
000000f0: f10a 09be 7fcf 8abe 5b3b 31be c907 ba3d
00000100: ba15 363f e93a 22bc 10bb efbe 1c47 ca3d
00000110: 6078 893e ee67 763e d6a4 a4be 3688 fe3e
00000120: 8032 5fbd 990b 42bd 43e9 8bbe 29e7 b6be
00000130: 82e9 9e3e e01f 88be 9dc3 103f 5052 7d3e
00000140: 6440 c0bd 6e6b 653e 4d4f 3dbe ffbc ecbe
00000150: 7370 3ebe f76b 0ebf f6f5 81bd db86 df3d
00000160: d50a f7be b6ed 9b3e 0182 6ebc 064b ad3d
00000170: 4e03 a2be d6da 1e3e 9e6e e2bb 7e2a 8fbe
00000180: f2b6 5b3e 0c9d d2bb dbc1 27bf 9215 12be
00000190: 7255 603d 3ce9 f33e d344 37bf 538b 143e
000001a0: 7a0b a5bd 1a12 283e 44d4 27be 03c4 673e
000001b0: 32ac 0dbe 6a23 bbbe 48c8 1f3d 2a8f d13d
000001c0: 9db2 a6be eeb1 e3bd 86ba 233e 8c32 533e
000001d0: 65a0 133e da82 4dbd 364d 9b3e 484b a83d
000001e0: 68aa 3fbe a157 a03e b20c de3d 1996 5cbe
000001f0: be64 fd3a 70bb c4bc 204b 1d3e 6c2e 92be
00000200: d00a 673c df8d ebbe fcef 313d 447d 6cbe
00000210: b9a2 c73d dc42 ee3b 6046 d23e bf45 9bbe
00000220: 5a44 483d accc 82bb 55bc 7cbd db4f 583e
00000230: 0e37 24bd 313f a53e 0e09 5a3e 306a 753d
00000240: 42c8 47be 471e e13e 2f81 213e 7a9e 883e
00000250: 1d9a a43e 9cfb 333e 7e63 243f d07d c2be
00000260: 31bb 92be 898c 30be 38b7 2cbc 4080 84be
00000270: 069f b639 85c7 823d 267b ae3e dfc7 81be
00000280: 00e7 d6bd 7334 3fbe 16b8 0a3d 2d2b b1be
00000290: a7f3 33be 9b18 0bbf 922c 9ebe 8a8e 833d
000002a0: 62fb 56bc e04b 67bd bcc4 b6be 6707 933e
000002b0: 720d b9bd c8a5 bd3c 17be 493e e5e3 8fbe
000002c0: a0e1 13be a233 83be 5575 803e 20aa 3f3e
000002d0: f4c1 50bd 9272 843e cfea bebe cc76 d73e
000002e0: 7f1a d0bd f75d f33e ea30 5c3e 130a 993b
000002f0: 83e7 e93d 2f14 a73b dde3 8d3e 9ff1 f23e
00000300: 95ce f93d 454b cebe 4592 4dbc d607 403e
00000310: 0909 b1be 31cf 92bc 2002 683e 3df0 b13e
00000320: aa84 b4bd 6c79 afbe bb9e 94be e4e4 f0bb
00000330: 7637 bcbc be4b 2f3e 8c1a 0d3f 4c9b 0d3e
00000340: 1bd0 ce3d 4b45 28be c697 8cbe 7f56 cb3c
00000350: 6372 a0bc bd78 e93e 6175 a4be f4c3 b03e
00000360: 215a c33e 8371 4c3f b067 30be 6dda 33be
00000370: bed9 47be 8751 8c3e fd9d 7a3e acf0 21bf
00000380: 2504 bb3e 783d 49be c07a d1bd 9ac2 bbbd
00000390: e429 413e 0a3f fbbd ea59 a0be 9a0a 36bd
000003a0: ee87 b53d addc 56bd d728 353f 3a04 e3be
000003b0: 086b 3b3e d489 93be 629e 8a3d 5afb 793d
000003c0: e4fb 0f3f cda5 0f3f 601c 1abf 588d 773e
000003d0: 3b18 89be 9c61 4ebd 6d93 b33e 73e6 0ebd
000003e0: fd2b 0d3f 2b0f 273e 5611 7dbd 8222 4f3c
000003f0: 22ee 843d adfe cd3e 16c5 94be 95f5 43be
0.12426288 0.25037616 -0.18580534 -0.58826345 -0.25494096 0.03336876 0.031149141 -0.29931885
-0.2753691 -0.56915456 -0.6024261 0.4845858 -0.60901046 -0.029157925 -0.28395313 0.18838112
0.14844571 0.26926604 0.09159959 -0.26270026 0.30664194 -0.048930697 -0.040852975 -0.2266705
0.17251697 0.48462617 -0.25051644 0.211272 -0.46149084 -0.09608665 -0.124195665 0.2373512
0.5667509 0.20867749 -0.3101386 0.03193565 -0.11333845 -0.3290287 0.18587646 0.50043684
0.013838942 0.15448278 0.19034268 -0.017550372 0.25103173 0.19570605 0.18281715 0.35842052
-0.0070742387 0.012138351 0.23456475 -0.21288016 -0.45155933 0.18014486 0.20555502 -0.14946273
0.45167524 -0.11602197 0.22881316 0.1813016 -0.1338308 -0.27111432 -0.17307799 0.09083516
0.711269 -0.009901741 -0.46822405 0.09876844 0.2684965 0.24063084 -0.3215701 0.49713296
-0.05449152 -0.04737434 -0.27326402 -0.35723236 0.31037527 -0.2658682 0.5654848 0.24738431
-0.093872815 0.22404262 -0.18487282 -0.46237943 -0.18597583 -0.5563349 -0.063457415 0.109143935
-0.48250452 0.30454797 -0.0145573625 0.08461575 -0.31643146 0.15513167 -0.0069101593 -0.27962106
0.21456507 -0.006427413 -0.65530175 -0.14266041 0.054768987 0.4763888 -0.7158939 0.14506273
-0.080588296 0.16413155 -0.16389567 0.22633366 -0.13835219 -0.36550456 0.039009362 0.102323845
-0.32558146 -0.11117922 0.15989122 0.20624751 0.14416654 -0.050173618 0.30332345 0.08217484
-0.18717349 0.31316856 0.10842265 -0.21541633 0.0019332392 -0.024015158 0.15360689 -0.28551042
0.014101699 -0.46006677 0.043441758 -0.2309466 0.09747834 0.007271154 0.41069317 -0.3032665
0.04889331 -0.003991684 -0.061703045 0.21124212 -0.040091567 0.32274774 0.21292517 0.05991572
-0.19509986 0.43968412 0.15771936 0.26683408 0.3214883 0.1757645 0.64214313 -0.37986612
-0.2865844 -0.1724111 -0.01054173 -0.25879097 0.00034832227 0.063857116 0.3407833 -0.25347802
-0.104932785 -0.18672352 0.033866964 -0.34603253 -0.17573415 -0.5433442 -0.3089338 0.064236715
-0.013121458 -0.056468844 -0.3569697 0.28716585 -0.090357676 0.02315034 0.1970142 -0.28103557
-0.14441538 -0.2562533 0.25089517 0.18717241 -0.050966218 0.2586866 -0.3728852 0.42082822
-0.10161304 0.47532627 0.21503034 0.0046703904 0.114211105 0.0050988416 0.27712908 0.47449967
0.121976055 -0.402918 -0.01254708 0.18752989 -0.34577206 -0.017921062 0.2265706 0.347536
-0.08814366 -0.34272325 -0.29027352 -0.0073515046 -0.022975665 0.17118737 0.5511863 0.13828772
0.10098287 -0.16432683 -0.27459544 0.024821518 -0.019585794 0.45599928 -0.32120803 0.345245
0.381547 0.79860705 -0.17227054 -0.17563792 -0.19516656 0.2740595 0.2447433 -0.6325786
0.365266 -0.19652355 -0.10228491 -0.09167977 0.18863636 -0.12267883 -0.313186 -0.044443704
0.08863817 -0.052456547 0.7076544 -0.44339162 0.18302548 -0.28816092 0.067684904 0.061030723
0.5624373 0.56112367 -0.60199547 0.24175012 -0.267763 -0.050386056 0.35073414 -0.034887742
0.55145246 0.1631438 -0.06178411 0.012642505 0.06490733 0.40233365 -0.29056615 -0.19136651

model.1.running_var f4 [512]
00000000: f15e ba3c 7a66 d13b 48c1 d43c 3044 fe3b
00000010: c5c9 bb3c f7b4 013d 6d19 1a3c d8b7 cb3c
00000020: 6208 a23c 3079 663c 2348 9c3c c886 103c
00000030: 9792 0a3d 2a12 cc3c 881a 083c e6ee c43c
00000040: 927c f13c 28a9 203c 4068 d93c a0ad 2c3d
00000050: f51d a53c 8a74 bd3c 5e0d 3e3c 8561 993c
00000060: f56e 063d d484 2c3c 574d 0b3d 3258 6e3c
00000070: 625f 0f3c 9f95 e03c e7e9 063d f1d7 fa3b
00000080: e785 8d3c 3c0f 5b3c f3c5 703c 5a58 323c
00000090: 5610 db3c 587b 953c b78f e23b d07d 953c
000000a0: 63af a53c c839 213d 5e2c 863c 7abe bd3b
000000b0: fb8a 4f3c 0f69 183c aef1 ec3b 963c 073d
000000c0: 5605 d03c 8550 863c 020f 2c3c de55 423c
000000d0: a1ce 763c 9d19 9d3c a55e eb3b 7828 473d
000000e0: 0dac 353d a48d 693c 7d4f fa3b 5b0d a23c
000000f0: 73b6 843c edfe 8f3c 689d 4c3d 1b3d 213d
00000100: a4b1 f53b 0dc7 243c 8ab8 9a3c de9c 823c
00000110: 1c36 263c 2286 ad3c 5668 a33c d807 613c
00000120: 00fb 623c e576 5f3b cb32 0a3c 3b75 493c
00000130: 527c c83c 4300 703c 4c30 003d 453d 593c
00000140: 1d09 bc3c d20d cd3c a6f5 d23b 98cf 8b3b
00000150: 89ff e33c da21 ee3c 2e43 a93c 5cd4 a83c
00000160: 52ec 973c 73d8 483c e898 3b3c 077a f53c
00000170: 37b5 913c a12e ea3c 0415 513c 66a6 353c
00000180: 14e3 1e3d a0c7 573c c8d9 ba3c b054 bf3c
00000190: d710 533c 049e 943c 65d7 843c 2a8c 7b3c
000001a0: 9e01 0d3c 69a6 333d 799f 5a3c ec59 c03b
000001b0: 8dce f13b c3a1 fc3c d6fd 423c e21b 933c
000001c0: 247c 443c 7738 e43c 7b42 b23c 935d 113d
000001d0: 30bc 723c ab26 1d3c 7205 313d b70b 9f3c
000001e0: ae02 083c a493 843c 7d39 113c 5182 bc3b
000001f0: 3bfe ca3c addc fc3b 6cfd 183c 303b 1e3d
00000200: 4a6e 5b3c 0cba 693c f7ae 0c3d 9549 8a3c
00000210: faef 8e3c cef7 e83c d1e8 343c 9d68 413c
00000220: 186b db3c fe6a fa3c ddac fe3b bfba 8d3c
00000230: 1ebb e73c 2756 b83b 2fa4 c03c d652 353d
00000240: 4238 dc3c 2377 263c 4a6b 883c 15ba e83b
00000250: 2c34 c63b 06cf 783c db80 893c 4c58 ca3c
00000260: 661b 343c d8cb a03c e911 893c 8ba1 893c
00000270: bfa0 973c 6fa9 2d3c 5f30 be3c fb20 ce3c
00000280: 8059 1f3c 47a8 d43b 9d59 963c 5ce7 8b3c
00000290: e65c 733d e6eb 993c 6290 043d 16eb ad3c
000002a0: ef54 273c 85fb 853c c04d 9c3c 70ef 453d
000002b0: 5c9e d03b b264 863c 8fc9 a93c 4afc 883c
000002c0: aba6 963c 2d91 583c def7 723c 1116 073c
000002d0: 48f3 253c b9a1 3e3c 60ca 563c 5eeb 003d
000002e0: a67d a33c d6f9 803c e386 d13c 740e a43c
000002f0: 7039 a63c d077 2b3c 31f0 fb3c 6ae2 7e3d
00000300: 4ed9 103c 7693 aa3c bba6 ae3c 8c6d e43b
00000310: f4d9 2e3c 419f b03c 9045 813c cd56 df3c
00000320: 25a1 db3c 3265 743d 2477 f93b fb5f d73c
00000330: 12dc 563c 1020 2c3c a8ed 623c 4e8e 913c
00000340: 1cc8 173c 0277 bd3c d672 023c 0ab5 593c
00000350: 2a9b 7a3c f2e2 803c 01e9 383c aea4 ee3c
00000360: f2d7 dc3c 6114 203c fb0f e73b 9e88 af3c
00000370: d4cc b03c 4281 113d 800b 923d 2a95 a13c
00000380: 03a3 3c3c 14ca 2d3c 048b 8e3c 79fb e73c
00000390: 75ee 983c 23aa 6c3c fa5b 393c 8856 7f3c
000003a0: 53f2 ee3c 895d 773c 535d ce3c e9ec 863c
000003b0: 44e6 0f3d d3ba 463c f710 613c 98fb 203c
000003c0: f71d cc3c 244b 5f3c 2cd7 823c 5f49 bf3c
000003d0: e534 523d 9a3d 653c 0f12 863c 188b 113c
000003e0: 7113 ca3c 0310 ef3c 1f00 d13c d5a1 383c
000003f0: 9249 093d 6a9f 803c 6fb4 363c 25ac 953c
0.02275035 0.00639039 0.02597107 0.0077595934 0.02292336 0.031666722 0.009405476 0.024867937
0.019779388 0.014066979 0.019077366 0.008821197 0.033831205 0.024911005 0.008307107 0.024039697
0.029478345 0.009805955 0.026538968 0.04215777 0.020155886 0.02312686 0.011599867 0.018723259
0.03282066 0.010529716 0.034009304 0.014547395 0.008750768 0.027415095 0.03293791 0.0076551368
0.017275764 0.013370331 0.014695632 0.0108853225 0.026741188 0.018247291 0.006914105 0.018248469
0.020225232 0.039361745 0.016378578 0.005790529 0.012667413 0.009302392 0.007230959 0.033016764
0.02539317 0.016395817 0.010501625 0.011861293 0.015063913 0.019177252 0.0071829134 0.04862258
0.044353534 0.014254961 0.0076388703 0.019781759 0.01620028 0.017577613 0.0499548 0.039364915
0.007497983 0.010057223 0.018886823 0.01594394 0.010144737 0.021182124 0.019947212 0.01373478
0.013853788 0.0034097966 0.008434962 0.012296016 0.024473343 0.0146485 0.03129606 0.013259237
0.022953564 0.025031004 0.006437975 0.0042666905 0.02783181 0.029068876 0.020661917 0.020609073
0.018545303 0.012258637 0.01145003 0.029965414 0.017786605 0.028586688 0.012761358 0.011087036
0.038790777 0.013170153 0.022808924 0.023355812 0.012882433 0.018141754 0.01621599 0.015353242
0.008606343 0.043859873 0.013343685 0.0058700945 0.007379359 0.030838853 0.0119013395 0.017957631
0.011992488 0.027858956 0.021760216 0.03548963 0.014815375 0.009591739 0.043218084 0.019414766
0.00830142 0.016183682 0.008863804 0.0057528396 0.02477943 0.0077167363 0.009337764 0.038630664
0.013392994 0.014265548 0.034346547 0.01688079 0.017448414 0.028438475 0.011041836 0.011804727
0.026784465 0.030568596 0.0077720718 0.017300962 0.028287467 0.0056255045 0.023515789 0.04426845
0.026882295 0.01016024 0.016652722 0.007102261 0.0060487 0.015186077 0.016785076 0.024700306
0.01099286 0.01962845 0.016732173 0.016800663 0.018509267 0.010599478 0.023216425 0.02516221
0.009725928 0.006489787 0.018353278 0.017078094 0.059414767 0.018789243 0.032364257 0.021230262
0.010213121 0.016355285 0.019080043 0.04832405 0.006366534 0.016405437 0.020725993 0.016721863
0.01839002 0.013218206 0.014829604 0.008245007 0.010128804 0.011635237 0.013109773 0.031474464
0.019957375 0.015744131 0.025577014 0.020026423 0.02029106 0.010465577 0.03075418 0.062227644
0.008840872 0.020822268 0.021319738 0.006971067 0.010672081 0.021560313 0.01578024 0.02726307
0.026810238 0.05966682 0.0076130796 0.026290884 0.013113992 0.010505691 0.013850607 0.017768051
0.009264018 0.023128036 0.007961949 0.013287792 0.015295783 0.015733216 0.011286021 0.02913126
0.02695844 0.009770484 0.0070514656 0.021427449 0.021582045 0.03552366 0.071311 0.019724447
0.011513474 0.010607261 0.017400272 0.028318154 0.018668393 0.014444861 0.011313433 0.0155845955
0.029168284 0.015097984 0.025190985 0.01647039 0.035131708 0.012129503 0.013736955 0.00982561
0.024916632 0.013628755 0.015971743 0.023350416 0.051319975 0.013991738 0.016366033 0.00888326
0.024667474 0.02918244 0.025512753 0.0112690525 0.033517428 0.015701015 0.011151417 0.018270561

model.3.weight f4 [256, 512]
00000000: eccb ddbc 3b08 f63c 4642 b73c 6dfd 85bd
00000010: d69f 753b 1362 6f3a 187b 2fbd 6544 a23c
00000020: c41b 4f3d 2806 073b bb2a 66bb 2c5f 463d
00000030: 3d64 d43c c1f1 9b3d 67ee ce3c 9f28 eebc
00000040: aa4c 3d3d cb17 043c c643 03bd 3c04 1d3d
00000050: 2063 1a3d b6f6 8a3d 94b3 72bd b312 e7bc
00000060: 7c07 163d ff66 8bbc 8189 293d ae01 733c
00000070: 9c20 1f3c 9e80 1d3b 92eb 533c bb2d b7bc
00000080: 2ff8 8fbc e86d 473c f7fa 0ebd 45a2 6a3d
00000090: f6f2 883c dc1f 5fbd 64f6 c13c 419a 82bd
000000a0: b234 013d 4083 48bc 3037 fb3c 8f50 39bc
000000b0: f0e6 86bc 5d2d 983d 39ef c93c 93ca 013d
000000c0: 3862 f5bc 1959 893d 7f80 e8bb 5698 97bc
000000d0: 6988 70bd f7f3 953c 53f4 8e3d 432f 0cbc
000000e0: ce0c 893c f07a 63bc c48a 87bc b4bf 02bd
000000f0: f232 103d 095b 0b3d 071f db3c 6b7a ac3d
00000100: bcda d6bc d274 4d3d e447 1dbd f0e6 713d
00000110: 1efb c13c b298 3dbd 04df 373d 726e 43bd
00000120: 4112 88bd 3f6b bcbc f4af 2b3d a5a8 033c
00000130: 3f05 9f3c 4e47 113b ecd4 fbbc 23ae 743c
00000140: 85d6 96bc f376 273d 80ab d33b 0790 0cbd
00000150: b51b a0bc 83ca 3cbd 928d 943c b7c8 853a
00000160: 3cc2 cd3c 5491 07bd 17a1 09bd 2d70 a93b
00000170: 5f1a f23c fb4f 46bd 0893 04bc d75d cabc
00000180: 8a71 0b3d 0c45 303d e4a1 1f3d 7317 a53c
00000190: d5c2 0dbd 29bc e53d ea69 e9bc 6d37 cdbc
000001a0: aca5 16bd 0fef 62bc da66 ab3c 338e b1bd
000001b0: 2000 833c 3225 8cbc de86 85bc 5a04 0f3d
000001c0: ed1d 0ebd 83e3 cebc 5c9e 1a3d fdd0 bc3c
000001d0: 4465 a33d fff4 9c3d ef0e e6bc a237 25bc
000001e0: 2da1 6b3c 97eb eb3c d0b8 4dbc 6dc7 263c
000001f0: e5b8 a5bc 6ebf a2bd cfba c33c 7e3f 303d
00000200: 5153 8a3d 0ebb 153d 328a 3dbc 8c4a 95bc
00000210: 1ef5 803c 36e2 b6bb 2b04 bbbc ada7 ba3c
00000220: c582 433d 8100 1bbd 2013 39bd 90eb babb
00000230: 7eff 08bd ca0d 5e3b 9bfc 07bd 1a88 973c
00000240: 21c0 873c 3879 4fbc 311f 663c 4bee 583d
00000250: 56e6 dc3c abed 27bc 8a5b 73bc 3a31 58bd
00000260: bde4 273c 6461 e7b9 4d5c bebd a945 d2bb
00000270: 83fb 33bd f139 853d 6b40 2b3d 3aa1 efbc
00000280: 2910 8b3d 0ab2 3fbd c39c dd3c 91e3 b5bb
00000290: 91c1 c93c 5ef0 473d fe89 a73c da42 51bc
000002a0: 97f1 5d3d 7e3c 293d 6cbf 3a3b 3be9 813d
000002b0: 639c a0bd e157 14bd 60b2 b4bc 117d b8bd
000002c0: 10d2 353d 313b a03b acb8 55bc a655 803d
000002d0: dddc efbc 89df 193d aab3 553d cf4b 35bd
000002e0: 4231 4e3c b825 95bc 7e10 1a3d 8c00 76bd
000002f0: 3382 9bba 94b3 663d f29c 68bd dafc d83c
00000300: b214 5639 02a6 eb3b 5007 933b 64d0 533d
00000310: c8e3 13bd 1af3 bcbc bd25 373d 53f2 133c
00000320: 8ce3 a9bc 06d0 9cbc e127 69bc b0f2 dcba
00000330: 47e5 3bbd 1fad f23a fc5e 233d a2df f03a
00000340: 0b4e 20bd 18a7 5aba f983 953d 12f1 a03b
00000350: 6c98 d6bc 2180 4e3b af88 f2bc b85c 453d
00000360: 3f69 08bd bc0e fa3b 9477 a83a fec9 a3bb
00000370: 73c3 d4bc 25f4 47bd f7f7 04bd b4cc b73b
00000380: 1438 87bd 11ef 64bc 703f d83c b1e8 e63b
00000390: 91c5 ce3c 6ceb 18bd 0d59 cfbc 0ae2 1ebd
000003a0: aaf2 b1bc e8d1 0bbd cfc0 10bd f7a0 04bb
000003b0: e13c 84bb 9d23 f93b 0897 32bb 7dc8 febb
000003c0: 455f 5d3d dd6c 36bd 0eb2 05bd 7c48 913b
000003d0: 0030 f53c f1d2 dfbc fd57 fb3c a75b 73bd
000003e0: 9742 b7bb 218c 5b3c e18d 8ebc 2691 85bc
000003f0: c91e 24bd 2ce6 7ebb 4974 b9bc bff7 a03b
-0.027074777 0.030033221 0.022370469 -0.06542478 0.0037479303 0.00091317407 -0.042842 0.019808004
0.05056359 0.0020603035 -0.0035120684 0.048430607 0.025926704 0.0761447 0.025260163 -0.029072104
0.04621569 0.008062313 -0.032047056 0.038334116 0.03769219 0.067853376 -0.05925329 -0.028207159
0.03662823 -0.017016886 0.0413909 0.014831943 0.0097123645 0.002403296 0.012934582 -0.022360673
-0.017574398 0.0121722 -0.034907307 0.05728366 0.016717415 -0.054473743 0.023677059 -0.06377078
0.031544395 -0.012238324 0.030665964 -0.011310711 -0.016467541 0.07430527 0.024650203 0.03168733
-0.02995406 0.06706447 -0.007095396 -0.018505257 -0.05872384 0.018304808 0.06980195 -0.00855619
0.016729739 -0.013884291 -0.01654566 -0.031921104 0.035204835 0.034022365 0.026748193 0.08421787
-0.026227348 0.050160237 -0.03839864 0.05905813 0.023679312 -0.0462882 0.04489042 -0.04771275
-0.06644107 -0.023000358 0.04191585 0.008035813 0.019411681 0.0022167745 -0.030741177 0.014934096
-0.018412838 0.040884923 0.0064596534 -0.034317043 -0.019544462 -0.046091568 0.018133912 0.0010206912
0.025117032 -0.03309758 -0.033600893 0.005170843 0.02955359 -0.04841612 -0.008091696 -0.02470295
0.034043826 0.0430346 0.03897275 0.020152783 -0.034609634 0.11217529 -0.028492887 -0.025050843
-0.03677909 -0.013850941 0.020923067 -0.086697005 0.01599127 -0.01710758 -0.016299661 0.03491626
-0.03469651 -0.02525497 0.03774868 0.023048872 0.07978299 0.07663917 -0.028083293 -0.010084065
0.014381689 0.028798861 -0.01255627 0.010179383 -0.020229766 -0.079466686 0.023892788 0.0430293
0.067541726 0.036555342 -0.011568593 -0.018224023 0.015741881 -0.0055811657 -0.022829136 0.022785032
0.047732133 -0.037842277 -0.045184255 -0.005704351 -0.03344678 0.003388273 -0.033199888 0.018497515
0.016571106 -0.012663178 0.014045523 0.05296163 0.026965301 -0.010249536 -0.014853368 -0.05278132
0.010247407 -0.00044132315 -0.09294949 -0.0064169955 -0.043941032 0.06505192 0.04180948 -0.029251684
0.06790192 -0.04680065 0.027052289 -0.0055508097 0.024628432 0.048813216 0.020451542 -0.012772286
0.054185476 0.041317455 0.0028495444 0.06343313 -0.078423284 -0.03621662 -0.022057712 -0.090082295
0.044389784 0.0048898687 -0.0130445175 0.06266336 -0.02928012 0.037566695 0.052173294 -0.04426175
0.012584986 -0.018206462 0.037613384 -0.060059115 -0.0011864364 0.056323603 -0.0567903 0.026487757
0.0002041634 0.0071914205 0.0044869557 0.05171241 -0.0361059 -0.023065139 0.044713724 0.009029943
-0.020738386 -0.019142162 -0.014230699 -0.0016856994 -0.045872953 0.0018514729 0.039885506 0.0018377195
-0.039136928 -0.0008340939 0.073005624 0.0049115503 -0.026195727 0.0031509476 -0.029606191 0.048184127
-0.033303495 0.007631151 0.001285302 -0.0049984446 -0.025972104 -0.04881682 -0.03246304 0.0056091193
-0.06602493 -0.0139730135 0.026397437 0.007046782 0.025240691 -0.03733389 -0.025311017 -0.038789786
-0.021722157 -0.03413573 -0.035340127 -0.0020237544 -0.0040355776 0.0076031224 -0.0027250666 -0.007775365
0.054045934 -0.044537414 -0.03264051 0.0044336896 0.029930115 -0.027322264 0.030681605 -0.05941358
-0.005592655 0.013400109 -0.017401638 -0.016304564 -0.04006842 -0.0038894517 -0.022638457 0.004912346

model.3.bias f4 [256]
00000000: 32a2 3d3c a0c4 8fbc 5142 353b 8c57 443c
00000010: e3b1 2d3d 3d27 5aba 59c8 c73c 2fb1 1a3c
00000020: dace 593c d402 3d3c ecfb 123c 3690 873c
00000030: 4f7e 06bd 0615 5e3c 093d 933c 5ece c03c
00000040: 6fa5 0bbd e906 143d 5768 bbbc 2d9b 06bc
00000050: b7e6 bc3a 728e 693b 5c24 ce3c 1f94 e83c
00000060: 19d0 333d 6b92 333c 5fc3 683b 0ec1 cc3a
00000070: 120d 113c 0740 88bc e5c1 5fbc dfad 2c3d
00000080: e156 143d c513 013b 9d97 ccbc 4a8a acbc
00000090: fa8d e5bc 08f1 86bc f467 a5bc ce30 203d
000000a0: 9447 c8bc 6852 cf3c 39c7 02bd bc56 18bc
000000b0: cb30 55bc 93ff d2bc 7d60 183b a2c8 fd3c
000000c0: 7760 f83c 2999 f73c 4681 b53b c219 30bd
000000d0: 0f2e a2bc 0337 0c3d 29a8 b8bc f371 ac3c
000000e0: 744e 40bc ef0c c0bc 6aa1 823b 4414 e9bc
000000f0: 6de8 183d 6bba f3bc e8b9 9abc 5a41 933c
00000100: 6087 b3bc 35fe 28bd d316 a2bc b4fc 3439
00000110: 344d 143d 7fd6 3dbc add3 c8bc 681b 29bd
00000120: b8c0 ddbc 2f28 06bd ea4e cebc 1df9 e4bb
00000130: 1bca ee3c f25e 843b 1cff d23c 2463 293d
00000140: 8bad 44bc 90a0 173d 4b38 b5bc d537 4bbc
00000150: a4e3 1d3d 3aba 04bd 5744 acbc 6e75 103d
00000160: b878 0c3d 97d0 0f3b f1a0 febc 6a0d 013d
00000170: 9513 8a3b c9cf b8bc e958 5abc 4135 babb
00000180: 54b1 9a3c ddcd 45bb 3979 0b3d 5b87 0bbd
00000190: c0fc 01bd c600 cebc 8de3 0ebd bb0d c93b
000001a0: 02a1 b6bc 6048 87bc cc24 273c 6006 3dbc
000001b0: 197f e0bb 7bc2 05bd bdbe de3c 4511 aa3c
000001c0: 1ca1 ddbc 2453 d5bc 7f4c e7bc 26c0 99bc
000001d0: 46e7 0dbd d238 143d 448b a3bb 6d3c 2ebd
000001e0: aa18 193d 9741 79bc 723f f6bc 8896 c63b
000001f0: 47d9 ae3c 4331 62bc 8ea9 a23c 3139 323d
00000200: 3ad9 013c 31dc 043d c302 0f3d 26cb 283d
00000210: 4f05 9f3c 6b28 f5bc 945e 0c3d a27c 56bc
00000220: 8caf c33c 6c72 253d c51c 053d 3d29 16bc
00000230: 216e fabc 166b b8bc 6124 fb3b 71a4 f73c
00000240: 7c44 23bd 8c91 7d3a 4e88 5abc a00e 0bbc
00000250: 1215 01bd 238e 8cbc 6673 a83c 0a90 c23c
00000260: d6ce f3bc 5f3d a63c e659 753c d638 e7bc
00000270: 36ed 9a3c 66af 173c 751c f3bc 3cc0 283d
00000280: 2578 9b3b cff4 983c 7ef7 28bd c5a4 433b
00000290: 9804 203d 4df3 f7bc 6e27 413b 71d6 05bc
000002a0: d7fa 263d f084 b4bc b4b3 20bd 10b8 8ebc
000002b0: 1c79 51bc 3fd8 a0bc 5dbc 6c3c b923 153d
000002c0: c592 353d 810c a1bc 4f14 253d 97cb 7e3c
000002d0: ea4d 92ba e69b 2a3d c257 c33c 7926 193d
000002e0: 848b 643c 145a e53b 764d 8c3c 118c 07bc
000002f0: a540 3abc fbc4 c5bc e7e2 0a3d 5f79 7e3c
00000300: a27c c23c 30c2 ca39 e46c 283d fb1d 1f3d
00000310: cd2b ee3c 278b 3ebc b529 203d 1b03 2ebc
00000320: a468 a9bc fc2e 8e3c becf c33c 00d0 25bd
00000330: 7d97 7d3c a1ed 2f3d 5f47 e1bc cbbd bc3c
00000340: ea40 9d3c b525 1ebd 14a8 033c c5db 26bd
00000350: 3e84 283d 952a 353b 8ebc cdbc 2eae 8fbc
00000360: 22d5 f03c dabb f33c 68ee e03c 9775 6c3c
00000370: 9756 78bc d581 043c 961e 00bd eb28 ebbb
00000380: 14df 353c 0c77 17bd f477 f9bb 1276 9f3c
00000390: 1bbe 5c3c 9bf6 c83c cb65 26bd b910 083d
000003a0: b114 97ba fd05 8b3c 860e c7bc e186 c63c
000003b0: 5d9e c23a e972 8d3c a126 853c 01fe e5bc
000003c0: cf20 233d 76ee 1b3d 8532 f33c 5525 85bc
000003d0: 540a d7bc 7b3e 023d 4590 edbc 9cde d43c
000003e0: e8e6 2dbd 2caf 4e3c b496 303b 703b 23bd
000003f0: 8409 283d d9f3 c3bb 9595 08bd 7fa0 1ebd
0.011574315 -0.017549813 0.0027657936 0.011983763 0.042405974 -0.0008321887 0.024387525 0.009441658
0.013293946 0.011536319 0.008971196 0.016548257 -0.0328353 0.013554817 0.01797344 0.023535904
-0.034093317 0.036139403 -0.022876902 -0.008215708 0.001441202 0.0035637883 0.025163822 0.028390942
0.04389963 0.010960202 0.003551684 0.00156215 0.008853214 -0.016632093 -0.013657068 0.042158004
0.036215667 0.0019695621 -0.024974639 -0.021062035 -0.028021801 -0.016472355 -0.02019117 0.039109044
-0.024448194 0.025307849 -0.031928275 -0.009298023 -0.013012121 -0.025756633 0.002325087 0.030979458
0.030319436 0.0302244 0.0055390922 -0.042993315 -0.019797353 0.03423215 -0.022541123 0.021050429
-0.011737455 -0.023443667 0.003986527 -0.028452046 0.037331033 -0.029751977 -0.018887475 0.017975498
-0.021915138 -0.041258056 -0.019786274 0.00017260277 0.03620644 -0.011586784 -0.024514997 -0.041285902
-0.027069435 -0.032753166 -0.025184114 -0.0069877044 0.029149106 0.0040396387 0.025756411 0.041354313
-0.0120042665 0.03701836 -0.02212157 -0.012403448 0.038547173 -0.032404162 -0.02102868 0.03526824
0.034294814 0.0021944398 -0.031082602 0.031506933 0.00421376 -0.022560017 -0.013326862 -0.005682618
0.018883385 -0.0030182519 0.034051154 -0.034064632 -0.03173518 -0.025146853 -0.034884978 0.00613567
-0.022293571 -0.016514003 0.010201644 -0.011537164 -0.0068510887 -0.032656174 0.02719056 0.020760188
-0.027054362 -0.026040621 -0.028234718 -0.018768381 -0.034644388 0.036187 -0.004990967 -0.042538095
0.037377037 -0.015213392 -0.03005955 0.006060425 0.02134384 -0.01380569 0.01985624 0.043511573
0.007925326 0.032436553 0.034914743 0.041209362 0.019411711 -0.0299265 0.034269884 -0.013091238
0.023887418 0.040392324 0.03249814 -0.009165105 -0.030570092 -0.022512 0.007664249 0.030229779
-0.039860234 0.0009672872 -0.013338162 -0.008487374 -0.031514235 -0.01715762 0.020562839 0.023750324
-0.029761713 0.020292936 0.014975047 -0.028225344 0.01891194 0.009258127 -0.029676655 0.041198954
0.004744547 0.018671421 -0.041251652 0.002985285 0.03906688 -0.030267382 0.0029472965 -0.008168803
0.040766563 -0.022036046 -0.03923388 -0.017421752 -0.012785222 -0.019634364 0.014449206 0.03641102
0.044329423 -0.019659283 0.04030257 0.015551469 -0.0011162136 0.041652583 0.023845557 0.037390206
0.013949279 0.0069992635 0.01712678 -0.0082731405 -0.0113679515 -0.02414178 0.033907797 0.015531867
0.02374107 0.00038673123 0.04111947 0.03884695 0.02907362 -0.011629856 0.039102275 -0.010620858
-0.02067978 0.017356388 0.02390277 -0.040481567 0.015478012 0.04295123 -0.027499853 0.02303972
0.019195992 -0.03861018 0.008035678 -0.040736932 0.04114174 0.002764379 -0.025114324 -0.01753911
0.029398505 0.02975266 0.027457431 0.0144323325 -0.015157363 0.008087595 -0.03127917 -0.0071765087
0.011100549 -0.036978766 -0.0076131765 0.01946548 0.013473059 0.024531653 -0.04062442 0.033219073
-0.0011526552 0.016970629 -0.024298918 0.024234237 0.0014848221 0.017266707 0.016253771 -0.02807522
0.03982621 0.03806921 0.029687176 -0.016253153 -0.026250042 0.031797867 -0.028999457 0.025985055
-0.042456537 0.012615006 0.0026945295 -0.039851606 0.0410247 -0.0059799966 -0.033345778 -0.03872728
