best-model-multiclass.pth (torch, 734015 bytes, 21 tensors)

loss_fn.weight f4 [6]
00000000: 0000 8040 0000 8040 0000 0040 0000 4040
00000010: 0000 a040 0000 a040
4.0 4.0 2.0 3.0 5.0 5.0

model.0.weight f4 [512, 24]
00000000: 0b06 0d3e 42a6 183e e3dc 81bd 85b0 3b3e
00000010: 299d 37bd ff49 9c3c f14c d8bd e616 423e
00000020: b03f 3e3e 647e 44be a0d4 603e b38c 963d
00000030: 9636 b83d aa1b 483c 075d 6a3d 39fe 80bd
00000040: 8548 e03d 8390 6abb b6f5 fbbd 6e84 863d
00000050: 33b6 76bd 0079 0b3c 7b81 26bd 582e 923e
00000060: a324 2abe 97c4 c6bd 00b2 59bc a53a 95bd
00000070: 8e98 423d aecc 19be 6bd6 393e 86a3 6cbe
00000080: 6561 fd3d 211a 4c3d c138 a8bd be0c d13d
00000090: 54ce 183d 1717 533e 1abc 393d 5fc6 c6bd
000000a0: 1d0f 2f3d f831 b1bc 9736 fc3d fd5d 4d3e
000000b0: a073 d13d 53b4 e4bd fdd4 f83d 9679 563e
000000c0: 0917 903d 21d1 22be bea8 54be e2cd d9bd
000000d0: 6471 e8bd ed4a 1f3e b22b 9e3d 09ef 8c3d
000000e0: d62a 9e3d d8ff 2cbd 5f32 4b3e 3adc 4ebe
000000f0: 02f5 023c 9748 1ebe 2fa6 923d 7186 24bd
00000100: 0768 4d3d 41b6 32bd 478d 233e cac0 91bd
00000110: 5acb 38bd 2761 16be 7dc2 5b3e cefb 94bd
00000120: dbc9 323e 872f 40be 1579 12be 9b34 edbd
00000130: d8e7 cbbd c6f2 133e 20ab 2d3d 86c3 273e
00000140: bb84 edbd 239b d3bd ee6c 943d 0f62 e5bd
00000150: 724c 0e3e 0e69 f43c c2a0 3b3e 552e 2dbe
00000160: 6f04 eebd a4aa ee3d 8822 003e d5cb 7abc
00000170: 67a4 c43d e23e 163e 3b13 91bd b46c 9dbe
00000180: 9532 3c3e 9bfc 95bd 1320 e9bd f1e9 5fbe
00000190: ed1a e7bd aafc 8e3b 6dc5 043d 9484 0fbe
000001a0: 1b32 dabc 8544 36be c4d8 09be 4155 1fbd
000001b0: 132c 3ebe d1a6 40be 4511 363e b75b 763d
000001c0: 48fb cd3d 65cd 8bbe d351 48be 0d30 9fbd
000001d0: 8053 3c3d 73be 18be 4ecb 78bd b24e b1bd
000001e0: 0307 9e3d 8a6e 1d38 87c0 8fbb 17c9 37be
000001f0: a7e4 cabd 3f9b e6bd 9b45 91bd e7d1 f4bd
00000200: 9c57 3d3e 2b7f 9cbd 7d9b 583e 4a3e 7c3d
00000210: a9bc 5abe b65a 033e 324e a6bc cdcc c5bd
00000220: f5f4 1abe 9fbb 72be ecf2 ae3c 85ce 71bd
00000230: 7618 d63d 32d6 0cbe a6af e83d f5e0 14be
00000240: ac96 25bd b043 0c3d 862a c83d e92e 0f3e
00000250: 1c2f 5b3e a9c6 2dbe 2e5a c73c 179a c9bd
00000260: 5358 87bb 07e1 efbd d1e0 193e 9876 57be
00000270: 5499 813d 90b0 e33c a3ab 993d 2ea3 d7bd
00000280: ae9c 3c3e 8df0 4b3d 9321 cf3c 5f91 3abe
00000290: 5e53 d43d 0954 1fbd e2cb 31bd 831b cf3e
000002a0: fa5c 183e d54d 70bc 3f3c 52be 41f0 bbbd
000002b0: d917 b33d a472 18be ff19 79bd c4c0 6dbd
000002c0: 6ee3 0cbe 56e7 f03d 16c5 e73d 1ba1 a4be
000002d0: a556 1d3d 342d 443b aa27 09bb 8963 7fbd
000002e0: dbef c03d f7d0 b63d 3d75 7e3d ca41 c0bc
000002f0: c8b0 cfbc 3c72 4f3d 3160 cbbc e190 7abd
00000300: cfed 2a3e 4c42 583e f2f9 11bd 3402 62bd
00000310: 3381 23bb 3879 cdbc 007c f33d 1a85 c23d
00000320: 5009 cebd c21c abbd 8671 383e 2814 f63d
00000330: ea03 24bd 8bdc 1cbe 8ce0 12be fbf6 28be
00000340: 1741 7cbd c1ac 0f3d 4bf4 643d 868a bf3d
00000350: 45a0 1dbe 17a2 bfbd b11a 7ebd 8631 b93e
00000360: 8162 cd3c 1feb 69bd f9cb c83d ae5a 93bd
00000370: 0a9e 1fbe 7861 293e 857a b1bd 0be6 bfbd
00000380: c4e8 30be 5945 3b3e 79f8 dd3d 80d8 f43c
00000390: cb27 b6bd 0c23 45be cb72 2bbe 5162 403e
000003a0: 7f10 fd3d e7b1 1e3e a557 ee3d cfb6 153d
000003b0: 95ca 93bc d225 2bbe 4e40 52be 627a 87be
000003c0: 37c6 ec3d 19f9 88bd 81b3 a0bc 7050 80bd
000003d0: 2757 09bd 995b ebbd a805 efbd fe7f e33d
000003e0: 37b6 77bd 4123 013e 734f 86bd 5e0b 55be
000003f0: f5ee a73a 4066 6cbd 589a e0bc 1f80 7fbe
0.13771836 0.14907172 -0.06340959 0.18329056 -0.044827614 0.019078253 -0.105615504 0.18954048
0.18578982 -0.19188839 0.2195611 0.07351055 0.089947864 0.012213627 0.057217624 -0.06298489
0.10951332 -0.0035791702 -0.12302725 0.06568228 -0.060232352 0.008512735 -0.040650826 0.28550982
-0.16615538 -0.09705465 -0.013287067 -0.07286576 0.04750877 -0.15019485 0.181482 -0.23109254
0.12372092 0.049829606 -0.0821395 0.102075085 0.037306145 0.20614277 0.045345403 -0.09705805
0.042739023 -0.021630272 0.123151 0.20055385 0.10227132 -0.111672066 0.12149999 0.20944819
0.070356436 -0.15900089 -0.20767495 -0.10634972 -0.113497525 0.15555926 0.07723178 0.0688153
0.07723014 -0.04223618 0.19843434 -0.20201197 0.007992985 -0.15457378 0.07160603 -0.040167276
0.050148036 -0.043630842 0.15971862 -0.0711685 -0.045115806 -0.14685498 0.2146091 -0.072745904
0.17459814 -0.1876813 -0.14304002 -0.11582299 -0.0995633 0.1444808 0.042399526 0.1638318
-0.11597582 -0.10332324 0.07247339 -0.11200344 0.13896349 0.02983525 0.18323043 -0.16912206
-0.116219394 0.11653641 0.12513173 -0.015307386 0.0960167 0.14672425 -0.07083746 -0.30746996
0.1837867 -0.07323571 -0.11383071 -0.21866585 -0.112844326 0.004363616 0.032414842 -0.14015418
-0.02663522 -0.17799576 -0.13461596 -0.038899664 -0.185715 -0.18813635 0.17780025 0.06014606
0.10057694 -0.2730514 -0.19562463 -0.07772837 0.04597807 -0.149164 -0.06074076 -0.08657588
0.07716181 3.7534664e-05 -0.0043869647 -0.17947803 -0.09906893 -0.112600796 -0.07093354 -0.11954098
0.18490452 -0.07641443 0.21153064 0.06158284 -0.2136103 0.12827572 -0.020300958 -0.09658203
-0.15132506 -0.23704384 0.021356069 -0.059034843 0.10453884 -0.13753584 0.11361627 -0.1453894
-0.040426895 0.03424424 0.09773736 0.13982739 0.2140469 -0.16970314 0.024334993 -0.098438434
-0.004130402 -0.117128424 0.15027167 -0.21041334 0.06328073 0.027794152 0.0750344 -0.10529171
0.18419144 0.049789954 0.025284564 -0.18219517 0.103674635 -0.0388985 -0.04340733 0.40450677
0.14879218 -0.014666994 -0.20530795 -0.09176684 0.08744783 -0.14887482 -0.060815807 -0.058045164
-0.13758633 0.11762874 0.11316888 -0.32154164 0.03841271 0.002993417 -0.0020928183 -0.062350783
0.09420749 0.08926576 0.062123526 -0.02346887 -0.02535285 0.05064605 -0.024826141 -0.061173324
0.1669228 0.2111904 -0.035638757 -0.055177882 -0.0024948835 -0.025082216 0.118888855 0.09498043
-0.1006037 -0.083550945 0.18012056 0.12015563 -0.040042795 -0.15318505 -0.1434347 -0.16500466
-0.061585512 0.03507686 0.05589704 0.09352593 -0.15393169 -0.09357088 -0.062037174 0.36170596
0.025071384 -0.057108995 0.0980453 -0.0719503 -0.15587631 0.16541088 -0.08665947 -0.09370049
-0.17276293 0.18288173 0.10838408 0.029888391 -0.08894309 -0.1925165 -0.16743009 0.18787505
0.12356662 0.15497552 0.116378106 0.036551293 -0.018040935 -0.16713646 -0.20532343 -0.26460558
0.11561244 -0.066881366 -0.019616844 -0.06265342 -0.03353038 -0.1149208 -0.11671001 0.11108397
-0.060476508 0.12611105 -0.065581225 -0.20805117 0.0012812304 -0.0577147 -0.027417347 -0.24951218

model.0.bias f4 [512]
00000000: a2d5 82bb b284 913d f665 40be 260c 41bd
00000010: 58d4 16be bbd1 43be 0018 df3d 18fa 8dbd
00000020: 36c5 46be 1236 70bd 026c e7bd 2ad0 e23d
00000030: 4255 04bd e2b6 fdbd 8c46 abbd 453a 3abd
00000040: b3c1 1f3e a3ea 8e3c dfb0 24be b80f 56bd
00000050: d0b2 403e 8778 32be f337 9dbd a96e 363e
00000060: d12a adbd a371 1f3e 30e4 07be 349d 1e3e
00000070: 544d 0a3e 27f1 1cbd 3d4e 41be cb36 8ebd
00000080: 877a 4d3d 5daa 8bbd 8a79 27be ded6 38be
00000090: 2b04 c73d 493d 173e b897 9ebd 0629 f53b
000000a0: 4d3a 01be 8275 f13d 0a46 09be 225e eebd
000000b0: ce5a aabd 7575 19bd b5f6 d13c 1d20 45be
000000c0: 09ac 98bd 950e b6bd effb 2fbd 3adf 48bc
000000d0: 29b8 113c 3960 d53d 09a7 eebd bb95 833b
000000e0: e566 3d3e 2d88 d73c e10d 1cbe 68fc 0b3e
000000f0: aa96 39be 6f63 aa3d 2559 2d3e 12f7 dc3c
00000100: f4bb e13d 1e85 253e ae3e bf3d e894 7bbd
00000110: 5b7f 353d cd69 293e f315 463d 1feb 25be
00000120: 8170 353e ac5d 4a3e df32 f33d 1f54 e33d
00000130: 2803 ec3d 9d03 ffbd 5363 7ebd 01d7 b43d
00000140: 039e 543d b815 b23d 79a4 81bb bb98 48be
00000150: 70ed c63d ce17 04be ccc3 2dbe 2cb6 4e3e
00000160: 6c89 b93d 3cd0 ce3d e629 b6bd 5677 983d
00000170: 708c 8f3c abb0 0e3e 71d8 be3c 6f3e 3b3e
00000180: 1aef 47bd a09a 403e 8dfa 4e3e 9ceb c53c
00000190: 6d47 18be 8854 56ba 4fd4 253e e872 0fbe
000001a0: 23f8 95bd 9c81 983d 0603 2b3d e201 413e
000001b0: cf24 083d 7c3f e8ba 8488 da3c 702b 2dbd
000001c0: 74f7 40be 7b80 91bd c766 3dbe 035a 193e
000001d0: 8cc4 443c 2f16 c23c 36af 4fbc c745 d6bd
000001e0: 81cb 12be 7d89 fcbc 8c7e 7e3d 2fbf e3bd
000001f0: 8118 00be 9471 083e 252d 8fbd e0b9 eb3d
00000200: 0d74 473e 5d50 443e bb8e 21be a9c6 753c
00000210: 0270 25be b533 073c c093 e63c 8b50 b4bd
00000220: ca58 793d 61b3 81bd ae1b ed3d 3bc2 fe3a
00000230: 768c 113e 9ffb 0b3e 1064 3d3d 9d71 1d3d
00000240: fa23 bdbd f901 0bbe 31b7 0d3e 2975 093e
00000250: 54eb 033d 6d61 2f3e a3bf d83d f7f0 083e
00000260: d1d0 22bd a9e2 e13c 32ff 3abe f27c 3fbe
00000270: d75a c13d 5430 fbbd 8b8b 1e3e 7d02 29be
00000280: d194 2cbe 021b 2cbe 6f1d 073e 55fc 09be
00000290: 3ce6 32be c986 b03d 402d 38bd 3423 47be
000002a0: 9ace 133e 3c3f 173e b930 273e a73a 033e
000002b0: 800f 22be 8ce2 b6bd 9309 a2bd 40a7 4abe
000002c0: 0d51 123e e00c a9bd f3f6 8e3d 6502 d5bd
000002d0: e482 3b3e 90e0 123e 02b2 103e d719 ce3d
000002e0: 8fd8 2f3e 9ca4 883d 5d6b 123d 244c 39bd
000002f0: 8c0b 293e d475 49be 2510 163e 93b0 a2bc
00000300: a02a 6dbc c9ec 09be ed59 b6bd 654c 213d
00000310: 69f8 a8bd 1c85 943d 2392 f13c 1af2 31be
00000320: 3d2b e33d 1dec b6bd 0ad8 97bd 2d46 98bd
00000330: a053 a63d 9806 4ebe 30c0 16be 62e1 a83d
00000340: e539 7dbd 9896 22bd 5fe1 3bbe cc4f b03c
00000350: 9e0b c53d a4d0 95bd 5310 7c3c 50b1 ae3b
00000360: b1d5 30bd 50fa 273e 9070 523d a4e7 1f3d
00000370: f901 c8bb c94d 90bb 6515 e03d 3e03 453c
00000380: 82c3 403d f597 293e c8eb 133e 61d8 98bd
00000390: f7b1 2bbe b838 5c3d dff7 0dbe 6b81 4fbe
000003a0: 8754 0f3e 1591 2dbe 9fda 4c3e 1df2 3fbe
000003b0: 017d 2bbe 35bd ef3d 0b9c 833c f359 b4bd
000003c0: e15a 9e3d 6ed0 07be d6a5 e3bd 5307 49be
000003d0: 7396 d6bd ab59 33be c22a 333e 94f3 b5bd
000003e0: cd4e 0e3d 63a1 bcbd 53de 3bbd 7b42 193e
000003f0: 8e79 293d 9442 cb3d d85d 873d adc6 2abe
-0.003992752 0.07105388 -0.18788895 -0.047130726 -0.1472944 -0.19122975 0.108932495 -0.06932467
-0.19411168 -0.058645315 -0.11299898 0.110748604 -0.03230787 -0.12388398 -0.08363065 -0.045465726
0.15601234 0.017445868 -0.16083096 -0.052261084 0.18818212 -0.1742879 -0.07676687 0.17815651
-0.08455432 0.15570693 -0.1327064 0.15489656 0.13506061 -0.03831592 -0.18877502 -0.06944045
0.05016568 -0.068196036 -0.16354957 -0.18050715 0.09717592 0.14769472 -0.07743782 0.007481697
-0.12619896 0.11789991 -0.13405624 -0.11639048 -0.08318101 -0.03746553 0.025630334 -0.19250531
-0.07454688 -0.088895 -0.042964872 -0.012260253 0.008894005 0.10418744 -0.11652953 0.004015652
0.18496282 0.02631005 -0.1523967 0.13670504 -0.1812388 0.08319747 0.16928537 0.026973281
0.11022177 0.16164061 0.09338127 -0.061421305 0.04431091 0.16544266 0.048360776 -0.16202973
0.17718698 0.19762295 0.11874937 0.11100029 0.115240395 -0.12451861 -0.06210644 0.08830071
0.051908504 0.08695549 -0.0039563742 -0.19589512 0.09713256 -0.12899706 -0.16969222 0.2018668
0.09059414 0.10098311 -0.0889471 0.074446365 0.01752302 0.13934581 0.023296567 0.18285535
-0.04881201 0.18808985 0.20212765 0.024160199 -0.14870997 -0.0008176048 0.1619427 -0.14008677
-0.07322719 0.07446596 0.04175093 0.18848374 0.03323823 -0.0017719115 0.026676424 -0.042277753
-0.18844396 -0.07104584 -0.18496238 0.14975743 0.012009751 0.023692219 -0.012676051 -0.10462528
-0.14335443 -0.030827278 0.062132403 -0.1112045 -0.12509347 0.13324577 -0.069910325 0.11510062
0.19477864 0.19171281 -0.15777104 0.015000978 -0.16156009 0.008252074 0.028146625 -0.08804425
0.06087569 -0.06333042 0.11577545 0.0019436547 0.14213738 0.13670205 0.046238005 0.03843843
-0.092353776 -0.13574971 0.13839413 0.134236 0.03220685 0.17127009 0.10583427 0.13373171
-0.039749924 0.0275739 -0.18261412 -0.18700007 0.094411545 -0.12265077 0.15482919 -0.16504855
-0.16853644 -0.16807178 0.13194822 -0.13475163 -0.1747064 0.08619458 -0.04496503 -0.19447023
0.14434281 0.14770216 0.1632718 0.12815343 -0.15826225 -0.08929929 -0.079119824 -0.19790363
0.14288731 -0.08254409 0.069806956 -0.10400847 0.1831165 0.14343476 0.14130405 0.10063522
0.17172454 0.06672022 0.03574692 -0.04523863 0.16508311 -0.19673854 0.14654596 -0.019859588
-0.014475495 -0.13469233 -0.08903871 0.039379496 -0.082505055 0.07251951 0.029488629 -0.1737751
0.110922314 -0.08931754 -0.07414253 -0.0743526 0.08121419 -0.20119703 -0.14721751 0.08246113
-0.06182279 -0.0396944 -0.18347691 0.021522425 0.096213564 -0.07315186 0.015384751 0.005331196
-0.043172542 0.1640408 0.05137688 0.03903927 -0.006103751 -0.004403804 0.10941581 0.012024699
0.04706145 0.16561873 0.14445412 -0.07463146 -0.16767107 0.05376503 -0.13864087 -0.20264213
0.13997088 -0.16949876 0.20005272 -0.18744703 -0.16746904 0.1170601 0.016065618 -0.08806219
0.077321775 -0.13263103 -0.11115615 -0.196317 -0.10477915 -0.17514674 0.1749678 -0.088843495
0.03474312 -0.092104696 -0.04586632 0.14966767 0.04137569 0.09924808 0.06609696 -0.16677351

model.1.weight f4 [512]
00000000: bbe7 843f 5ff1 763f cbb9 853f dfaa 6b3f
00000010: 523e 6e3f 4f4f 823f d775 823f 3b30 7d3f
00000020: 97c5 833f 08a5 793f 6f56 7a3f 939f 823f
00000030: 367f 793f f5b8 5c3f b918 803f d003 773f
00000040: 39e3 813f 9780 823f 65e5 793f cd1e 7a3f
00000050: 70da 763f 442b 7a3f e57b 7a3f 006d 753f
00000060: 97d7 813f 6932 843f fd91 873f d8f8 7d3f
00000070: 4ffe 7a3f 4484 723f 7812 7f3f 3210 873f
00000080: 3eac 7d3f dc00 723f ad34 823f de50 6c3f
00000090: 78f1 7a3f 8daa 813f b8d5 723f f2b8 7b3f
000000a0: a77d 823f 2778 703f bb36 683f 14a9 833f
000000b0: 3d81 7e3f cfee 783f f2a7 7e3f 62af 7f3f
000000c0: c07f 803f 33c8 733f a0a5 893f 035b 7d3f
000000d0: 8775 7d3f 06a0 6a3f 780c 833f 4667 793f
000000e0: 0a9e 823f c8d3 793f 59d2 7a3f 92e1 823f
000000f0: 0018 833f ab39 783f 1798 7f3f c8a9 873f
00000100: 7e63 843f f50a 743f 9f68 853f c828 7b3f
00000110: bfa2 723f a771 7f3f 2732 823f 2cb8 793f
00000120: 02a1 723f cc89 743f 79c8 803f 0410 8b3f
00000130: 3913 783f 7771 803f 4999 7d3f 57cc 6e3f
00000140: 079c 7b3f aad5 803f cb40 783f 3c17 7b3f
00000150: 535b 6c3f 4a7d 7e3f 38db 863f 9848 6f3f
00000160: b161 7f3f 6d3b 703f 4fbe 7e3f 0ae1 823f
00000170: d125 793f 25c8 813f 4aee 853f bfcb 7e3f
00000180: 8c6a 843f 21a4 803f 2bbd 713f d6fa 723f
00000190: 8161 843f 6ed3 773f 570a 833f bc84 773f
000001a0: 26eb 743f bf67 8a3f bb91 843f 780f 843f
000001b0: b08b 7b3f 21dc 733f 4d62 7a3f 1adc 763f
000001c0: 7e81 7c3f 2e39 7f3f 5a73 863f 9e49 843f
000001d0: 97c6 773f 289b 873f b110 8b3f 9c6d 7d3f
000001e0: fad6 863f a3f3 7c3f b133 7b3f a328 783f
000001f0: fb35 7c3f 017d 7e3f 0ca2 7e3f 4f24 7e3f
00000200: f9e5 803f 8111 7d3f 5c78 753f 9071 8d3f
00000210: 25db 833f d6cb 723f 6e50 6d3f 7fa3 683f
00000220: 6c07 7f3f 0bb6 793f 7e82 7a3f 70ed 803f
00000230: 5f8a 843f a590 783f 5937 813f eab1 683f
00000240: bf11 793f aa5f 833f a65b 7e3f 6791 803f
00000250: eac1 753f 392b 7b3f b072 7f3f 9250 703f
00000260: 9958 803f 172d 7f3f d950 893f 9336 743f
00000270: ec20 833f c6b3 813f 02c8 843f bc10 823f
00000280: d155 833f eb1a 763f d0f7 813f 9253 793f
00000290: e79d 913f 8f27 6a3f edc7 843f c2dd 763f
000002a0: b231 833f 416f 7d3f b91b 843f 7fdb 733f
000002b0: ca12 833f 1f37 733f 6426 843f 7d2e 7a3f
000002c0: aa8c 7c3f 6953 7a3f 7f5f 843f 40da 7c3f
000002d0: 3c69 6b3f 926c 783f 2096 713f 8627 763f
000002e0: 1322 823f 21af 783f ca58 803f ffef 7c3f
000002f0: 5aa6 7a3f 5586 8a3f 441a 8e3f 6ced 763f
00000300: fcd5 833f 042f 7b3f fa54 793f 35c0 7e3f
00000310: c875 833f eb74 893f a24c 8b3f a63a 853f
00000320: 10c7 7a3f b9e7 793f c75e 813f b21c 833f
00000330: 9d76 7f3f 062d 7e3f dde7 843f dd44 823f
00000340: de9c 843f 140b 7b3f 5798 7e3f 9364 833f
00000350: ab2b 753f 8a20 773f cede 7c3f a573 863f
00000360: edbe 813f a941 813f 5dcf 823f c876 803f
00000370: 5d0b 823f 413e 7f3f e79a 773f a4a5 6d3f
00000380: 2aee 7c3f ee35 833f 07fd 803f a13e 753f
00000390: 074c 7e3f 97e1 813f 40a3 853f a794 803f
000003a0: 640c 6f3f 91ea 843f e765 763f 97f7 863f
000003b0: ea5e 833f 3ead 853f ca6e 843f 648e 843f
000003c0: 873e 6c3f b74a 863f 26ae 823f 9caf 803f
000003d0: c353 753f 1b0f 6d3f 56fb 863f dd85 763f
000003e0: e6fa 7e3f c146 713f 11d3 823f a56b 803f
000003f0: b690 7c3f c112 7f3f 246e 7c3f 6223 7f3f
1.0383219 0.96462053 1.0447325 0.92057604 0.93063843 1.0180453 1.0192212 0.9890172
1.0294675 0.9751744 0.9778814 1.0204948 0.97459733 0.8621972 1.0007545 0.9649019
1.0147468 1.0195493 0.97615653 0.9770325 0.9642706 0.9772227 0.978453 0.95869446
1.0143918 1.0327884 1.0591427 0.9920783 0.98044294 0.9473307 0.99637556 1.0551817
0.99090946 0.9453256 1.0172325 0.92310894 0.980247 1.0130173 0.9485736 0.9832908
1.0194596 0.9393334 0.9070851 1.0285974 0.9941595 0.97239393 0.99475014 0.9987699
1.0038986 0.95227355 1.075367 0.98967 0.9900746 0.91650426 1.023818 0.9742321
1.020448 0.9758878 0.97977215 1.0225089 1.0241699 0.96962994 0.99841446 1.0598688
1.0342863 0.9532922 1.0422553 0.981091 0.9477958 0.99782795 1.0171555 0.9754665
0.9477693 0.9552276 1.0061179 1.0864263 0.9690433 1.0034627 0.9906202 0.9328055
0.98284954 1.0065205 0.96973866 0.9808233 0.9232685 0.99409926 1.053565 0.93470144
0.9975844 0.93840677 0.9950914 1.0224926 0.9732333 1.0139204 1.0463345 0.9952964
1.0345016 1.0050088 0.9442927 0.94913995 1.0342256 0.9680699 1.023753 0.9668691
0.9567131 1.0812911 1.0356973 1.0317221 0.9826002 0.95257765 0.97806245 0.964296
0.9863509 0.99696624 1.0503953 1.0334966 0.967874 1.0594225 1.0864469 0.98995376
1.0534356 0.9880926 0.9812575 0.96937007 0.9851987 0.9940949 0.99466014 0.9927415
1.0070182 0.98854834 0.9588678 1.1050282 1.0301253 0.9484228 0.9270085 0.90874475
0.996207 0.975434 0.97855365 1.007246 1.0354728 0.9709571 1.0095016 0.90896475
0.97292703 1.0263569 0.99358594 1.0044373 0.95999014 0.9811283 0.99784374 0.9387294
1.0027038 0.99678177 1.0727798 0.95395774 1.0244422 1.0132987 1.0373538 1.0161357
1.0260564 0.96134824 1.0153751 0.97393143 1.1376313 0.9146661 1.0373513 0.96432126
1.0249541 0.98997885 1.032096 0.952568 1.0240109 0.95005983 1.0324216 0.97727185
0.98652136 0.97783524 1.0341643 0.98770523 0.9195745 0.97040665 0.943697 0.9615406
1.0166649 0.97142226 1.0027096 0.98803705 0.9791008 1.0822245 1.1101766 0.9645603
1.0299678 0.98118615 0.9739529 0.99512035 1.0270319 1.0738806 1.0882761 1.0408523
0.97959995 0.97619206 1.0107049 1.0243132 0.99790365 0.9928745 1.0383259 1.0177265
1.0360372 0.9806378 0.994512 1.0265068 0.9576976 0.96534026 0.9877747 1.0504042
1.0136391 1.0098163 1.0219532 1.0036249 1.0159718 0.99704367 0.9672074 0.9283087
0.9880091 1.0250833 1.0077218 0.9579869 0.9933476 1.014697 1.0440445 1.0045365
0.9337828 1.0384084 0.9624924 1.0544308 1.026334 1.0443494 1.034631 1.0355954
0.9228291 1.0491551 1.0209396 1.0053592 0.95830935 0.92601174 1.0545452 0.9629801
0.9960159 0.94248587 1.0220662 1.003285 0.9865831 0.9963799 0.9860556 0.99663365

model.1.bias f4 [512]
00000000: ef03 623c d7f5 70bd 2962 9abd 8d96 febd
00000010: f957 88bd 754f 70bd 346c 14bd b75f 11bd
00000020: 37c6 d03d ecff b3bc fb5c ccbd 6a46 e5bc
00000030: 2207 90bd 453a 54bd fa79 f2bc d112 db3c
00000040: d959 2abc dd08 febd 9c94 7abc c0b9 733c
00000050: 5f32 24bd ee01 463c 9ddc 03bd eb6b 4cbd
00000060: eeb5 5cbd 1947 9fbc e588 71bd 4950 f1bc
00000070: 1954 8bbd 7f24 89bc c25f 05bd dc7c 463c
00000080: 90b4 a4bd 1bb1 a2bd 1154 ffbc 6154 88bd
00000090: 042a f5bc 0fd8 adbd df10 9fbd f5ec 90bd
000000a0: e93d 85bd 9673 a3bd 6e12 c1bd a362 7dbd
000000b0: 5df0 36bd b1ce 86bc bab6 413d 9a82 b0bc
000000c0: 2872 0fbd 735d 8bbd 9609 d53b 7a31 80bd
000000d0: f4f7 5d3b 7b9f 95bd fe5d 83bd 72d2 00bd
000000e0: e176 07bd 4a11 79bd d5f0 9cbd 76dd 8cbd
000000f0: b9b8 43bd 6c06 2bbd 2b75 38bd a0f7 6dbd
00000100: 450d 90bd 2f9c 80bd 830f 913c 2876 d3bc
00000110: 031c 74bd cdae 01bd 6dc1 31bd 67c8 c1bd
00000120: 9481 2fbd b184 b9bd ec6f 833a e948 a6bd
00000130: 6017 88bd 486c 2fbd 353f 90bd 7b09 b7bd
00000140: 768f e5bc fa74 2ebd bf7c 6abd 319a b3bd
00000150: 26f4 f0bd 5ee1 3dbd 0e4b 45bb a674 dabd
00000160: 72b7 133c 8142 b7bd 3224 21bc b7ad 81bd
00000170: e690 76bd 670c ecbc 7645 813c 393f 87bc
00000180: 2a2d 27bd 0d3d 6cbd 1957 f33b 8490 21bd
00000190: 7b91 cdbd 5195 5fbd 7f68 1d3d 9a18 acbd
000001a0: 9fba 7cbd 6a86 8dbd 76b2 01bd bb29 d2bc
000001b0: 8476 54bb 81d0 bdbd 625e 95bd 0ce4 e6bd
000001c0: b1c2 66bd 12f2 87ba 3a15 553b 0ead 093d
000001d0: 5c9e 06bd 5e98 663d 75e4 d53d f483 91bd
000001e0: baf9 b6bd ca00 abbb 1ffa a4bd f816 a7bd
000001f0: 4087 4ebd 9cf2 00bd c3f5 b5bd 0fc4 36bd
00000200: 5812 c1bd da95 93bc ce04 f1bd 029a 663c
00000210: a038 eb39 1f69 e1ba 59f4 59bd 2d45 82bd
00000220: 0e56 87bd eb10 91bd 58e3 21bd 8c84 6abd
00000230: 9abd c13c 3ab7 b4bd 546a 2f3a 53c9 97bd
00000240: e980 c7ba b25b debc 6f2a 2cbd da56 47bd
00000250: 9ed7 80bd 3404 42bd b94a 0dbd 715b 91bd
00000260: 0d7c 5bbd e051 33bd 75ab 9fbd fc6e 89bd
00000270: c95d bdbb 1adb f33b 3560 80bc 827c 3bbc
00000280: 6436 3b3d 6c16 a8bd 132c 463c 7213 59bd
00000290: 5d6b 2a3d 6e5f 6bbd 4c9d 83bc 6248 8ebd
000002a0: a807 e0bc 35d8 5fbd 9ec5 45bd fa5f 8ebd
000002b0: 1584 7cbd 03f6 ebbd 176e bebd 8bf2 8cbc
000002c0: 9d70 38bd 95d2 89bd 7b07 58bd b56d 63bd
000002d0: b48a 7ebd dae6 7bbd d9e8 11be f432 2fbd
000002e0: 7e71 d1bc 9534 92bd 0f63 b6bd ee41 67bd
000002f0: 194b 91bd aa79 96bd 9c86 63bd 3fb4 b4bd
00000300: af5e 80bd ffb9 64bd a4dc 1bbd 20df 55bd
00000310: 858f 203d 4be9 2abd b0dd 513b 7f6a d1bc
00000320: c9fb 34bd 4b5a a4bc 5ac6 abbb 81de 8bbd
00000330: 22ea e4bc d1bc ecbb b85d 103d e52e adbc
00000340: 56bc a0bd f0d1 9cbd c139 03bd 5314 d7bc
00000350: de7c 99bd f8a4 a1bd c562 00bd 76a3 f93c
00000360: 6821 5bbd ba82 a6bd a28d 38bc 2bce 2cbd
00000370: 9e07 833c e87e 50bd ebaf 77bd ee14 e5bc
00000380: d430 d5bc a004 19bd 6555 04bd bb2d c0bd
00000390: 3269 09bd 2130 87bb c299 2dbc c042 11bd
000003a0: e6cd 983b c701 dfba 705c 3abd 6a9d e1bc
000003b0: 33c6 79bd 0b2f 083d 9075 72ba 1959 98bb
000003c0: 6427 33bd 729b 28bd 07b9 6abb feb9 b4bd
000003d0: 0579 62bd 2898 a2bd f807 bc3c cf84 a4bd
000003e0: f624 b6bc f545 e3bd 913d 24bd e71d bebd
000003f0: d7b8 5d3b d19e e2bd 3e9d 70bd 7c09 54bd
0.013794883 -0.0588282 -0.07538254 -0.12431059 -0.066574045 -0.058669526 -0.036236003 -0.03549167
0.101940565 -0.021972619 -0.09978672 -0.027987678 -0.070326105 -0.051813383 -0.029599179 0.02674237
-0.010397398 -0.12404034 -0.01529422 0.014875829 -0.0400871 0.012085421 -0.032192815 -0.049907606
-0.05388444 -0.019443082 -0.058968443 -0.029457228 -0.0680315 -0.016741036 -0.032562025 0.01211473
-0.08042252 -0.079439364 -0.031168016 -0.06656719 -0.029927261 -0.084884755 -0.0776689 -0.07076446
-0.06505949 -0.07981031 -0.09427343 -0.061861645 -0.044662822 -0.01645598 0.047293402 -0.02154665
-0.035020977 -0.068049334 0.006501387 -0.06259437 0.0033869715 -0.07305809 -0.06414412 -0.031450696
-0.033072356 -0.060807504 -0.076631226 -0.06878178 -0.047783587 -0.04175417 -0.045033615 -0.05809748
-0.07033781 -0.0627979 0.017707592 -0.025813177 -0.059597027 -0.031660844 -0.043397356 -0.09462052
-0.042848185 -0.09058512 0.0010027862 -0.08119375 -0.066450834 -0.042827874 -0.07043306 -0.08937355
-0.028022509 -0.042592026 -0.057247873 -0.08769644 -0.117653176 -0.046357505 -0.003010455 -0.1066678
0.009015905 -0.089482315 -0.00983529 -0.063319616 -0.06019678 -0.028814508 0.015780192 -0.01650964
-0.040814556 -0.05767541 0.0074261543 -0.03944446 -0.10037514 -0.05458576 0.038429733 -0.0840313
-0.061701413 -0.06910403 -0.031664334 -0.025654664 -0.0032419274 -0.092682846 -0.07293393 -0.11273965
-0.056338016 -0.0010371825 0.0032513873 0.033612303 -0.032865867 0.056297652 0.10443965 -0.07105246
-0.0893435 -0.0052186 -0.08055519 -0.08158678 -0.050421953 -0.03148137 -0.08884766 -0.04462057
-0.09427327 -0.01801579 -0.117684945 0.014074804 0.00044864882 -0.0017197466 -0.053211544 -0.063608505
-0.066082105 -0.07083305 -0.039523453 -0.057255313 0.02364998 -0.0882401 0.00066915643 -0.074114464
-0.0015220913 -0.027143333 -0.042032655 -0.048666812 -0.06291126 -0.04736729 -0.03449509 -0.07097519
-0.0535851 -0.043779254 -0.07796375 -0.06710622 -0.0057790023 0.0074418904 -0.015670875 -0.011443259
0.045706168 -0.08207402 0.012095469 -0.05299706 0.041606296 -0.057464056 -0.016066216 -0.069474
-0.0273474 -0.05464955 -0.048284166 -0.069519 -0.0616494 -0.115215324 -0.09298342 -0.017205497
-0.04502927 -0.067296185 -0.05274151 -0.055524547 -0.062143996 -0.061499454 -0.1424898 -0.042773202
-0.025566813 -0.071389355 -0.08905613 -0.05645936 -0.07094402 -0.07347424 -0.055548295 -0.08823442
-0.062680595 -0.055841442 -0.038052216 -0.05221474 0.03919937 -0.04172639 0.0032023005 -0.025563477
-0.044185434 -0.020062586 -0.005242151 -0.068295486 -0.027943674 -0.007224657 0.035245627 -0.021140525
-0.07848422 -0.0765723 -0.0320375 -0.026254809 -0.0749452 -0.078927934 -0.031344194 0.030473452
-0.053498656 -0.08130403 -0.011264237 -0.042188805 0.015994843 -0.050902277 -0.060470503 -0.027964082
-0.02602426 -0.037357926 -0.032308 -0.093837224 -0.033547588 -0.0041256105 -0.010595741 -0.03546405
0.004663217 -0.001701408 -0.04549831 -0.027540881 -0.060980033 0.03324799 -0.00092490856 -0.004649293
-0.043738738 -0.04116387 -0.0035815851 -0.08824538 -0.055291194 -0.07939178 0.022953019 -0.08033144
-0.022234421 -0.110973276 -0.040097777 -0.09283047 0.0033832097 -0.11065448 -0.058743708 -0.051766858

model.1.running_mean f4 [512]
00000000: 0db9 823d 00a9 9e3d b7ee 47be 95ea 80bd
00000010: 6065 46be 7d39 5cbe ff00 203e c0b6 94bd
00000020: d763 f3bd c7fb dcbd 9029 ebbd 9474 f03d
00000030: 6d15 01bd aaf8 0bbe ce2d 66bd d04c d4bc
00000040: 5cdf 053e d34e 3a3c baef 29be 3e84 98bd
00000050: 0cbe 503e 8200 43be 9283 82bd a135 333e
00000060: 3428 b0bd b1a0 093e 6f79 19be ed03 333e
00000070: 25f0 433e 0237 57bd 51d2 14be 2dac f1bd
00000080: b389 a13d acf3 94bd a093 48be e3a5 42be
00000090: 2891 063e 917c 3d3e d67c a0bd 8c36 0c3c
000000a0: d977 a7bd 33f4 cf3d c6c9 14be 8ea6 f4bd
000000b0: 1ff2 c4bd a469 8f3c ced1 1e3c 525d 34be
000000c0: 2da9 0dbd fa8a b3bd 26a9 7dbd 42f1 bdbc
000000d0: 9449 1e3d af13 173e c984 fbbd 7a89 dc3a
000000e0: 213d 203e 541b 843d 5055 2bbe 17b9 e63d
000000f0: d887 3ebe 504e 9a3d acd7 3f3e 76d7 643c
00000100: faaa cc3d 560c 2e3e 7621 023e db84 8dbd
00000110: f229 133c d37e 0b3e 3453 ac3c 7d03 0fbe
00000120: a07b 623e 87a8 6b3e 731a dd3d bddd e83d
00000130: 3de2 163e a155 9dbd c325 9ebd 741e 9f3d
00000140: ecbf ee3c 98cd c53d 4037 c8ba cc32 84be
00000150: 7358 b83d d37a 0dbe 005d 41be c28a 593e
00000160: f647 de3d 7d94 d73d f52a 0abe 4cb1 ca3d
00000170: 0028 b23a 6ffb f43d 34b7 d6bc 4e62 e63d
00000180: a7af 88bd 39ea 293e 94c5 733e f907 d9bc
00000190: 53e2 28be 5884 b43c 4aef ee3d 5af4 2fbe
000001a0: bd0b 86bd dc43 bf3d a2a5 af3d c5ec 373e
000001b0: 524b 693d b6c3 663c 3425 5fbc 12f8 0fbd
000001c0: 7f7b 68be 73da 07bd 167a 3abe afb8 0a3e
000001d0: 4044 57bc b7fa 803c 9ebd f2ba 7a2a f2bd
000001e0: cef0 01be e19a 21bc 0fff 833d 6dd2 ffbd
000001f0: 35c6 f5bd 4052 1b3e 6c15 12bd ee4e 163e
00000200: c43a 5b3e 4432 283e 2b98 41be c745 28bc
00000210: bf1d 1dbe a1e5 823d a7ce ce3c 33f8 05be
00000220: 9126 8d3d b9b0 54bd 39ab f73d 8ca2 f6bc
00000230: 43e5 2f3e b25e c23d 9426 673c 7bf9 4c3d
00000240: 6643 e7bd 2538 d2bd cbe5 083e 7fd9 fb3d
00000250: 37cb d2bb 1dcf 183e e211 083e b994 023e
00000260: 261b 67bd 1afa 3b3d 1428 4bbe bcbf 4cbe
00000270: be04 6a3d 6b08 d7bd bb07 343e 1389 24be
00000280: b66a efbd add6 33be cc3e 0f3e a0d1 ddbd
00000290: 2a1d 53be 4c1c f33d e8f5 d4bc 8ea2 3abe
000002a0: 301e 1a3e 2e6f 383e 2ef2 2b3e c415 d13d
000002b0: f72d 38be f8a4 bbbd 2bae e1bd a5d8 49be
000002c0: 6919 d53d 5971 a1bd 5ce3 ca3c 71d3 d4bd
000002d0: 0afe 583e b169 1d3e 66a0 fe3d 4ed6 aa3d
000002e0: af58 3f3e 9da1 b03d 388e 44bc 7077 2cbd
000002f0: 4d0f 5b3e 5a8f 6abe 040a 113e 7480 7abc
00000300: 6d49 2f3c 6fb1 d6bd 1883 b6bd 8963 803d
00000310: 91a8 46bd 664e d83d eca8 99bb fe22 32be
00000320: eee1 0f3e bcaa a2bd daf8 11bd be6e aebd
00000330: 26e4 8e3d 1cf3 24be ff40 e2bd a5cc bd3d
00000340: b6a5 92bb ccfc 34bd 83bb 0abe 103b 713b
00000350: e416 093e 67f5 70bd 4a96 4d3d 8adf 20bd
00000360: 314f 83bd 7e4c 313e 532d 863d 57c4 a63c
00000370: 96fc 07bb c0e9 a6b9 39d4 9a3d c095 8f3c
00000380: 2e38 e03c 0836 173e 61e1 ca3d 9640 58bd
00000390: 5c54 10be 0f1f c33d cc9c ccbd 8f25 19be
000003a0: f92f 133e b975 12be 90a5 463e fdfe 6fbe
000003b0: ea5c 0fbe 27e9 0f3e ca16 833d d0ed 62bd
000003c0: 330e 593d 4f74 f5bd 97cb 0bbe 23e2 3fbe
000003d0: 30c4 04be 96e5 0cbe b0c1 293e fe57 0abe
000003e0: 365b 0f3d 9c99 efbd b0ed b6bd 4b8b f83d
000003f0: e5f8 8c3d 7f78 913d d3a2 ac3d ee47 5fbe
0.06382952 0.07747078 -0.19524656 -0.06294743 -0.19374609 -0.21506305 0.1562538 -0.07261419
-0.11884277 -0.1079021 -0.11482537 0.117409855 -0.031514574 -0.13669077 -0.056196027 -0.025915533
0.13073486 0.011371332 -0.16595355 -0.07447098 0.20384997 -0.19043162 -0.06372751 0.17500927
-0.08601418 0.13440205 -0.1498773 0.17481966 0.19134577 -0.052542694 -0.14533354 -0.11800418
0.07887592 -0.07273039 -0.19587564 -0.19008593 0.1314131 0.1850455 -0.078363106 0.008557927
-0.08177156 0.10153999 -0.14530095 -0.1194583 -0.096164934 0.017506428 0.009693576 -0.17613724
-0.034585167 -0.08766742 -0.06192889 -0.02318633 0.03864439 0.14753602 -0.12281186 0.0016825639
0.15648319 0.06450525 -0.16731763 0.11265772 -0.18606508 0.07534468 0.18734616 0.0139673855
0.09993549 0.16996893 0.12708077 -0.06910106 0.0089821685 0.13622598 0.021035768 -0.13966174
0.22117472 0.23013507 0.107960604 0.11370418 0.1473474 -0.07682348 -0.07722046 0.0776948
0.02914425 0.096583545 -0.0015275255 -0.25820005 0.09001245 -0.13816385 -0.18883133 0.21244338
0.10853569 0.10526369 -0.1349295 0.09897098 0.0013592243 0.1196202 -0.026210405 0.11249219
-0.06674128 0.16593255 0.23805839 -0.02649306 -0.16492586 0.022035763 0.116667345 -0.17183056
-0.06545208 0.09339115 0.08576514 0.17961414 0.056956597 0.014084747 -0.01361971 -0.035148688
-0.2270336 -0.033167314 -0.18210635 0.13547014 -0.013138831 0.01574455 -0.0018519645 -0.11824508
-0.12689516 -0.009863586 0.06445133 -0.124913074 -0.120006956 0.15168095 -0.03566496 0.14678547
0.21409136 0.16425425 -0.18905704 -0.010270542 -0.15343378 0.063914545 0.025245024 -0.13082962
0.068921216 -0.05192635 0.12093205 -0.030106805 0.171773 0.09490718 0.014108319 0.05004261
-0.11292152 -0.10264615 0.13368909 0.122973435 -0.0064329165 0.14922757 0.13288072 0.12752046
-0.056422375 0.045892812 -0.19839507 -0.19995016 0.05713343 -0.104996525 0.17581074 -0.16067915
-0.11690275 -0.17562361 0.13988799 -0.108309984 -0.20616594 0.118706316 -0.025996163 -0.18226072
0.15050578 0.18011162 0.16791603 0.102092296 -0.17986284 -0.09162325 -0.11019548 -0.1971155
0.10405237 -0.078829475 0.024766617 -0.10391892 0.21190658 0.1537235 0.12432937 0.083416566
0.18686174 0.08624575 -0.011996798 -0.042106092 0.21392556 -0.22906247 0.14163977 -0.015289415
0.010698658 -0.104830615 -0.08911723 0.06268985 -0.0485006 0.10561828 -0.0046893265 -0.17396161
0.14051029 -0.07942721 -0.035637714 -0.08517216 0.069771096 -0.16108364 -0.11047553 0.092675485
-0.0044753207 -0.0441864 -0.13548093 0.0036808886 0.13387638 -0.058827784 0.050192155 -0.039275683
-0.06411589 0.17314336 0.06551614 0.020357294 -0.0020749918 -0.00031836145 0.075600095 0.017527461
0.027370539 0.14766705 0.09906269 -0.05279597 -0.1409468 0.09527408 -0.09990844 -0.14955734
0.14373769 -0.1430272 0.19399095 -0.23437114 -0.14000288 0.14053784 0.06400831 -0.055402577
0.052992057 -0.11985075 -0.13651882 -0.18738608 -0.12965465 -0.13759455 0.16577792 -0.13510129
0.034999095 -0.116992205 -0.08932054 0.12135943 0.0688341 0.07103061 0.08429494 -0.21804783

model.1.running_var f4 [512]
00000000: 0f0f 993e 84d6 aa3e 655f 153e f277 cf3e
00000010: b200 c53f 25c8 823e ae71 843e ef0d 4a3e
00000020: 94e1 943e 4383 a53e a98d 4e3e 4d5f e93e
00000030: 0fea 2c3e 49d1 5c3f e3bd e03e 1c53 a13e
00000040: aa9e 303e 5d37 f43d 0a69 033f 7726 ad3e
00000050: 30ff bb3e ea94 c73e 585b 733e 5183 183f
00000060: dcdd e33d 6137 1c3e 953a a93e 2020 583e
00000070: 4f5b 853e 2b4f 033f 9c17 723e b37e 843e
00000080: db66 ca3d 9c51 0f3f 0cda 193e 0825 0e3f
00000090: d9ba 853e a00b 993e 57a6 a13e c237 a53e
000000a0: 9569 d63d 3ba6 5e3e 26d0 1a3e d6a2 953e
000000b0: c64f eb3e 74c5 193f 8468 8f3e b1d9 163f
000000c0: a271 a43e 577f ad3e 8515 2a3e 8e3c 1d3e
000000d0: 15a4 b53d 8df4 0d3f 8cc3 963e 4f82 613e
000000e0: c5bf 343e cc61 973e 0e7c 5f3e 4a15 2a3e
000000f0: 7b8c 0e3f fc2b 993e 6cb2 7a3e b555 2c3e
00000100: 9362 d83d 530e 753e 06b8 753e 84ea d93e
00000110: a3dd d83e 4cbf 3e3e 73aa ce3e 20fb cd3e
00000120: 8304 a83e 12fd 173e 53e8 9b3e 4c31 123e
00000130: 3af9 013f 704d 603e 8c75 b73d 62b2 2a3f
00000140: 68a3 4c3f 886f 2a3e 7b13 9e3e 39f4 063e
00000150: 61e2 eb3e e2d4 c93e 32b8 013e f871 d73e
00000160: 8612 7e3e 0d4f 9a3e ce95 833e f900 8c3e
00000170: e434 0c3e d82a 953e e7af 483e 02e9 213f
00000180: 034f 083e e79f 683e 238a b73e f222 8e3f
00000190: 026d 953e fe2e 883e 0ca7 8a3e 4ec4 0c3f
000001a0: 80a5 823e 5410 303e 9a96 4f3e 535b 8b3d
000001b0: c460 e83e 8432 f53e 523c 443e bd2a bb3e
000001c0: f2be d03d cb37 ee3e f3c9 9a3e 02d4 4f3e
000001d0: 37c0 793e f165 4d3e 3645 6e3e da0c 823e
000001e0: b8ab 103e 8b7f e93d 13c2 fe3e 58f7 ca3e
000001f0: 97fa 373e f62d ab3e 9795 703e 7bcc 833e
00000200: 2643 ce3d 6697 463e 685d 493e 123f 033e
00000210: 6a82 123e ffd4 903e 3b1f 833e eb35 083f
00000220: 5b22 d83e 0ecd 3d3e a6a6 403e 10a1 9f3d
00000230: 8be5 933d 3c60 7d3e ee64 413e 9f9e c03e
00000240: 7d09 a53e b012 213e f2a7 323e a5f7 9d3e
00000250: f2c2 843f d70f 073f 0ec8 473e 5bda 4b3f
00000260: 7522 883e aac5 4c3e b77e 223e 40e9 333f
00000270: 63c3 1a3e a1d2 1a3e 68a2 6a3e b859 e83e
00000280: fa1f 343e 2c00 c23e 957c 4e3e 4f3b b73d
00000290: 502f 313e b530 b73e fa79 d03d 81e2 553e
000002a0: 6d71 0f3e c481 323e ddcd 593e 0c24 bf3e
000002b0: 37ce 8b3e 4a87 b73e 1e66 503e ab13 a63e
000002c0: 157b 643e 5582 523e fa10 923e 91b3 fc3e
000002d0: 76c3 333e 7659 6f3e dfed 413e e8c7 793e
000002e0: 5b00 903e c3e8 933e 7d87 7b3e b828 983e
000002f0: 67a9 803e 5ae0 d03d e190 ce3d 69a2 a73e
00000300: e4e2 543e 0f05 783e 4c05 1b3f c0dd 3a3e
00000310: 6004 4e3e f52e 333e fa44 e23d 1fc6 913d
00000320: c8fe 713e 5a0e 303f 3036 c23e b0dd fe3d
00000330: 3c7c b33e 737f d03e ff4e e03d 070b 893e
00000340: cc1f 8d3e 82a1 873e 73c0 5a3e 319d 823e
00000350: 548a ea3e d345 673e 43c7 e03e 421e 833e
00000360: ac32 b63e 36b6 713e 3dcc 333e d96e 873e
00000370: 42c2 763e 9a12 613e 8a88 703e 03e3 253f
00000380: b82c 4c3e bc3e 0f3e 01f9 7a3e 40ce 4d3f
00000390: d9d7 633e 9f8c 3e3e 509a 223e 9345 113e
000003a0: 86a6 f13e f6d0 fb3d de39 f03d 362c 673e
000003b0: d747 f13d edae a83d e61a 923e c141 e53d
000003c0: 8102 183f c09d 713e 922e 273e 7687 103e
000003d0: c365 5d3e c429 ed3e a6be 5e3e 86c0 1c3f
000003e0: e1a8 963e c1a8 6f3e c98d 3d3e 9a8b 6b3e
000003f0: 3cbd e63e 5a2a 1a3e 9461 cc3e 3099 c13e
0.298943 0.33366787 0.14587171 0.405212 1.5390837 0.25543323 0.2586798 0.19731878
0.29078352 0.32326707 0.20171227 0.4558052 0.16886161 0.86256844 0.43894872 0.3150872
0.17248026 0.11924622 0.5133215 0.3381841 0.3671813 0.389808 0.23765314 0.5957537
0.11126301 0.152555 0.33052507 0.21106005 0.26046225 0.51292676 0.23641819 0.25877914
0.098828994 0.559839 0.15024585 0.55525255 0.26119116 0.29891682 0.3157222 0.32269102
0.10469357 0.217431 0.15118465 0.29225796 0.459593 0.60066915 0.28009427 0.5892592
0.32117945 0.33886215 0.16609772 0.15355131 0.08869187 0.5545128 0.29446065 0.22022365
0.1765128 0.295668 0.21824667 0.16609684 0.55683106 0.2991637 0.24482125 0.1682957
0.105656765 0.23931246 0.2399598 0.42561734 0.42356595 0.18627661 0.40364417 0.40230656
0.32815942 0.14842632 0.30450687 0.14276618 0.50770915 0.2190454 0.08957967 0.6667844
0.7993684 0.16644108 0.30874237 0.13179101 0.4607115 0.3942023 0.12667921 0.4207914
0.24811754 0.30138436 0.2570023 0.27344492 0.13692051 0.2913425 0.19598351 0.63246167
0.1331139 0.22717248 0.35847577 1.1104414 0.2918473 0.26598352 0.27080572 0.5498704
0.2551689 0.17193729 0.20272294 0.06804528 0.45386326 0.47890103 0.19163635 0.36556044
0.1019267 0.46526942 0.302322 0.20295718 0.2438973 0.20058419 0.2326859 0.2540043
0.14128006 0.1140128 0.49757442 0.39641833 0.17966686 0.33433503 0.23494564 0.25741944
0.10071401 0.19393691 0.19664538 0.12817028 0.14307562 0.28287503 0.25609764 0.5320727
0.4221371 0.18535253 0.18813571 0.07794392 0.07221516 0.24743742 0.18886158 0.37621018
0.322338 0.15729785 0.17446879 0.30853 1.0371993 0.52758545 0.19509909 0.7963006
0.2658879 0.19997278 0.1586865 0.70277786 0.15113597 0.15119411 0.22913516 0.4538095
0.17590323 0.37890756 0.20164712 0.08946859 0.17303205 0.35779348 0.10179515 0.20887186
0.14008112 0.17432314 0.21269937 0.3733219 0.27305767 0.35845405 0.20351455 0.3243688
0.22312577 0.2055753 0.28528577 0.49355748 0.17555031 0.2337397 0.18938397 0.24392664
0.2812527 0.2888852 0.24563403 0.29718566 0.25129244 0.10199042 0.10086227 0.32741097
0.20789677 0.2422068 0.6055496 0.18248653 0.20118856 0.17498381 0.110483125 0.07117867
0.23632348 0.687719 0.37931967 0.12444627 0.3505572 0.40722236 0.10952567 0.26766226
0.27563322 0.26490408 0.21362476 0.25510553 0.4580866 0.2258523 0.43902025 0.25609022
0.35585535 0.23604664 0.1755838 0.26451758 0.24097541 0.21979752 0.23489586 0.6479952
0.19938934 0.13988775 0.2450905 0.8039284 0.22250308 0.1860833 0.15879178 0.14186697
0.4719736 0.122957155 0.11729787 0.22575459 0.117812805 0.082364894 0.28536147 0.11194182
0.5937882 0.23595333 0.16326359 0.14114174 0.2162085 0.46320927 0.21752414 0.6123127
0.2942572 0.23404218 0.18511118 0.23002473 0.4506625 0.15055218 0.39918196 0.37812185

model.4.weight f4 [256, 512]
00000000: 0dd8 26bd d015 23bd 1ea9 363d cac4 d73b
00000010: e7ec 20bd 316c 1dbc 8b00 f33a cd73 c93c
00000020: bc63 b5bc b5b0 20bc 0abe 46bc f50b f73b
00000030: 41fa d63c 747a 44bd 01eb 1d3d 82da b43c
00000040: cc4a 84bc 1688 e53c a1a3 273d e728 9a3c
00000050: c843 70bc 2e9f 82bb 5f95 a8bc fb53 0cbc
00000060: 3835 883c ef0f a43c d83e b2bc 0e03 9bbc
00000070: 612c d43c 6a45 593d 83c5 1bbc 0c39 593c
00000080: dc8b 05bc 0738 7a3c 3926 c8bc 151a 15bc
00000090: 5c5d 8cbc c618 a5bd b949 0bbc 5e6d 253d
000000a0: 9d8a 31bd a806 02bd f65b dfbb 4bc8 18bd
000000b0: f640 4c3d cac5 15bd cda4 13bd eb9c 16bd
000000c0: c525 033c 9f8a a4bc b69d 53bd 7f70 c13c
000000d0: 0814 7fbc b0fa 94bc 8f1d c9bc 6bf2 173d
000000e0: d721 4d3c 8089 91bc b672 1cbc b69d a5bc
000000f0: 9263 c6bb 5799 b5bc d68b 7a3d 5623 c43c
00000100: 417f d33c 53a6 b6ba e5c6 cf3c 0af1 d0bc
00000110: 61e6 57bb 5c26 3a3b b4ab 0d3d 5daa 12bd
00000120: a1ab 95bc 3c04 153d ffdd f53c 007b eebc
00000130: 0921 4dbd 9097 433d 394f 143d dd9c babc
00000140: 4a4c 0c3d 07d3 0c3d 7fad b0bc 2d28 4f3c
00000150: 26b4 46bd 5ba2 2cbc 3edc b13c f505 1f3d
00000160: 3305 76bc 416b d43c 1e4d b9ba f5c6 76bb
00000170: fd24 32bc bacb d0bc 0181 593b d5e8 b0bc
00000180: 705a 0bbd 5245 72bc 1992 7fbc 5cf2 4c3b
00000190: e6ee cbbc 6de6 723c fd42 12bd bac8 44bb
000001a0: e844 26bc 8768 01bd f999 af3b 0dcc f83c
000001b0: 2284 01bd 0264 1f3d 4717 513c 886a ab3d
000001c0: fba1 33bc d691 34bb e5c6 953d 27b7 183d
000001d0: 6294 e93c 57ce 073d 99c1 563d 2405 dd3b
000001e0: a20d 9b3b cc74 513d aa83 b33c 8305 21bd
000001f0: 526c b13d 52c5 903c 2242 14bc 7321 173d
00000200: 3a06 c5bc ea35 e73c b94e 3abd b698 563d
00000210: dc30 a03d 68e4 50bc c92c cfbb d201 163d
00000220: 252c f9bc f1eb dabc 532d 5bbd b99c 533d
00000230: 43a4 1fbb 827a 88bb 59a8 353d df26 b23c
00000240: f462 b4bb 9e7c e83b 3b2a 78bd 51d4 4bbd
00000250: d1c2 723d 00e7 9339 f370 3f3c 7ac3 253d
00000260: 6be0 59bc 83ae 59bd 7b35 e63c e55e 43bc
00000270: 94c6 43bd f9e0 e13c adcc f2bc c1b8 7ebc
00000280: 11a4 58bb c60a 0fbd 281e 683b 58c2 54bc
00000290: 90e3 793c d7df 403d 2c4b 4eb9 f650 1ebd
000002a0: 9967 603d dc22 113c e7d5 0b3d 7771 bc3c
000002b0: 1a80 e0bc 5c93 0dbd 0c64 e6bc 3478 efbc
000002c0: e19c c93c 37fb 343d f1c5 613d fa97 1f3d
000002d0: a2e6 0ebb 79c2 4c3d f966 093c 910c 513d
000002e0: 6f8e 17bd 5a0a 603d 0ec8 3b3c 5730 f6bb
000002f0: 7e14 dabc c77b 173d 72c3 dcba 772f 07bd
00000300: dd1c 12bd db5d 23bd 389d 703c 1474 76ba
00000310: 6e65 233c 28c2 cabd 85e6 e23c 5d4e bc3b
00000320: 05f0 ac3c b0f2 053c 9b58 3d3c e90e 483d
00000330: 941f 9dbc 4c9a 76bc a0fb 1ebc 8856 dc3b
00000340: fa25 0dbd 01d3 b83c 4d2a 4d3c bb10 8ebc
00000350: 8d6e a5bc 29f3 9ebb f691 73bc 4034 023d
00000360: 9842 173b 85f5 8bbd 1f63 8f3c 1842 6f3c
00000370: 8a47 fd3b 8ad2 1e3d 8794 7cbc 4a98 013d
00000380: 247f 2b3b 9b59 283d 91d2 193d e39d a1bc
00000390: 17fd 61bc 9aa9 a63c fca5 30ba 27bd e0bb
000003a0: 8108 1cbd ea95 edbb 67a9 33bc 849e 823c
000003b0: 1c15 98bd 7047 af3a 86bf 0f3d 64e2 f33c
000003c0: 0775 873c 620e 07bd 76db d33b 0f18 4b3d
000003d0: 7b74 6a3d 5ce2 ef3c b528 433d ce02 e4bc
000003e0: 3b93 9cbc 4c98 caba bec1 a9bb 46b2 dbbb
000003f0: f553 d23c 2462 8dbc d750 063c 9117 98ba
-0.040733386 -0.039815724 0.044594876 0.0065847384 -0.039288428 -0.009608314 0.001853959 0.02459135
-0.022142284 -0.009807755 -0.01213027 0.007539267 0.026242377 -0.047968343 0.038554195 0.022076849
-0.016148947 0.028018992 0.040927533 0.018818332 -0.014664598 -0.003986261 -0.020579038 -0.008564944
0.01662694 0.020027129 -0.021758482 -0.018922355 0.025900068 0.053044714 -0.00950754 0.01325823
-0.008151021 0.015272147 -0.024432288 -0.009100457 -0.017134361 -0.08061366 -0.008501464 0.040387504
-0.043345083 -0.03174463 -0.0068163825 -0.03730039 0.04986664 -0.03656558 -0.03604584 -0.036770742
0.00800461 -0.020085631 -0.051664077 0.023613213 -0.015568741 -0.018185943 -0.024550227 0.037096422
0.012520275 -0.01776576 -0.009548834 -0.020216804 -0.00605435 -0.022167845 0.061168514 0.02394263
0.025817515 -0.0013935067 0.025363395 -0.025505561 -0.0032943713 0.0028404212 0.034587577 -0.035807002
-0.018270316 0.03638099 0.030013083 -0.029111385 -0.050080333 0.047751963 0.036208365 -0.022779876
0.034252442 0.03438094 -0.021567104 0.012643856 -0.048511647 -0.010536755 0.021711465 0.03882404
-0.015015888 0.025930049 -0.0014137363 -0.0037655209 -0.0108730765 -0.02548777 0.0033188465 -0.021595398
-0.034021795 -0.014787035 -0.015598797 0.0031272387 -0.02489419 0.014825446 -0.035708416 -0.003002687
-0.0101482645 -0.031593826 0.005358931 0.030370736 -0.031620152 0.038913734 0.012761897 0.083699286
-0.010963912 -0.0027552745 0.07313327 0.037284043 0.028513137 0.033155765 0.052430723 0.0067449976
0.00473185 0.051136777 0.021913368 -0.039311897 0.086632386 0.017672215 -0.00904897 0.036897134
-0.02405082 0.02822395 -0.045485232 0.05239173 0.07821819 -0.012749769 -0.0063224775 0.03662283
-0.030416558 -0.026723834 -0.05351002 0.051663134 -0.0024359382 -0.0041649947 0.044350002 0.02174705
-0.00550496 0.0070949337 -0.06058715 -0.049763028 0.059267823 0.00028210133 0.011684644 0.040469624
-0.013298134 -0.053144943 0.028101673 -0.01192448 -0.0477968 0.027573096 -0.029638613 -0.015546978
-0.0033056776 -0.034922384 0.0035418365 -0.012985788 0.015252009 0.04708847 -0.00019673695 -0.03865143
0.0547863 0.008858409 0.03413954 0.023003323 -0.027404834 -0.03456436 -0.028123878 -0.029232122
0.024610939 0.04418489 0.055120412 0.038963296 -0.0021804948 0.04999015 0.008386367 0.051037375
-0.03700107 0.054697372 0.011461271 -0.007513087 -0.0266211 0.036983278 -0.0016842915 -0.03300425
-0.035672057 -0.03988443 0.014685921 -0.0009401452 0.009972913 -0.099003136 0.02769781 0.0057466463
0.021110544 0.008175537 0.01155677 0.048842344 -0.019180097 -0.015051436 -0.009703547 0.0067241825
-0.034460045 0.022561552 0.012522292 -0.017341962 -0.020194316 -0.0048507643 -0.014866343 0.03178811
0.0023080464 -0.068339385 0.01750332 0.01460316 0.0077294754 0.038775004 -0.015416271 0.031639375
0.002616831 0.04110108 0.037554327 -0.019728607 -0.0137932515 0.020344544 -0.0006738601 -0.006858486
-0.038094047 -0.007250537 -0.010965682 0.015944727 -0.07425901 0.001337273 0.03509476 0.029771037
0.016535295 -0.0329727 0.0064653708 0.04958349 0.05723999 0.029282741 0.047646243 -0.027833369
-0.019113174 -0.0015456765 -0.0051805666 -0.0067046015 0.0256748 -0.017258711 0.008197985 -0.0011603703

model.4.bias f4 [256]
00000000: d0fc 2e3c e49a ce3c cc69 213d a805 143d
00000010: 9c52 06bc 2b76 83bc 7e2c a53c 685c e83c
00000020: 73b0 b73c 686a 16bd 590c 733c 85b3 e5bc
00000030: b5e5 843a 757c 1a3d e7de 18bd acd9 2d3d
00000040: 95b1 f4bc 3688 f6bc c40e e5bc 3712 cf3c
00000050: 1b6c 71bc 108c 2e3d 44f2 ad3c 60cc 96bc
00000060: 6a43 f33b e6d1 1f3c 3861 a23b 3226 2dbd
00000070: b8eb f93c baa2 133d 21be 5fbc c1aa 403c
00000080: 10af b83c 8e54 c33c 92d4 273d 7cb7 91bc
00000090: 3d39 a73b 9b1b 163c 9975 16bb 23da bf3c
000000a0: f2ae bc3c 9007 45bc 1169 483c 6247 04bc
000000b0: 9bd3 233c cd12 10bd 4ce8 dd3c 7c93 dbbc
000000c0: 5f73 033d 1634 c93c 91e5 1b3d 5438 23bd
000000d0: ac2e dc3c 1e42 d8bc 4e10 19bd b8fe 95bb
000000e0: 663d 30bd fb77 4cbb d263 253d deae 053d
000000f0: 5475 a63c d42c a6bc 2901 433c cc80 e1bc
00000100: 52ed d73c ec23 0dbd 340c 243c 787d 9fbc
00000110: 0366 a63c 564f 773c 5eba b13b 84f7 223c
00000120: 0f59 9abc 4153 b4bc a368 b6bb 2965 293d
00000130: 25f7 d13c 6558 ce3c 34c1 13bd febf 01bd
00000140: ebd5 ba3b 3f56 ca3c 6850 c5bc a6b9 113d
00000150: d488 f4bc 4b8d 2ebd 3f43 fb3c 50a7 143d
00000160: 8534 323d 6906 92bc b39d aa3c 353b ce3b
00000170: c677 cdbc 385b 13bb a2f1 853c e42d b03c
00000180: 187d 9e3c 88aa 063d 4410 fa3c 1479 103d
00000190: edc2 8abc aa1a 31bd a8f9 c33c 7f5b ddbc
000001a0: 2c8c 9ebc 3f32 2bbc 9172 d3bc c6ef ba3c
000001b0: 681f 873b 7368 193d accc cdbc f3c8 803b
000001c0: 0b44 15ba 2951 1c3d 346e 6cbc 3327 71ba
000001d0: c4b5 59bc f284 323d 1741 be3c 7cab 69bb
000001e0: ad63 bb3b 8ad4 1bb9 b9da d0bc b1df df3c
000001f0: ec64 9dbc 6bc4 d83c 6321 44bc ef19 b8bc
00000200: a147 aabc 6a44 26bc 706e 78bc 7f4c e9bc
00000210: a0c0 0cbd af48 48bc 73ce abbc 5040 103d
00000220: 0d50 c7bb 7b1b ef3c 23f9 21bd d7ac 51bc
00000230: b488 2cbd 98a8 24bd f4d2 283d dbe9 95bc
00000240: 0ee2 92bc c03f d5b9 2447 b8bc 63a4 c63c
00000250: ba21 923c aa63 1b3d 9663 66ba 9032 bdbb
00000260: e3cc cf3c 501a 2ebd 1488 4e3c 19ca 153d
00000270: 565b 17bd 7fae d03b bccd ef3c 0a01 89bc
00000280: 62d5 553b e282 24bd 8386 523c 2154 f7bc
00000290: c25a dfba 5316 0a3d d839 a63c 954b ec3a
000002a0: 8cb8 08bb 1213 83bc 58c2 853c 1ce3 2cbd
000002b0: ad79 0d3d 795e 73bc dab0 9bbb 53a5 d9ba
000002c0: a6d9 273d 4bd2 fa3c a912 26bc 459a 14bd
000002d0: 43e0 dd3b 5e75 25bd 766a e5bc 6a9c 233c
000002e0: c774 2f3d aacf 1c3d dd89 e23b 0a3d 34bc
000002f0: 646e 203d bac3 22bd 4a05 f53b c6d7 0ebc
00000300: 5bc9 be3a 67c8 483c 55de e63c 618c 403c
00000310: bc37 69bc eba1 283c e9ec bc3c c6a3 b83c
00000320: 09d6 17bd 5617 bebc d432 97bc 20fa 093c
00000330: c379 823c 1ee8 96bb 0875 ea3c 3d28 00bd
00000340: 0c5f 163c b0e3 debc 2c4b 953c 5fb9 b3ba
00000350: 56ba 22bd 35fc b23c 5367 443c cbb5 f23c
00000360: 789a ea3b 55d4 de39 70dd e6bc b8fb 14bd
00000370: f201 87bc 812d 683c 88bb 0bbd 640d 34bd
00000380: f7eb 79bc b424 013d 6a4f 9a3c 0433 113d
00000390: c33b c53b feef 23bd 33b0 91bc 346a 08bd
000003a0: 7ee0 0c3c cd16 a13c 72df aebc e064 c3bc
000003b0: 9e0f b23c 5ec1 23bd a53d 6b3c 854b 1a3d
000003c0: 804b 34bd 6a27 2ebb cbfe 55bc 6c0b 0cbc
000003d0: 4ea6 0c3d e18d 0e3b a403 023d 9e39 2cbd
000003e0: 16fa 093d 33f4 263c 98f4 923c 2722 ed3b
000003f0: 6666 dcbc c6bb 2d3d 2e4d 9dbb 10dd bb3c
0.010680392 0.025220342 0.039407536 0.036138207 -0.008198407 -0.016047558 0.020162817 0.028364375
0.022423005 -0.03672257 0.014834487 -0.028039703 0.0010139259 0.037716348 -0.03732195 0.042443916
-0.029869834 -0.030094247 -0.027961142 0.02527724 -0.014735247 0.042614043 0.021233685 -0.018408
0.007423808 0.0097546335 0.004955437 -0.042272754 0.030507907 0.03604386 -0.01365617 0.011759461
0.022544414 0.02384403 0.040974207 -0.017787687 0.005103259 0.009161855 -0.0022958277 0.023419445
0.02303264 -0.012025729 0.012232081 -0.00807366 0.009999181 -0.03517418 0.027088307 -0.026803724
0.03209245 0.02456097 0.03806073 -0.03984864 0.026877724 -0.026398715 -0.037369065 -0.004577484
-0.043027304 -0.0031199444 0.0403784 0.03263747 0.020319618 -0.020285048 0.011902132 -0.027527235
0.02635828 -0.034458086 0.010012675 -0.019469008 0.020312315 0.015094599 0.005423828 0.009946708
-0.018841295 -0.022012355 -0.005566673 0.04135624 0.025630543 0.025188634 -0.036072925 -0.03167724
0.0057017705 0.024699328 -0.024086192 0.03557744 -0.029850401 -0.042615216 0.030671714 0.036292374
0.043507118 -0.017825322 0.02082715 0.006293679 -0.025081526 -0.002248479 0.016350571 0.021506257
0.019346759 0.032877475 0.030525334 0.03527172 -0.016938651 -0.04323832 0.023922756 -0.027021168
-0.019353949 -0.010448991 -0.025811465 0.022819411 0.004123617 0.037453126 -0.02512201 0.003930205
-0.0005694038 0.038163338 -0.014430571 -0.00091992615 -0.013287965 0.043583818 0.023224397 -0.0035655191
0.0057186694 -0.00014861129 -0.02549492 0.027328344 -0.019213162 0.026460847 -0.011970851 -0.022473304
-0.020786108 -0.010148147 -0.015163049 -0.028478859 -0.03436339 -0.01222436 -0.020972466 0.035217583
-0.006082541 0.029187908 -0.039544236 -0.012797556 -0.042122558 -0.040199846 0.041216806 -0.018299988
-0.017930057 -0.00040674023 -0.02249486 0.024248308 0.017838348 0.037936844 -0.0008788643 -0.00577385
0.025366252 -0.042505562 0.012605686 0.03656969 -0.03695234 0.006368458 0.029272906 -0.016724128
0.0032628407 -0.040163882 0.012849453 -0.030191483 -0.0017040598 0.033712696 0.020291254 0.0018027896
-0.0020861952 -0.016000304 0.016328022 -0.042208776 0.034539867 -0.014854067 -0.004751307 -0.0016605057
0.04097905 0.030617854 -0.010136285 -0.036279935 0.006771119 -0.040395133 -0.028004866 0.0099860225
0.042835977 0.03828398 0.0069134072 -0.011000881 0.039167777 -0.03973744 0.007477437 -0.008718437
0.0014555858 0.012254811 0.028182188 0.011752219 -0.0142344795 0.0102925105 0.023062186 0.02253903
-0.037069354 -0.023204487 -0.018456854 0.008421451 0.015927201 -0.0046053072 0.028620258 -0.031288374
0.009177934 -0.02720818 0.018224321 -0.0013711861 -0.039728485 0.021848777 0.011987525 0.029627701
0.0071595274 0.0004250134 -0.028181762 -0.03637287 -0.01648042 0.014171005 -0.03411439 -0.043958083
-0.015254012 0.031529143 0.018836696 0.035449043 0.006019087 -0.040023796 -0.017784214 -0.03330441
0.008598445 0.019664193 -0.021346781 -0.023851812 0.021735962 -0.03997933 0.014357959 0.037669677
-0.044017315 -0.0026573786 -0.013061236 -0.008547645 0.034338288 0.0021752047 0.031741753 -0.042047136
0.033685766 0.010190058 0.017938897 0.0072367373 -0.026904296 0.042415403 -0.0048004603 0.02293256
