best-model-by-loss.pth (torch, 586969 bytes, 5 tensors)

model.0.weight f4 [512, 27]
000000 36 d6 13 3e da 0f dc bd b8 51 d6 3d 25 80 bf 3a
       0.14437184 -0.10745211 0.10464805 0.0014610334
000010 43 13 a9 3b 4e 48 f9 3d bf d6 45 be f3 a1 29 be
       0.005159767 0.12171994 -0.193202 -0.16565685
000020 f2 cb 2c 3e d2 ab 02 be 85 a3 1f be 9e e2 b5 bc
       0.16874674 -0.12760857 -0.15589722 -0.022202786
000030 a5 a0 87 bd 3f 98 08 bd 94 b9 11 be a9 09 4c 3d
       -0.066224374 -0.03334832 -0.14230949 0.0498139
000040 0b e3 41 be 7c 84 5e 3b 50 7a c1 3d dd 11 cf 3c
       -0.18934266 0.0033953479 0.094471574 0.025277073
000050 d8 9f a6 3c 5f 62 17 3c a6 9f 95 bd 46 51 72 bd
       0.020339891 0.009239762 -0.07305841 -0.05915954
000060 32 cd c6 bd bf ca 14 be 6d 03 fd bd 8c 34 65 3e
       -0.09707107 -0.14530466 -0.12354169 0.22383326
000070 13 2b b0 3b 83 5e 49 3e a7 4f 86 3e f4 81 26 3e
       0.0053762286 0.1966496 0.26232645 0.1626051
000080 2b 05 5f bc 02 35 c6 3c ca 8b e4 3d ab 20 3b 3d
       -0.013612072 0.024195198 0.11159475 0.04568545
000090 55 a1 23 be 14 49 14 be a9 3a 9e 3c ca f9 2f 3e
       -0.15979512 -0.14481002 0.01931508 0.1718513
0000a0 42 91 8b bd e8 ea 06 bd 4d 41 ef 3d a3 83 0b 3e
       -0.06814815 -0.032938868 0.11682377 0.13624434
0000b0 e0 98 f3 3d 6f 1a c0 bd 57 fb d2 bd 84 84 b5 bd
       0.11894393 -0.09380042 -0.103018455 -0.08863166
0000c0 b5 a4 19 bd a6 01 c1 bc 87 8a dc 3b 7a 3b e9 3d
       -0.037510592 -0.023560356 0.006730381 0.113882974
0000d0 0d 3c 00 3e dd f5 0e be ad fd 3a be 58 37 ca bd
       0.12522908 -0.13960977 -0.18260832 -0.09873837
0000e0 ec 95 bc bd c3 69 df 3d 6f 3c fe bd 2a 49 94 bc
       -0.09208283 0.10908844 -0.124138705 -0.018101294
0000f0 00 11 27 bd 07 37 ef bd 1d a8 b2 3d 26 2e a4 bd
       -0.040787697 -0.116804175 0.08723471 -0.080166146
000100 eb 1d 23 bc 5e 8e 0a be b5 02 9f bc 6a 01 e0 3c
       -0.0099558635 -0.13530871 -0.01941047 0.027344424
000110 ff 4e 00 bc c8 44 93 bd 0b 2f 6a 3d 84 3d 4c bd
       -0.007831334 -0.07190853 0.05717377 -0.049863353
000120 72 82 da bd 35 53 11 be e5 fa 26 bd af 2a 3a be
       -0.10669412 -0.14191897 -0.040766615 -0.18180345
000130 34 92 23 3e 63 4a bc bd 7f 56 a3 bd 22 bc 91 3c
       0.15973741 -0.09193876 -0.07975482 0.017789904
000140 e4 58 4c 3d ee 29 42 bc c3 c7 0a 3e 5e 3b c0 bd
       0.04988946 -0.011850817 0.13552766 -0.093863234
000150 32 c7 b2 3d e2 ba 0a bd 56 e1 4c be da 87 4b bd
       0.087294 -0.03386963 -0.20007834 -0.049690105
000160 76 f7 18 3d 08 eb 52 3d e3 ab 1d 3e fc 84 6c 3e
       0.037345372 0.051493675 0.15397601 0.23097605
000170 7f 5a 40 be c7 77 50 bd 3d 22 63 bd df 6e 91 be
       -0.18784522 -0.05089548 -0.055452574 -0.284049
000180 60 3a 75 bd 65 97 4d be b1 b9 46 3d f7 c9 11 3e
       -0.059870124 -0.20077284 0.048516933 0.142372
000190 1c aa 82 ba 48 64 b8 bc a5 83 27 be 8c 2d f3 bd
       -0.000996891 -0.022508755 -0.16358812 -0.11873922
0001a0 a7 14 81 3d 75 30 83 3d 08 eb 4b 3d 5d 5e 38 3e
       0.06302767 0.06405727 0.04978469 0.18004747
0001b0 17 9d f3 3d ce aa 91 3d 9d 91 49 3d 25 7d 37 3e
       0.11895197 0.071126565 0.049211133 0.17918833
0001c0 46 6b 71 3e 52 d1 0f be d9 56 d2 3c 82 05 34 3e
       0.23576078 -0.14044693 0.025676178 0.17580226
0001d0 b5 d1 0c bc ec 7c 6d 3d e9 39 1a be 94 e5 53 be
       -0.00859492 0.057980463 -0.15061153 -0.20693046
0001e0 d0 02 5f bd 36 f4 08 be 7d 94 e9 bc ba 2b c6 bd
       -0.05444604 -0.13374409 -0.028513188 -0.09676309
0001f0 55 b4 6c 3e cf fd 0c 3c fb c4 c7 3d ad aa e7 bd
       0.23115666 0.008605435 0.09754368 -0.11311851
000200 9b 09 21 3d 99 a5 c6 bb 43 7e 30 be 5d 6e e4 3d
       0.0393158 -0.0060622212 -0.17235665 0.111538626
000210 ac ec 1f be bc 9b e7 3d 85 8c 78 bd 23 ec 08 3d
       -0.15617627 0.11309001 -0.060680885 0.033428323
000220 c6 bb dc 3d a9 45 45 bd 34 5a 96 3c 2d 06 66 bc
       0.107780024 -0.048162136 0.01835356 -0.014039558
000230 41 39 1a be 18 bb 85 bb cf f4 39 be 07 6c 83 bc
       -0.15060903 -0.004081141 -0.18159793 -0.016042722
000240 04 52 a8 3c a6 3f 4f 3e 56 73 16 be 18 2d a0 bd
       0.02054692 0.20239124 -0.14692435 -0.07821101
000250 64 59 9f 3e 95 84 71 bd 65 30 92 3d 5a 70 40 bd
       0.31122887 -0.05896433 0.07138137 -0.046982147
000260 cb f2 79 3d 32 57 0a 3e 17 0c 12 be 60 bd e6 bd
       0.06102256 0.13509825 -0.14262424 -0.11266589
000270 a0 a8 99 3d 6d 21 45 3d 88 9e b3 bd 6e 88 79 be
       0.07502866 0.04812758 -0.08770472 -0.2436845
000280 07 d5 11 3e dd 3b f6 bb df 0e 77 bd b4 c5 e1 bd
       0.1424142 -0.0075144605 -0.060316917 -0.11024037
000290 6b cd 9a bb 1f d5 01 3e 6e 1a 3d 3d 05 af 07 3e
       -0.0047241948 0.12678955 0.046167783 0.13250358
0002a0 75 39 3d 3c 8f 13 2f 3d 77 97 8f 3c 24 a4 70 bd
       0.011549343 0.042743262 0.017528279 -0.058750287
0002b0 2d 1f 97 bd 3c 92 74 3d fb d4 b3 3d 2f d5 2f be
       -0.07378993 0.059709772 0.08780857 -0.17171167
0002c0 28 ea c8 3d ad fa 96 3d 48 4d ae 3d 87 3d ac 3c
       0.09810287 0.07372031 0.08510834 0.021025432
0002d0 b8 81 fd 3c ce 38 38 3c 10 32 dc 3d 52 0d 05 3e
       0.030945644 0.011244012 0.10751736 0.12993363
0002e0 fb 1d f0 bb ba 8f f3 bc 2e be 27 3e 26 5c 49 be
       -0.0073277927 -0.02973162 0.16381142 -0.19664058
0002f0 82 81 b7 3d 55 53 0a 3e 9c 70 15 3e 9f bb 39 3e
       0.089602485 0.13508351 0.14593738 0.18137978
000300 4a 60 57 3d 44 9f ae 3d 21 03 2c be c3 fa 23 3d
       0.052582063 0.08526471 -0.16798069 0.040034067
000310 d3 26 ac 3d b5 13 6f be 27 bb 29 3b c0 7b be bd
       0.08405843 -0.23347361 0.0025898905 -0.09300947
000320 6e 5a 04 3e 74 26 07 be 44 3d a9 bd 96 90 11 3e
       0.12925121 -0.13198262 -0.082636386 0.14215311
000330 55 76 b3 3d 58 7c 50 3e 0a 55 09 be fd 4f 37 be
       0.087628044 0.20359933 -0.13411346 -0.17901607
000340 05 e5 3b 3e 91 c2 23 3b 35 c0 ba bc 69 3d 74 be
       0.18349083 0.0024987797 -0.02279673 -0.23851551
000350 ee 2e 36 bd e6 1c 82 bd 2a f8 40 3e cd 99 d4 3d
       -0.04447835 -0.06353168 0.18844667 0.10380898
000360 48 fd aa 3d dd d8 7b 3d d3 af 0c be b5 54 ce bd
       0.08349091 0.061486114 -0.13738947 -0.1007475
000370 5a 18 7b be 96 90 19 be a8 a8 40 3d 9c 4e 0a be
       -0.24521008 -0.14996561 0.047035843 -0.1350655
000380 a7 a5 4f 3e 0f c5 41 bd 34 12 9a be 32 e7 44 bd
       0.20278035 -0.04730707 -0.30092013 -0.048072048
000390 45 53 20 3e a8 90 7f 3e a8 26 1b 3d c4 fe 88 bd
       0.15656765 0.24957526 0.037878662 -0.06689218
0003a0 3f a9 65 be 36 10 53 be 9c a9 6b 3d 85 1f e5 bd
       -0.22427844 -0.20611653 0.0575348 -0.111876525
0003b0 ea 22 33 3e 5a 1c 1d 3d ae 14 7f bd 00 48 ab 3d
       0.17493787 0.038357116 -0.06227558 0.08363342
0003c0 db a7 6f bd 58 22 c6 bc e2 c4 b0 bd cd f7 40 be
       -0.05850969 -0.024186298 -0.086313024 -0.18844528
0003d0 00 ff ce 3c 4b 26 4d 3d 94 c2 d1 bd f2 11 f0 3d
       0.025268078 0.050085347 -0.10242191 0.11722173
0003e0 ee 20 32 be 27 77 40 be 26 e9 f3 bd 73 97 93 bd
       -0.17395374 -0.18795453 -0.11909704 -0.07206621
0003f0 3b 3c dc bc 3b 7f 2f bd 2b 6f a8 3d e1 f3 2c be
       -0.026884189 -0.042845946 0.082243286 -0.16889907

model.0.bias f4 [512]
000000 13 8d 77 3d 70 a9 f6 bd 05 62 ac bd 8e 64 36 bd
       0.060437273 -0.120440364 -0.08417133 -0.04452949
000010 dc 33 93 3d f8 a7 52 bb 89 d7 22 bc b6 3a 6f bd
       0.07187626 -0.0032143574 -0.009939083 -0.0584056
000020 6c 0a ce 3d 68 12 d0 bd 49 71 15 3e 33 42 35 3e
       0.100605816 -0.10159761 0.14593996 0.17701034
000030 15 20 3c be 2f 99 79 bd fb fa 0c 3d 3c bf 05 be
       -0.18371613 -0.060937103 0.03441904 -0.13061231
000040 34 4d 29 3c 0f 28 38 bd ec a7 06 3e 09 9b 36 bd
       0.010333348 -0.044960078 0.13149995 -0.044581447
000050 13 de f5 bd 8e 3b d0 bd 06 9d 2c be c2 2c 13 be
       -0.12005248 -0.10167609 -0.16856775 -0.14372543
000060 f9 20 88 3c 22 c4 6a 3c 3d df a9 bd 11 a6 05 3c
       0.016617285 0.014328988 -0.082945324 0.008157269
000070 6e eb 87 3d 4c 55 8e 3c 4e 0a 8f bc 07 66 22 be
       0.066367015 0.017374657 -0.017460968 -0.15859233
000080 3a 73 28 3e e3 98 8d bd c9 70 26 3d 31 1f 30 bd
       0.16450205 -0.069139265 0.040634904 -0.042998496
000090 c2 8e b6 3d 63 38 10 be 24 db bc 3c 54 02 1f be
       0.08913948 -0.1408401 0.023053713 -0.15528232
0000a0 f7 c2 2a 3e 89 5d eb bd 22 93 37 3d 2b 5d 92 3d
       0.16675936 -0.1149245 0.04481805 0.07146677
0000b0 ba 64 e9 bd ee 47 b4 bc c7 8e 23 3e 78 72 0b be
       -0.11396165 -0.022006955 0.15972434 -0.13617885
0000c0 be ae 99 bd 96 36 0e 3e a9 cc be 3d 37 66 26 3d
       -0.075040326 0.1388801 0.093163796 0.040624823
0000d0 b7 af 35 be 2d 99 56 3c a1 d9 0b be 4b f8 c7 bd
       -0.17742811 0.013098043 -0.13657238 -0.09764155
0000e0 44 27 9e bc ca f8 94 bd 8a 20 93 3d 90 ae b6 3c
       -0.019305833 -0.07274015 0.07183941 0.022300035
0000f0 d9 ca 11 bb 58 fc 7f 3d f9 f5 9f 3c c3 cc 4b 3c
       -0.002224615 0.062496513 0.019526469 0.012438956
000100 6f 3a 24 3c 8c 44 24 3e df 50 15 3d 6a 58 09 3e
       0.010023697 0.16041774 0.036454078 0.13412634
000110 7f 86 98 bd 27 81 30 bd 30 02 4f be d2 9c 4c be
       -0.07447528 -0.04309192 -0.20215678 -0.19981697
000120 75 11 15 be ea 7a 9d 3d 1e 12 f6 bd 7a e4 cd 3c
       -0.1455744 0.076894596 -0.12015174 0.02513336
000130 5c b2 d2 3d 68 1e 0a 3d c9 4b b0 bd 2e 52 d6 3d
       0.102879256 0.033720404 -0.08608205 0.10464893
000140 71 a1 97 3d 41 d0 dc 3c 50 91 37 bd c7 58 00 3e
       0.074038394 0.026954772 -0.044816315 0.12533866
000150 d0 73 7b 3d 43 c1 3b bd d6 53 76 3d 09 d6 bf bd
       0.061389744 -0.045838606 0.060138546 -0.09366996
000160 7f f8 70 3a ce 0e 07 be 14 dc 2f be 61 03 1b 3e
       0.0009192302 -0.13189241 -0.17173797 0.15138008
000170 db 29 ac 3d 3d 76 48 3d 72 9c db bd 6c 3e 97 bd
       0.08406421 0.048940886 -0.10723199 -0.07384953
000180 a1 f9 92 bd f3 08 7e bd b8 ca 53 3e 0a f1 15 3e
       -0.07176519 -0.062020253 0.206828 0.1464273
000190 d3 52 ba 3d 7a e1 1e be c3 bd dc bd b6 0a a9 3c
       0.09097829 -0.155157 -0.10778382 0.02063499
0001a0 f5 ab 07 be 7c 36 3a 3e b5 a8 0f be 01 45 1e 3e
       -0.1324919 0.18184847 -0.140292 0.1545601
0001b0 ae f8 2b 3c 4d f3 20 3e 39 f7 f6 3d dc 59 2b bc
       0.010496302 0.15717812 0.12058873 -0.010458436
0001c0 ea f3 71 3e 77 c6 cd 3a 03 55 45 3d 41 d5 51 bd
       0.23628202 0.0015699406 0.048176777 -0.051228765
0001d0 38 3a 15 be f4 84 f0 bd 4e c1 3f be 36 bf 02 3e
       -0.1457299 -0.11744109 -0.18726084 0.12768254
0001e0 67 73 a3 3d 4e 64 35 3d 9f 64 18 3e 08 f2 f7 bd
       0.079809956 0.04428511 0.14882134 -0.12106711
0001f0 f4 3f 0a 3d e7 08 08 3c 9e b2 31 be dd 7f 53 be
       0.033752397 0.008302904 -0.17353293 -0.20654245
000200 f3 d5 47 3e e5 37 4f 3e 36 71 4a 3d 09 0c 08 be
       0.19515209 0.20236166 0.049424373 -0.13285841
000210 ec cc d2 3c 1c f1 f8 3d 4d 98 be bd b3 13 d1 bc
       0.02573248 0.12155363 -0.09306393 -0.025522089
000220 ad ae c4 bd ea cc e9 3d 2b 16 ff bd f8 d8 27 be
       -0.09603629 0.114160374 -0.124554 -0.16391361
000230 52 47 9a bd 64 91 cf ba 15 69 1e 3d 60 1e e4 3d
       -0.075331345 -0.0015836176 0.038674433 0.11138606
000240 31 46 e5 3d 62 9d 6f 3b 74 5a 4c 3d 81 6e 0b 3e
       0.111950286 0.0036562313 0.04989095 0.13616373
000250 ab 79 67 bd f9 0a 44 bd e6 22 46 3e a7 f6 2a 3e
       -0.056512516 -0.047862027 0.1934925 0.16695653
000260 95 67 c4 bb e8 1d 67 3c 43 97 05 3e 9d 03 13 bd
       -0.0059937933 0.014106251 0.13045983 -0.035892118
000270 d5 4f 2c 3e 3c 38 0b be 42 e1 b3 3d 57 46 d3 3d
       0.16827329 -0.1359567 0.08783199 0.10316151
000280 64 94 58 be 09 f0 b1 bd 6b b1 16 3e 5a 86 0d 3e
       -0.21150357 -0.08688361 0.14716117 0.13820782
000290 6b 5a 10 be 14 0a 0d 3e 5f ca fa 3d 16 7b 86 3d
       -0.14096992 0.13773376 0.122456305 0.065664455
0002a0 aa dd 80 bd 10 8f 01 be c4 33 2a bc 4c 15 f3 3c
       -0.06292279 -0.1265223 -0.010388318 0.029673241
0002b0 5a 79 44 3d 7b c5 99 3c 29 ce 31 be bc c4 1e 3e
       0.047967292 0.018770924 -0.173638 0.15504736
0002c0 b5 c6 55 3c 53 c5 09 3d ef 32 1d be f1 14 36 bd
       0.013047864 0.03363545 -0.15351461 -0.044453565
0002d0 0a 19 a7 bc 58 97 b9 3d 89 a4 0a 3e c6 cf b4 bd
       -0.020397682 0.0906207 0.13539328 -0.08828692
0002e0 7c 6d f1 bd 6b a5 e9 bd 26 4b c7 bc e0 56 1f be
       -0.117884606 -0.11408504 -0.024327826 -0.15560484
0002f0 42 e6 31 3e 09 35 03 be ae b3 0c 3e 53 12 bc 3d
       0.17372993 -0.128132 0.13740417 0.091831826
000300 7d fb 9a bd 49 8f f5 bd 8f 43 51 3d 69 ba 40 be
       -0.07567499 -0.1199022 0.05108982 -0.1882111
000310 b7 16 c4 bd 5a 25 3c 3d 18 bf 59 be 60 94 22 3e
       -0.09574645 0.04593406 -0.21264303 0.15876913
000320 7f 1c ea bd e4 6b e9 3c a5 f5 9a bd c8 4d eb bd
       -0.114312164 0.02849383 -0.07566384 -0.11489445
000330 33 d2 b8 bd 95 8a f9 3b b1 1d f9 bd 59 5f 86 3d
       -0.09024467 0.007615397 -0.12163866 0.06561155
000340 ab 65 50 3d cb 09 da 3d 98 b8 2a be 1e 79 00 be
       0.050878208 0.10646399 -0.1667198 -0.12546203
000350 48 09 f3 3d 8b 6b d9 3d e8 f0 db 3c a9 ef 49 be
       0.11867005 0.10616215 0.026848271 -0.1972033
000360 69 56 2c 3d 4d bc de 3d c2 1b a3 3c 1a e3 d4 3d
       0.042074595 0.10875759 0.019910697 0.10394879
000370 19 f5 d3 bd 45 93 e2 3d 51 46 6e 3d 4a 4a 77 bd
       -0.10349483 0.11063246 0.058172528 -0.060373582
000380 18 06 55 3e c1 2b 2d be 6f 67 29 3e 7b 29 05 3d
       0.20803106 -0.16911222 0.16543363 0.032510262
000390 dd eb 52 3d 34 5a 6b bd 18 2a 9f 3c da 45 09 3e
       0.051494468 -0.05745907 0.019429252 0.13405553
0003a0 01 aa e2 3b 2d 6b 92 3a 67 89 9d 3d 73 1a ba bd
       0.0069172387 0.0011170857 0.07692223 -0.09087076
0003b0 6a 0a 8f bd c2 11 74 3d 21 85 07 3e 4b 46 6a bd
       -0.06984408 0.059587248 0.13234378 -0.057195943
0003c0 8b f9 b7 3c 96 4e 71 3d 9d f3 f2 bd cd b0 30 be
       0.022457859 0.058912836 -0.11862872 -0.17254944
0003d0 d5 2a cc bb dd 3d 54 3d 97 ed 0d be ce 4b 0a 3e
       -0.006230692 0.05181681 -0.13860165 0.1350548
0003e0 11 10 89 3d 60 d3 16 be d0 46 46 3e b8 0c e6 3c
       0.066925175 -0.1472907 0.1936295 0.028082237
0003f0 f1 15 3a bb 92 5d 24 3c a9 06 90 bd 45 b7 87 3c
       -0.0028394426 0.0100320745 -0.0703252 0.016566882

model.2.weight f4 [256, 512]
000000 4d 74 2d 3d 72 35 c6 bc cb c0 8e 3c ea e6 4d bd
       0.04234724 -0.024195407 0.017425915 -0.050269045
000010 71 ab 94 3b 40 96 05 bd 40 a2 66 bd ea f1 0c bd
       0.004537039 -0.032613993 -0.056307077 -0.034410395
000020 e2 af 6c bd 25 38 a7 bc b4 ee 7b b7 59 a5 13 bd
       -0.057784922 -0.020412514 -1.5016343e-05 -0.03604636
000030 79 ec aa bb e2 0e e1 bb b4 ba 93 bb 26 32 20 bd
       -0.005216178 -0.0068682292 -0.0045083407 -0.039110325
000040 fd 69 b7 3c ec ed 42 bd 12 cf 9b 3b df 5f 34 bd
       0.022389406 -0.04759018 0.0047549093 -0.044036742
000050 60 55 41 bd dc fa a5 bb 37 39 de 3b 2b 03 29 3c
       -0.04720056 -0.005065305 0.006781723 0.010315697
000060 c3 b9 96 3b c9 eb 6c bd 17 5f 0e 3d 30 a9 e4 bc
       0.0045997812 -0.05784205 0.034758653 -0.027912706
000070 5b 80 f1 bc 36 1f 9a bc 6a 1a fb bb 58 ee 7a bd
       -0.02948015 -0.01881371 -0.007663061 -0.06126246
000080 f5 6e 91 bc c0 20 4e 3c 70 b8 10 bc b4 56 54 3c
       -0.017753104 0.01258105 -0.008833036 0.012960125
000090 ee 71 27 bd 6d 3d 92 3c 28 36 76 bc 2c 83 8c bc
       -0.040880136 0.017851556 -0.01502756 -0.017152391
0000a0 94 78 30 3d 44 11 6e 3b 10 79 96 bc 7b 93 cd bc
       0.043083742 0.003632621 -0.018368274 -0.025094738
0000b0 62 ea 1c bb f7 ed 11 3d d7 35 e4 bc 59 69 d9 3c
       -0.0023943414 0.03562733 -0.027857704 0.026539491
0000c0 7d 76 9a bb 36 f8 01 3c c6 31 09 bd 49 9f 1e bd
       -0.004713832 0.007932713 -0.033494733 -0.038726125
0000d0 d9 bd 0c bd db 74 06 bd 23 7b 2c 3d 6b 5e 32 3d
       -0.03436074 -0.032826286 0.04210962 0.043547075
0000e0 4e a4 00 bd 18 78 ad bc e6 c4 43 b9 fa 8f 8a 3c
       -0.031406693 -0.02117543 -0.0001867 0.016914356
0000f0 95 19 c4 bb ad ad 08 3c 1c eb 45 3c da 46 88 bc
       -0.005984495 0.008342189 0.01207998 -0.016635347
000100 d4 78 12 3d 07 a3 27 bc 15 bc 80 bb 31 20 95 3c
       0.035759762 -0.01023174 -0.003928671 0.018203827
000110 9b 56 bc 3a 1e 7d 9e bc aa ef 0b bc 36 a5 d4 3c
       0.0014369072 -0.01934677 -0.008541027 0.025957685
000120 ef b4 56 bc 20 5e 61 3c 11 c7 46 3b 18 4c af bc
       -0.013104661 0.013755351 0.0030331055 -0.021398589
000130 9b 47 dc bc 78 f8 7c bb 55 b8 81 bd 79 7d 6f bc
       -0.026889613 -0.0038600247 -0.06333987 -0.014617317
000140 73 6b 0f bd 09 67 b1 bb 7f 68 21 bd 4e 9f 21 bd
       -0.03501458 -0.005413894 -0.039406296 -0.039458565
000150 90 2a ac 3c 5c fe d2 bc 04 68 51 bd 74 b3 c1 bc
       0.02101639 -0.025756054 -0.051124588 -0.02364514
000160 c3 11 d5 bb 2e ad 92 bc 80 03 1a 3d 32 36 53 bd
       -0.0065023615 -0.017904844 0.037600994 -0.051565357
000170 3b 9d 1d 3d b2 b7 8b bb a8 17 d0 bc 13 5f 2b bd
       0.038480025 -0.0042638415 -0.025401905 -0.041838717
000180 ff 51 60 bb 06 03 07 bc 4f 8a 56 3c ed e6 16 bb
       -0.003422856 -0.008240467 0.013094499 -0.0023025826
000190 e8 a8 50 bd 87 36 aa 3b 2e bc f9 bc 34 fe 22 bd
       -0.05094233 0.0051944884 -0.030485239 -0.03979321
0001a0 28 7f ff 3b 79 c0 1a 3c 01 7a 0a bd 6f d4 a6 3c
       0.0077971406 0.009445303 -0.03380776 0.020364968
0001b0 43 d9 bd 3c 65 0a 94 3b 81 e5 72 bd fd de 72 bd
       0.023174888 0.0045178407 -0.059300903 -0.05929469
0001c0 f3 39 f9 ba 17 97 8d 3b fd 34 6a bd cf d1 b9 3c
       -0.0019014463 0.00432099 -0.05717944 0.022683052
0001d0 0d 91 1f bc 54 d8 68 bd a6 fc 58 bd e4 ad 00 bd
       -0.009739173 -0.05684693 -0.05297532 -0.031415835
0001e0 7f b2 0d 3b b2 e6 51 bd 83 45 3a 3c a7 e5 34 3d
       0.0021621285 -0.0512454 0.011369112 0.044164326
0001f0 0c 6c a8 3c 56 cb a4 3c f3 e4 93 bc a8 ee 18 bd
       0.020559333 0.02011649 -0.018053507 -0.037336975
000200 17 0b 45 3c ea de f6 bc 77 97 dd 3b 8d 02 ca 3c
       0.01202657 -0.03013559 0.006762441 0.02465942
000210 55 f1 33 bd 1a 1f fd bc c8 f0 1d bd c3 5a e7 bc
       -0.043931324 -0.03089862 -0.038559705 -0.02824152
000220 fa 39 98 bc 79 56 fb bc 10 b9 2f 3d 87 d2 92 3c
       -0.018582333 -0.030680882 0.0429011 0.017922653
000230 4b 77 e3 bc 54 92 b2 3c e4 f8 48 bc f2 9e 74 bc
       -0.027766844 0.02179829 -0.012266371 -0.014930474
000240 a5 2e 87 3b 80 ee 5b bd 15 98 cb 3a 2a 26 44 bd
       0.0041254335 -0.05369425 0.0015532995 -0.04788796
000250 a5 45 21 bd 41 87 8f 3c 97 fe b2 3b 96 8a 97 bc
       -0.03937306 0.017520549 0.0054624784 -0.0184987
000260 37 3e 57 bd 41 78 23 3d 9d 48 b6 bb d7 50 f0 bc
       -0.052549567 0.039909605 -0.0055628554 -0.029335422
000270 5c 29 6d bd 7e c9 95 bc 26 33 c9 bc eb 86 8d bc
       -0.05790077 -0.018284556 -0.024560522 -0.017276248
000280 97 a3 8a 3b 22 6f 7d bd 60 8d 88 3a 99 6f b8 3c
       0.004230927 -0.061873563 0.001041811 0.022514151
000290 3b e0 73 bd d9 8a 11 3d 15 cd 1d bd f5 5a 51 3b
       -0.059540015 0.035532806 -0.03852566 0.0031945084
0002a0 d3 17 b7 3c 65 bd a9 3b 4c ce 31 3c 99 aa a0 bc
       0.022350227 0.0051800483 0.010852408 -0.019612597
0002b0 c7 92 65 bc 01 fc 19 bd 44 54 03 bd 96 f7 71 3c
       -0.014012045 -0.037593845 -0.032062784 0.014768502
0002c0 80 75 73 bd 3f 2d ff ba 82 50 d5 bc b2 38 8e 3c
       -0.05943823 -0.001946844 -0.026039366 0.017361019
0002d0 c4 4e 41 3c 26 f7 f9 bc 83 9e c8 bc d4 25 fb bc
       0.011798564 -0.030513357 -0.024489647 -0.030657686
0002e0 55 d6 28 3d a5 31 da bc 23 5b a9 bb 1e b3 fd 3c
       0.041220028 -0.026635 -0.005168335 0.030969199
0002f0 ba bb 80 bd b6 0a 32 bd 26 17 fe bc b1 46 e1 bc
       -0.06285806 -0.043467246 -0.031016897 -0.027499529
000300 db 11 e1 3c b5 5d 5c bc c3 84 95 bc 6d ea f0 3c
       0.027474334 -0.013450076 -0.018251782 0.029408658
000310 1a 95 70 3c b8 64 56 3b 58 57 8f 3c 71 94 78 bd
       0.014683986 0.0032713842 0.017497703 -0.06068844
000320 d7 6e 21 bd 94 be 5e bc e1 e0 17 bd e8 1f 4a bc
       -0.039412346 -0.013595242 -0.037079696 -0.012336709
000330 d4 af 4c 3c 7a e4 2f 3d c8 c0 f4 bc 60 28 75 bd
       0.012493093 0.0429425 -0.029877082 -0.059852958
000340 d4 9e 2a bd fd eb 2f 3d 02 c6 d8 bc c1 6c 7e bd
       -0.041655377 0.042949665 -0.026461605 -0.062115435
000350 a0 b0 bf bc 4b 62 3c bd 66 00 3d bc 7f 0f 03 bd
       -0.023399651 -0.045992177 -0.0115357395 -0.0319972
000360 60 13 75 bc 96 f4 25 3d da 56 28 bd 0a 93 1b bc
       -0.014958233 0.04051646 -0.041098453 -0.009495506
000370 f6 ae b0 3b 64 da 7e bd b9 c4 34 bd 71 16 76 bb
       0.0053919507 -0.062219992 -0.04413292 -0.0037549997
000380 3e b5 66 3c 6b 6b c9 3b af 51 a8 bc c0 43 70 bc
       0.014081297 0.0061468384 -0.020546762 -0.01466459
000390 45 d7 98 3b ac 6a 22 bd b2 6d e2 bc 13 08 9c bc
       0.004664334 -0.03965251 -0.027640197 -0.019046819
0003a0 ce f3 96 bb 74 c1 bd 3c 2c 94 08 bd a9 cb bd bc
       -0.0046067005 0.023163535 -0.033344433 -0.023168402
0003b0 13 16 c0 bc f1 52 26 bd 9b e6 57 bd 46 6e 9a bc
       -0.023448026 -0.040606443 -0.052710157 -0.01885141
0003c0 9e f1 5e bd 80 74 09 3d a7 50 00 bd b6 da dc 3c
       -0.054429643 0.03355837 -0.031326916 0.026959758
0003d0 aa b2 15 3d d0 0e 05 bc 59 2c a7 3c 4d c4 2e 3c
       0.03654734 -0.008121207 0.020406889 0.010666919
0003e0 ee 74 fc bc 18 ae ce 3c 8d 49 06 bc 8a 6f 0e 3d
       -0.030817475 0.025229499 -0.008196247 0.03477434
0003f0 ad 7b 5c bd 5f df 5b 3c d4 7d cd 3b f3 55 0d 3b
       -0.053828884 0.013419955 0.0062711034 0.0021566122

model.2.bias f4 [256]
000000 b1 70 0d bd 54 26 47 3d 21 98 06 bd f0 b9 2a 3c
       -0.0345313 0.048620537 -0.032859925 0.0104203075
000010 ff 23 22 3d 4c ef 81 bc 72 ed a8 3c 24 55 bd 3c
       0.03958511 -0.015861176 0.020621035 0.023111887
000020 75 59 67 3d b5 a4 10 3d 0b 3e c7 bb 27 9d 2c 3d
       0.056481797 0.035313327 -0.006080394 0.04214206
000030 77 98 81 bd 2a 07 bc bc 9b ac a5 bc 9b b4 7d bb
       -0.063279085 -0.022952635 -0.020223906 -0.0038712386
000040 33 57 fd 3c e6 fe db bc a4 64 fb 3c 7c 54 d3 bb
       0.030925369 -0.026854943 0.030687638 -0.0064492803
000050 51 8b 99 bc 23 05 9d bb b0 0e 4e bd 0a 41 60 3d
       -0.018743189 -0.004791872 -0.050306976 0.054749526
000060 3f a8 cc ba 6f af 10 bb c7 06 7b 3d 00 65 3f 3d
       -0.0015614106 -0.0022077223 0.06128576 0.04672718
000070 94 85 4a bd 9a 83 a2 bb 79 08 04 3c 3b b7 76 3d
       -0.049443796 -0.004959536 0.008058661 0.060233336
000080 01 2f 17 3a a0 8d 22 bc 5e d7 7a 3d c3 4e 84 bb
       0.0005767197 -0.009921461 0.061240546 -0.0040377094
000090 ee 8c 62 bc ab fc dd bc 57 90 8a bb fe af a8 3c
       -0.013827546 -0.02709802 -0.0042286324 0.020591732
0000a0 f8 d4 20 3d fc 9f 6d 3d f4 28 51 bc ae 88 54 3d
       0.039265603 0.0580139 -0.012766112 0.05188816
0000b0 0c a5 62 3d 5a e4 33 3d ba a6 dc 3c 38 8a 28 3c
       0.055333182 0.043918945 0.02693497 0.01028686
0000c0 87 31 fd 3c 52 21 cc b7 c7 94 7e 3a 1f 84 ed 3a
       0.030907406 -2.4334211e-05 0.00097115006 0.001812104
0000d0 a9 96 79 3d 81 1c 71 3b 4f 1f 68 bc f2 7d f9 bc
       0.060934696 0.0036790671 -0.014167621 -0.030455563
0000e0 56 12 41 bc cd 4e e7 bc e2 79 85 bc 7c a1 e0 bc
       -0.011784157 -0.028235817 -0.01629347 -0.027420752
0000f0 b0 d3 43 3d 75 4d 4d 3d 63 80 e8 bc 62 be 65 bd
       0.047809303 0.050122697 -0.028381532 -0.056089766
000100 58 2c 0b 3c 11 e2 d7 3c d3 df 3e 3c 95 71 87 3d
       0.008494459 0.026352914 0.011650044 0.06613461
000110 4f 78 b7 bb 90 d8 08 3d 57 83 60 bc 4f 04 47 3d
       -0.0055990587 0.033409655 -0.013703189 0.048588093
000120 18 19 b4 3c 3f 43 09 3d 64 e5 17 3c 06 e4 67 3b
       0.021984622 0.033511396 0.009271 0.0035383715
000130 27 16 20 3d ab 20 6c bd 0a 5b 09 3d b4 4f 03 3e
       0.039083626 -0.057648342 0.033534087 0.12823373
000140 3a 3e 15 bd bf 49 ef 3c 6e 83 32 bc de c1 12 bb
       -0.036436297 0.02920997 -0.010895593 -0.0022393386
000150 83 09 a8 3c c1 6b 85 bc 25 b6 6b bd 17 4a 50 3c
       0.020512348 -0.016286733 -0.057546753 0.012712977
000160 5f 96 45 3c 79 ec 18 bc 78 48 e5 3b 41 70 cf bc
       0.012059777 -0.009333723 0.0069971643 -0.025322082
000170 77 da 85 3d 67 34 86 3d 69 30 51 bd c4 a3 06 3d
       0.065358095 0.06552964 -0.05107156 0.032871023
000180 7c 44 32 bd f8 4a 06 3c 7f 50 82 bc 34 d7 50 bd
       -0.043522343 0.008196585 -0.015907524 -0.050986484
000190 47 22 ad 3c 9f 1f ef bc f6 16 54 bb 24 77 3c bd
       0.021134509 -0.029189883 -0.0032362319 -0.04601206
0001a0 54 34 0d 3d a7 68 51 3c 4c 6c 91 bd 5b 37 78 bd
       0.034473732 0.012781299 -0.07100734 -0.060599666
0001b0 c5 8a 28 bc 86 df 1d 3d 17 9d b3 3d 29 14 0f 3d
       -0.0102869915 0.038543247 0.08770197 0.034931336
0001c0 62 a3 f6 bb 4a 13 c3 bc 6e 22 13 bc 3f 89 aa bb
       -0.007526801 -0.023812909 -0.008980377 -0.0052043493
0001d0 a7 99 a5 bc c8 9d cc 3c e9 a3 61 3c bf da 94 3c
       -0.020214869 0.02497758 0.013771989 0.018170713
0001e0 44 1e b2 ba 51 3e b0 3c 75 bf 56 3d 55 fa 77 bc
       -0.0013589342 0.02151409 0.05242868 -0.015135367
0001f0 a1 7d 08 bd f5 a4 00 bd 85 2f ae 3c 67 3c 46 3d
       -0.033322934 -0.031407315 0.021262893 0.048397448
000200 26 f0 37 bc ce 1d 1f 3d d7 9d 13 3d 8a fb ad 3c
       -0.011226689 0.038846783 0.0360392 0.021238107
000210 e6 74 68 3d 2e 18 dd 3c 3d a9 8e 3b 5c 14 f4 bb
       0.056752108 0.026989069 0.004353671 -0.007448716
000220 5e a1 29 bb a6 75 ca 3c 94 e3 ad bc a7 cf 14 bc
       -0.0025883536 0.024714302 -0.021226682 -0.009082711
000230 e9 e2 07 3d 87 05 dc bc 2e d3 46 3d 3a 6f 85 3c
       0.033175383 -0.026858104 0.04854124 0.016288389
000240 6c cc 74 3d ce 0f 09 3d 75 39 0d 3c c7 11 45 bd
       0.059765264 0.03346234 0.008619656 -0.048112657
000250 1f 85 92 bb 9e d5 43 3c fa 46 ca 3b 6e 7a cc bc
       -0.0044714357 0.011952786 0.006173012 -0.024960723
000260 b8 34 5e 3c e5 d0 64 3c fc 8c 43 bc f3 ca 80 3d
       0.013562374 0.01396582 -0.011935469 0.062887095
000270 6f 7e ce 3c aa 36 b8 bc 31 f9 f1 3b 02 50 3d bc
       0.025206773 -0.022487003 0.0073844423 -0.01155472
000280 a9 5a c6 bc fc 84 33 bd 15 ac 47 3d c6 d7 94 3b
       -0.024213152 -0.043827996 0.048748095 0.0045423238
000290 b6 8b b4 bb b7 24 99 3c 9f 43 38 3b bc db 4a bc
       -0.005509819 0.018694265 0.0028116477 -0.01238149
0002a0 7f ff 90 3c 05 da 15 3b 4c ca 3e 3c 4f 33 83 3d
       0.017699955 0.0022865545 0.011644911 0.06406271
0002b0 e0 19 88 3b a2 5b cb 3b 10 fc db bb d9 ea 6b 3d
       0.004153475 0.006205992 -0.006713398 0.057597015
0002c0 c5 76 c2 bb 86 8c 97 3c e0 9d 95 3c fa 9f 36 3d
       -0.0059345686 0.018499624 0.018263757 0.04458616
0002d0 15 af d2 bc 28 c3 94 3c 6d cf e0 3b b0 24 77 bd
       -0.025718251 0.018159464 0.0068606646 -0.060337722
0002e0 0b 4b ff bc 0b 43 0f 3c fc da 13 bd 69 78 1b bb
       -0.031163713 0.008744012 -0.03609751 -0.0023722893
0002f0 e6 6b 79 3d 4c d4 11 3d 22 a0 bb bc 26 a5 ce 3b
       0.060893916 0.035602853 -0.022903506 0.0063063083
000300 e4 e5 61 bc e9 4f 38 bd 40 28 df 3c e5 7e 39 3c
       -0.01378772 -0.044998083 0.027240872 0.011321758
000310 ac 6e 82 bd f6 01 1d 3d 0c ff d8 bb 01 bf 27 bd
       -0.06368765 0.03833195 -0.006622201 -0.04095364
000320 c3 f7 35 bd a5 db ec bc 22 48 bb bb 1b 68 db 3c
       -0.044425737 -0.028913328 -0.005715386 0.02678304
000330 6f 2b 9c b9 c7 1c 7d 3c 48 bd 2d 3d 2d 37 92 3b
       -0.00029787 0.015448756 0.04241684 0.004462144
000340 75 40 b9 bc e8 b0 46 3d a2 3a 0b bd 38 a9 82 3b
       -0.022613743 0.048508555 -0.033991463 0.0039874576
000350 e3 01 a2 3b fd 94 2d 3c fb 2e ee bc ff cc 2f bd
       0.0049440726 0.010594604 -0.029075136 -0.04292011
000360 26 a8 70 bc ae b1 90 3c ba 0f 53 3d 3a 89 5c bd
       -0.014688527 0.01766285 0.05152867 -0.053841807
000370 8c 3e 50 3d 5d 6b c1 3c b7 51 d7 bc 82 19 66 3c
       0.0508409 0.023610765 -0.026284082 0.0140441675
000380 91 19 24 3c d7 83 25 bd e7 95 04 3d 40 c1 22 3c
       0.010015861 -0.040408935 0.03236952 0.00993377
000390 f1 9c 33 bc 8d b8 1a 3d fa c8 01 3b a8 a7 01 bd
       -0.010962711 0.037773658 0.001980363 -0.03165403
0003a0 13 37 37 ba 0a 13 35 bd a1 e2 67 3d 75 8c cb bb
       -0.00069891027 -0.04420761 0.056612615 -0.006211812
0003b0 30 82 e6 3c 39 74 7a 3c d4 72 07 3c 5f 08 21 3d
       0.02813825 0.015286499 0.008267123 0.039314624
0003c0 6f 2e a4 3b a0 44 12 3c 4a 7b 5e 3d 74 6d fd 3c
       0.005010418 0.008927494 0.054316796 0.03093598
0003d0 14 48 1b 3d 88 83 01 bc 1d 71 d7 3c be 4c 53 3d
       0.037910536 -0.007904895 0.026299054 0.05158686
0003e0 03 b2 1c bd b5 36 98 3c d0 5a c0 3b 61 6b 98 bb
       -0.038255703 0.018580774 0.0058702007 -0.0046514724
0003f0 59 89 01 bc 88 8a 4d 3d 9f 47 31 3b 57 93 82 3c
       -0.007906281 0.05018094 0.0027050746 0.015939398

model.4.weight f4 [1, 256]
000000 06 d0 44 bc 48 8f 06 be 15 14 46 bb 28 1e 1d be
       -0.012012487 -0.13140595 -0.0030224372 -0.15343535
000010 40 e1 15 bc 93 91 21 bc 43 dd 41 3d 66 76 f9 bd
       -0.009147942 -0.009861368 0.047330152 -0.12180786
000020 a4 ab 2a be 7d 3a 17 be 32 b4 37 be 8e 2d ca bd
       -0.16667038 -0.14768405 -0.17939833 -0.0987197
000030 0b 30 d2 3d d7 11 50 3d 10 d4 d4 3b 0a 01 25 be
       0.1026307 0.050798263 0.0064950064 -0.16113678
000040 94 67 d3 bd a4 50 42 3d cc 75 21 be a6 7d 02 3d
       -0.1032249 0.047440186 -0.15767592 0.03185811
000050 d4 7c ba 3c f7 a6 fb 3c c6 da a0 bb 9e b5 43 be
       0.0227646 0.030719263 -0.0049088923 -0.1911225
000060 a0 14 30 bd 16 5c 0a be 39 49 12 be 8f 48 91 3e
       -0.04298842 -0.1351169 -0.14285745 0.2837567
000070 b7 34 59 bc 05 0b 91 3a 85 98 17 3e d8 39 99 be
       -0.013257197 0.0011065906 0.14804275 -0.29926944
000080 78 da 26 be 44 c0 aa 3c e1 c7 14 be 88 8e 27 be
       -0.16294277 0.020843633 -0.14529373 -0.16362965
000090 95 dc 1a bd df 77 1f be 2d ce a3 3c d3 00 14 be
       -0.03780802 -0.15573071 0.019995773 -0.1445344
0000a0 b5 03 1c 3e ac db 35 be 54 f4 54 3d 76 e9 1d be
       0.15235789 -0.1775958 0.051990822 -0.1542109
0000b0 db c9 0e be 09 32 05 be 4a 60 9b 3c 8a 27 10 be
       -0.13944189 -0.13007368 0.018966813 -0.14077583
0000c0 75 14 5b 3e d5 a6 a1 3a 60 2d 32 be 24 b1 17 be
       0.21394522 0.0012333045 -0.17400122 -0.14813668
0000d0 d4 55 62 be df 14 01 bd 6f 08 4b 3d 18 e8 03 bb
       -0.22103053 -0.031514045 0.04956859 -0.0020127352
0000e0 7b c0 d1 3c 40 ff f8 3c 91 a6 1d be 8c 51 61 3d
       0.025604477 0.03039515 -0.15395571 0.05500941
0000f0 be f2 22 be ae 2e 11 be b0 b7 21 3c 3e e2 22 3d
       -0.15912911 -0.14177963 0.009870455 0.039766543
000100 c8 f0 0c 3c 13 7b 26 bb 77 cb 05 3d bf 15 20 3e
       0.008602329 -0.0025402948 0.032664742 0.15633295
000110 1a 99 9f 3b ec 70 1d be a0 6b c0 3c d5 a4 31 be
       0.004870546 -0.15375108 0.02348882 -0.17348035
000120 17 6e e2 bd ea 46 18 be 5a 51 c9 3d d1 b4 27 3c
       -0.11056154 -0.14870802 0.0982997 0.010235981
000130 12 8e 31 be c8 2b aa 3b 08 08 c7 3c f0 49 c4 3e
       -0.17339352 0.0051932074 0.024295822 0.3833766
000140 ab 79 50 3d 67 4c 73 be 86 9b 0f 3d 43 82 bc 3c
       0.05089728 -0.23759614 0.035060428 0.023011332
000150 15 39 d1 ba c3 a0 03 3d 78 3a db bc 3a 36 fd bd
       -0.0015962446 0.032135736 -0.026761279 -0.123638585
000160 48 82 54 3d e1 5a 32 be dd 6d 75 3b b5 06 27 be
       0.05188206 -0.1741748 0.0037449517 -0.16311152
000170 08 ad 4f 3e ca 14 0b be b9 2d 11 3c b3 87 38 be
       0.2028085 -0.13582149 0.008860999 -0.18020515
000180 83 92 63 3d f0 90 2f be 59 68 9d bc 55 4b 3b 3d
       0.055559646 -0.17145133 -0.019214796 0.04572614
000190 1c 06 14 be 02 db 9e b8 22 c1 0a be c1 20 70 3c
       -0.14455456 -7.5748205e-05 -0.13550237 0.014656247
0001a0 20 ff 28 3d 87 54 46 3d e9 2c 85 3b 31 af 9c 3d
       0.04125893 0.048420455 0.0040641916 0.076506026
0001b0 16 ad 82 3a 1d e2 02 be ed 68 3b 3e 4a 1d ee bd
       0.0009969797 -0.12781568 0.18301745 -0.1162668
0001c0 de 94 cb 3c bb db 6d 3d bf f6 2d 3d 77 03 78 3c
       0.024851259 0.05807088 0.042471644 0.015137545
0001d0 71 84 3e 3d c2 e6 1e be aa 83 25 be a5 2c 2f be
       0.046513025 -0.15517715 -0.16163507 -0.17106874
0001e0 6e 9f d5 bb 59 97 94 3b f8 cf 07 be 0f e2 2e be
       -0.0065192496 0.0045346436 -0.13262928 -0.17078422
0001f0 00 fe 37 3d cf bc 23 3d aa cc 0e 3d 29 a7 f0 3d
       0.044919968 0.039974984 0.03486315 0.11750633
000200 f2 fc 0e 3c 97 62 c7 bb 0f 4f 0f be b0 82 b3 3d
       0.008727299 -0.006084751 -0.13995002 0.08765161
000210 a1 c9 15 be cc 64 0a 3d 64 2f 66 3d 91 2b 78 3a
       -0.14627697 0.033787534 0.05619754 0.0009466941
000220 47 18 22 be 2c 1f 15 be fd a4 d8 bd 08 30 89 bc
       -0.15829574 -0.14562672 -0.10578344 -0.016746536
000230 79 dd 08 be bc 20 74 bd 9e 4c e8 bd c5 1e 22 3d
       -0.13365735 -0.05960153 -0.113427386 0.039580125
000240 94 b8 10 be 4a 82 7c 3c ed ba 18 be 29 a5 8c bc
       -0.14132911 0.015411923 -0.14915057 -0.017168598
000250 03 b1 95 ba f7 ae 1a be 78 e8 bf 3c 10 d8 3b bc
       -0.0011420551 -0.15105806 0.02342628 -0.0114650875
000260 fb 4f 1d be 68 1c 04 be f4 b4 17 be 86 3c f1 bd
       -0.15362541 -0.12901461 -0.14815122 -0.11779122
000270 bf 93 f3 bd 40 15 5b 3c 26 82 13 be 74 88 49 bd
       -0.11893415 0.013371766 -0.14405116 -0.049202397
000280 29 5e 19 be b2 fa 33 3c ba 1b 44 be 8b ac 8b bc
       -0.14977325 0.010985063 -0.19151202 -0.017050048
000290 9c 8c 21 be 9d ca fe 3b f8 1b d6 3d dc 40 25 be
       -0.15776294 0.007775618 0.10454553 -0.16138023
0002a0 1f 99 22 be b1 db 1c be d3 db 34 bd a2 d3 fc bd
       -0.15878724 -0.1531818 -0.044154953 -0.12345053
0002b0 b4 57 ef bd 49 a3 e4 3c 86 96 6b 3c 3b ce 22 be
       -0.1168665 0.027909892 0.014379149 -0.15898983
0002c0 d1 f6 16 be d5 d4 13 be 53 98 17 be 58 0d 32 be
       -0.1474259 -0.14436658 -0.14804201 -0.17387903
0002d0 11 f8 18 3b 04 72 3d be fd 4b 0e 3b dc 05 a7 bc
       0.0023341218 -0.18500525 0.0021712773 -0.020388536
0002e0 ce d4 25 3d be c9 4b 3d 89 47 88 bb 76 1c e8 3c
       0.04048615 0.049752943 -0.0041589183 0.028333884
0002f0 7c 1e 51 be 6f 94 f1 bd f9 33 ed 3a b9 36 32 3d
       -0.20421785 -0.117958896 0.0018097154 0.04350922
000300 c5 49 0d 3c e2 07 13 be 90 c2 7a 3d 62 43 19 be
       0.008623545 -0.14358476 0.061220706 -0.14967111
000310 f9 e2 df bc 0f 42 20 be a4 01 b1 3b 97 0b 20 bd
       -0.027329909 -0.156502 0.005401807 -0.039073553
000320 12 bc 29 3d 1e bb c0 3c 1e 09 b7 3d e2 94 de ba
       0.041439123 0.023526724 0.08937286 -0.0016981626
000330 46 99 41 bd c1 e7 93 3d ea 31 cd bd 06 b8 12 3e
       -0.047265314 0.07221938 -0.10019286 0.14328012
000340 35 35 33 3d 1b 93 16 be 06 7b 0a 3d 91 56 b4 3c
       0.043751914 -0.14704554 0.03380873 0.022013934
000350 4d 64 30 3e 7d 98 21 be c3 2c 1e be cc 8d 71 b9
       0.17225762 -0.15780826 -0.15446763 -0.00023036374
000360 3e dd b2 3c 62 c0 6a 3d 45 f7 38 be f1 fb 66 bc
       0.021834012 0.057312377 -0.18063076 -0.014098153
000370 0a 69 0c be 94 ba 33 be 22 10 60 bd 56 e4 8b 3c
       -0.13711944 -0.17551643 -0.054702885 0.017076652
000380 1a c0 20 be a0 5f 46 bc a0 1e 1c be 19 24 51 3d
       -0.15698281 -0.01210776 -0.15246058 0.051059816
000390 3e 73 2c 3d fa 81 56 be bf bb 2c 3c 07 f2 02 be
       0.04210209 -0.2094802 0.010542809 -0.12787639
0003a0 8f f5 82 bc f5 79 54 bd 79 84 1d be 61 aa 4d 3d
       -0.015986232 -0.05187412 -0.15382566 0.050211314
0003b0 ca b1 07 3e 96 49 06 be ca 38 d7 bb 66 60 ef bd
       0.13251415 -0.13114008 -0.006568049 -0.116883084
0003c0 60 1f 1f be 9d 1c f1 3b dc 9a ca bd f6 9c f4 3c
       -0.15539312 0.0073581473 -0.09892818 0.029860001
0003d0 7e d5 17 be ed 59 35 3d ef b6 18 be 7f e3 0c be
       -0.14827535 0.044275213 -0.14913534 -0.13758658
0003e0 ff 4f df 3c 8b c2 20 be 2a da 87 bd ec 7a 16 be
       0.027259825 -0.15699212 -0.06633408 -0.14695328
0003f0 3e d4 06 3d 0e 77 02 be 37 08 65 3d 21 dd 1d be
       0.032917254 -0.12740728 0.055916037 -0.15416385
